v.pth (torch, 169976 bytes, 7 tensors)

net.0.weight f4 [64, 3]
-0.50377184 -0.18468964 0.37732214 0.16532114 -0.32355008 -0.5128914 0.6876153 0.5618725
0.23908779 0.11644669 0.20336062 0.30633664 0.58518285 0.07920927 0.19655374 0.4633305
-0.27764976 0.45682877 -0.51798135 0.024660746 0.4089894 -0.003993988 0.5424634 -0.05720553
0.1816625 -0.082291275 -0.2741906 -0.5638729 0.3994883 0.09407924 0.5702168 -0.054216582
-0.12975185 0.23329188 0.13598064 -0.0051082294 -0.22910443 0.24647537 -0.13785954 0.47747862
-0.5579472 -0.12975633 -0.1498427 0.58051 -0.08252933 -0.46736926 0.29560885 0.3703363
-0.45787606 0.24494375 0.58965814 0.41980144 0.21910676 0.39308253 -0.124738134 0.36492705
0.42708448 0.11093762 0.15851678 -0.31818855 -0.42522112 0.10813152 0.33385783 -0.075003326
0.6582047 0.363744 0.5577929 0.42436242 0.07222981 -0.014622883 0.13968773 -0.56793547
-0.068977796 -0.10304059 -0.24008739 -0.3302533 0.23487695 -0.45271596 0.074093565 -0.525693
-0.17275396 0.042794637 -0.17710327 0.26639375 -0.36453575 -0.34222797 0.5202334 0.6514269
-0.405474 -0.47462296 0.35669053 -0.034837734 -0.37503928 0.11347279 -0.31087396 0.27500677
0.3576533 0.03802964 -0.45814887 -0.24220318 0.4577424 0.539598 -0.14360407 -0.078597285
-0.5553372 0.32289806 0.55099845 0.18655126 0.45941544 -0.09078093 -0.43737257 0.61105883
-0.6028252 -0.20356202 -0.04886956 0.443841 0.20659792 0.45930982 -0.04815191 -0.32194
0.34597287 0.6174904 -0.11164727 -0.1960682 -0.13159865 -0.0066156387 0.543683 -0.30021074
0.0072710584 0.27960926 0.16467743 0.2435331 0.018345052 -0.3805562 0.40011865 0.44099048
-0.51796085 -0.25220594 0.3774411 0.5584309 0.47776896 -0.66348445 -0.027762799 0.040351328
0.12037065 -0.3274731 0.1026841 0.1204928 0.24193552 -0.19860642 0.07885315 -0.5552411
-0.26441026 0.2203085 0.4046949 0.40211433 -0.06896585 -0.121827245 -0.14380716 0.12985742
0.44322217 -0.6040323 0.14944296 -0.36254084 0.26617438 -0.44524467 0.64442366 0.42325965
0.33699337 -0.5297271 0.18657777 -0.56917864 -0.43937275 -0.017456988 -0.041596726 0.28442731
0.1107952 0.46105993 -0.47326395 0.5804339 -0.071762525 -0.062305063 -0.42126986 -0.38306895
0.11909405 -0.5021376 0.116784394 -0.21312338 0.12346317 -0.45953578 -0.08164483 -0.4984173
00000000: 31f7 00bf 481f 3dbe 5e30 c13e f249 293e
00000010: 5ba8 a5be da4c 03bf 8e07 303f e0d6 0f3f
00000020: 6ed3 743e 9a7b ee3d c43d 503e 28d8 9c3e
00000030: 8bce 153f 7838 a23d 6245 493e a839 ed3e
00000040: 1c28 8ebe 76e5 e93e 6d9a 04bf 5505 ca3c
00000050: 0f67 d13e 00e0 82bb e2de 0a3f 5950 6abd
00000060: bc05 3a3e 5488 a8bd b662 8cbe f959 10bf
00000070: bb89 cc3e 9eac c03d baf9 113f 3512 5ebd
00000080: abdd 04be 11e4 6e3e 823e 0b3e ef62 a7bb
00000090: 5a9a 6abe 0a64 7c3e 0d2b 0dbe 1478 f43e
000000a0: a1d5 0ebf d8de 04be 5d70 19be 4e9c 143f
000000b0: 2305 a9bd 064b efbe 0b5a 973e b89c bd3e
000000c0: bb6e eabe 89d2 7a3e d6f3 163f 37f0 d63e
000000d0: 865d 603e 1d42 c93e b576 ffbd b8d7 ba3e
000000e0: d1aa da3e 4333 e33d 3952 223e 9ce9 a2be
000000f0: 95b6 d9be 0f74 dd3d 6aef aa3e 589b 99bd
00000100: 1a80 283f a73c ba3e 84cb 0e3f 0846 d93e
00000110: 39ed 933d d194 6fbc 4d0a 0f3e 3864 11bf
00000120: 3b44 8dbd f206 d3bd 78d9 75be f616 a9be
00000130: 9583 703e 63ca e7be 5ebe 973d d193 06bf
00000140: 6ae6 30be 6e49 2f3d 8f5a 35be c364 883e
00000150: 6ea4 babe 8138 afbe 042e 053f eac3 263f
00000160: 4a9a cfbe c801 f3be 24a0 b63e 03b2 0ebd
00000170: 2605 c0be 6c64 e83d df2a 9fbe b0cd 8c3e
00000180: 551e b73e f8c4 1b3d 7d92 eabe 1c04 78be
00000190: 365d ea3e 1823 0a3f f20c 13be 9df7 a0bd
000001a0: 942a 0ebf e552 a53e 3c0e 0d3f 4b07 3f3e
000001b0: 8038 eb3e 5aeb b9bd 4cef dfbe 5a6e 1c3f
000001c0: c152 1abf 9072 50be 732b 48bd 213f e33e
000001d0: 688e 533e a82a eb3e f03a 45bd 52d5 a4be
000001e0: 5b23 b13e da13 1e3f 53a7 e4bd 1ac6 48be
000001f0: ccc1 06be 00c8 d8bb cf2e 0b3f 39b5 99be
00000200: 0f42 ee3b f228 8f3e 33a1 283e be60 793e
00000210: 5d48 963c 43d8 c2be 5adc cc3e 81c9 e13e
00000220: 1599 04bf 2321 81be f63f c13e 54f5 0e3f
00000230: 229e f43e 1eda 29bf cf6e e3bc 6f47 253d
00000240: e384 f63d 8eaa a7be 0b4c d23d eec4 f63d
00000250: f2bd 773e 7b5f 4bbe c37d a13d 4824 0ebf
00000260: c860 87be 8d98 613e 2c34 cf3e eee1 cd3e
00000270: f83d 8dbd 9080 f9bd 2f42 13be 58f9 043e
00000280: 04ee e23e dca1 1abf 9307 193e f49e b9be
00000290: 0248 883e 1cf7 e3be f3f8 243f 7db5 d83e
000002a0: 658a ac3e 329c 07bf 3e0e 3f3e b1b5 11bf
000002b0: 77f5 e0be f501 8fbc 5461 2abd 75a0 913e
000002c0: 98e8 e23d 0c10 ec3e a74f f2be 5197 143f
000002d0: 3bf8 92bd 9833 7fbd afb0 d7be 9d21 c4be
000002e0: 95e7 f33d 178c 00bf a82c ef3d 043d 5abe
000002f0: 42da fc3d 4648 ebbe 6835 a7bd 8d30 ffbe

net.0.bias f4 [64]
-0.25556284 -0.5401497 0.09214237 0.6055583 -0.5515497 0.15953048 0.048049808 0.4451124
-0.3980689 -0.3992797 0.39711344 0.53721184 -0.2390949 0.1991981 0.1210284 0.23732243
-0.0018947133 0.36771575 -0.034895148 0.25203264 -0.38725266 0.21900451 0.05615822 -0.36396497
-0.2722638 -0.38602883 -0.19381773 0.4574526 -0.1995708 -0.18929268 0.50359887 0.51823765
-0.40161267 -0.27258074 0.4053316 0.55361766 -0.37831375 0.3535009 0.6172274 -0.06360731
-0.28619212 -0.5127812 -0.21383871 -0.4170362 0.30951008 0.2690413 0.61912936 -0.32851976
-0.398098 -0.46198446 -0.39427298 0.3900763 -0.10755042 -0.2846196 -0.5233424 0.6295842
-0.32518178 0.5953877 0.60479915 0.31390977 0.42786214 -0.46398297 0.1469537 -0.0800292
00000000: 22d9 82be 4047 0abf 24b5 bc3d de05 1b3f
00000010: 5c32 0dbf f55b 233e e0cf 443d c6e5 e33e
00000020: b0cf cbbe 646e ccbe 7452 cb3e b786 093f
00000030: 4bd5 74be 96fa 4b3e bddd f73d a704 733e
00000040: 0758 f8ba 3d45 bc3e 37ee 0ebd 6c0a 813e
00000050: fb45 c6be b842 603e 2906 663d 9e59 babe
00000060: 2966 8bbe 92a5 c5be 2878 46be 3a37 ea3e
00000070: 4a5c 4cbe f1d5 41be dbeb 003f 39ab 043f
00000080: 2da0 cdbe b48f 8bbe a087 cf3e e3b9 0d3f
00000090: 57b2 c1be 12fe b43e 9d02 1e3f 8d44 82bd
000000a0: c687 92be a145 03bf 89f8 5abe c585 d5be
000000b0: 1b78 9e3e c8bf 893e 437f 1e3f be33 a8be
000000c0: 80d3 cbbe 3a89 ecbe 26de c9be 15b8 c73e
000000d0: 6543 dcbd a9b9 91be c4f9 05bf 6e2c 213f
000000e0: 3a7e a6be 546b 183f 1ed4 1a3f c8b8 a03e
000000f0: bf10 db3e 2d8f edbe 087b 163e 59e6 a3bd

net.2.weight f4 [128, 64]
-0.041717328 -0.03586937 0.1119348 -0.015456757 0.03895809 -0.015233374 -0.09321836 0.06951779
-0.13258377 -0.044687048 0.123771414 0.12119447 -0.012310045 0.12703536 0.06805434 -0.040406015
-0.10033328 0.1398427 -0.010106738 0.096729435 0.031047923 -0.12550241 -0.0823034 0.037419178
-0.019238355 -0.121609405 -0.04951901 -0.052966613 0.084617384 -0.015859278 -0.06202489 0.07485371
0.037492402 0.08516161 0.07336098 -0.07665577 0.022297887 -0.034609325 0.01808804 -0.025152776
0.030465487 -0.105636194 0.005790888 -0.100560896 0.11417536 0.14029928 -0.0560961 -0.00203789
0.011096699 0.002810031 0.03201709 -0.0776107 0.014311351 0.066278026 0.12152816 -0.047227133
0.051809452 -0.037621997 0.05581794 0.07259819 -0.08621699 -0.1338344 -0.02530869 0.0641943
-0.093985304 0.05453113 -0.11008673 -0.015229764 0.02855508 -0.029287267 -0.07802431 0.08748027
0.017490083 0.05353467 0.138488 0.07597892 0.03043195 -0.01573662 0.0725777 -0.011744342
-0.026532397 0.036464773 0.06528391 0.056418713 0.0026611574 -0.12780133 -0.101115786 -0.03233958
-0.07683415 -0.056232963 0.08407488 -0.054882202 0.12169819 -0.071875 0.143703 0.1154889
-0.022861494 -0.0908254 -0.08786967 0.15972964 -0.11643697 0.08326873 0.12161792 0.11136036
0.093409285 0.07452507 -0.06599001 0.04580107 0.07473384 0.09780315 -0.01417675 -0.08997799
0.05347234 -0.051649403 -0.026505733 -0.0045300606 0.070302315 0.020225748 -0.009481875 0.03795536
-0.01316764 0.04113646 0.037509475 0.06074972 -0.0036831389 -0.03917144 -0.08315708 0.05350508
-0.1098081 -0.11238455 0.017798875 0.11099089 -0.07656276 -0.022759425 -0.082639 0.09613937
-0.023465956 -0.030937795 0.08997388 -0.04943902 0.042840406 -0.068860896 0.13538101 0.08049735
-0.10012207 -0.052838456 -0.0014259837 0.08219916 -0.002859775 -0.07099531 0.07414989 0.04778636
0.027211688 0.002061964 0.02100557 0.029703591 0.00020666892 -0.04080228 0.09046081 -0.05898432
-0.03035209 -0.107583456 0.082910195 0.018606551 -0.11660355 0.004213085 -0.008216224 -0.020280177
-0.08926322 0.09010959 -0.01549691 -0.11886177 0.059622146 -0.024766274 0.08886827 -0.09910152
0.11683341 -0.0036277277 0.0006888044 0.09974771 -0.07109774 0.07341211 -0.06965484 0.032956723
-0.04844673 0.015251625 0.11014681 0.05187531 -0.055838358 -0.0069918223 0.06719675 0.056186464
0.09785031 0.106824525 0.072296605 -0.06916523 0.010751553 -0.07972206 0.0830953 0.15508746
-0.062499397 -0.024852872 0.11403606 -0.0596678 0.13040437 -0.04544321 0.02655944 -0.059519857
-0.077479586 -0.051374193 0.0937787 0.07172979 -0.11336874 0.067228235 0.18622145 0.034590725
-0.01417829 -0.004053261 0.054987192 0.00514439 -0.0072604343 0.096503876 -0.008708666 0.017954784
0.058789566 -0.043555968 -0.042257383 0.072654225 0.08440876 0.13216576 0.015184857 -0.07990045
-0.06149595 0.061739728 -0.03176734 -0.110019594 -0.058354143 0.14863837 0.07075674 0.03184537
-0.06452694 -0.120346576 0.0649261 0.07819254 -0.07672041 0.009603672 -0.05752749 0.01625583
-0.006217976 -0.007671734 -0.015097276 -0.11270037 0.044349257 -0.0120529905 -0.079819165 0.022133747
00000000: cadf 2abd c3eb 12bd 133e e53d 563e 7dbc
00000010: 8592 1f3d 6795 79bc 44e9 bebd 585f 8e3d
00000020: 0ac4 07be c409 37bd de7b fd3d ce34 f83d
00000030: 12b0 49bc 8f15 023e 1360 8b3d c780 25bd
00000040: 897b cdbd ed32 0f3e bb96 25bc 151a c63d
00000050: 3758 fe3c b483 00be af8e a8bd da44 193d
00000060: c199 9dbc 5a0e f9bd 72d4 4abd 85f3 58bd
00000070: e14b ad3d 51eb 81bc d00d 7ebd e74c 993d
00000080: a291 193d 3669 ae3d 483e 963d b3fd 9cbd
00000090: 0faa b63c 82c2 0dbd 5f2d 943c 320d cebc
000000a0: c292 f93c ca57 d8bd 7dc1 bd3b dff2 cdbd
000000b0: c5d4 e93d 9daa 0f3e 06c5 65bd 1f8e 05bb
000000c0: eece 353c 7f28 383b 5a24 033d 5cf2 9ebd
000000d0: 287a 6a3c c6bc 873d c2e3 f83d 3d71 41bd
000000e0: 2636 543d 8619 1abd 5aa1 643d 5cae 943d
000000f0: 8992 b0bd e30b 09be 2b54 cfbc 4d78 833d
00000100: 5e7b c0bd 095c 5f3d 2775 e1bd 4386 79bc
00000110: 58ec e93c daeb efbc 36cb 9fbd db28 b33d
00000120: 5d47 8f3c 2c47 5b3d cccf 0d3e d69a 9b3d
00000130: 6d4c f93c 16ea 80bc 9ea3 943d 576b 40bc
00000140: 785a d9bc 165c 153d 92b3 853d 4f17 673d
00000150: d066 2e3b 5ade 02be cb15 cfbd 8276 04bd
00000160: 395b 9dbd 8954 66bd 732f ac3d 29cc 60bd
00000170: e73c f93d 3333 93bd e126 133e 7285 ec3d
00000180: 0748 bbbc ab02 babd 03f5 b3bd 2b90 233e
00000190: 8276 eebd cc88 aa3d d112 f93d e710 e43d
000001a0: 5e4d bf3d 9aa0 983d c525 87bd e799 3b3d
000001b0: 0e0e 993d 054d c83d 9945 68bc 6146 b8bd
000001c0: d005 5b3d 538e 53bd 8d22 d9bc e770 94bb
000001d0: a9fa 8f3d 78b0 a53c de59 1bbc 1477 1b3d
000001e0: 16bd 57bc b47e 283d 89a3 193d b3d4 783d
000001f0: d160 71bb 3b72 20bd 424e aabd 2528 5b3d
00000200: 12e3 e0bd df29 e6bd f2ce 913c 314f e33d
00000210: f0cc 9cbd f971 babc a33e a9bd b8e4 c43d
00000220: ad3b c0bc 4271 fdbc 3a44 b83d 9280 4abd
00000230: 6c79 2f3d f106 8dbd 52a1 0a3e cbdb a43d
00000240: cd0c cdbd 236d 58bd 13e8 baba 0858 a83d
00000250: 106b 3bbb fd65 91bd e6db 973d a1bb 433d
00000260: 0ceb de3c 0422 073b e013 ac3c f254 f33c
00000270: 44b5 5839 4b20 27bd 8443 b93d 8b99 71bd
00000280: f2a4 f8bc b754 dcbd d2cc a93d c46c 983c
00000290: d8cd eebd eb0d 8a3b 579d 06bc 9d22 a6bc
000002a0: a3cf b6bd 608b b83d c0e6 7dbc cd6d f3bd
000002b0: 5a36 743d a4e2 cabc 9100 b63d bdf5 cabd
000002c0: 5b46 ef3d 2cbf 6dbb e190 343a 8748 cc3d
000002d0: b19b 91bd 1759 963d 32a7 8ebd a1fd 063d
000002e0: 1470 46bd f4e1 793c a794 e13d 347b 543d
000002f0: c3b6 64bd a81b e5bb 739e 893d c723 663d
00000300: be65 c83d d1c6 da3d 3e10 943d 80a6 8dbd
00000310: 4827 303c 5245 a3bd de2d aa3d 3fcf 1e3e
00000320: 5eff 7fbd 4098 cbbc bd8b e93d 3966 74bd
00000330: b988 053e a922 3abd 2f93 d93c 18cb 73bd
00000340: 9ead 9ebd bf6d 52bd 0c0f c03d 11e7 923d
00000350: df2d e8bd f5ae 893d d6b0 3e3e 01af 0d3d
00000360: 0f4c 68bc 38d1 84bb 403a 613d 4592 a83b
00000370: f0e8 edbb d3a3 c53d cbae 0ebc e915 933c
00000380: 54cd 703d be67 32bd 1416 2dbd bdcb 943d
00000390: 80de ac3d 7656 073e e8c9 783c d9a2 a3bd
000003a0: 2de3 7bbd cce2 7c3d 781e 02bd f451 e1bd
000003b0: c104 6fbd a834 183e e9e8 903d 4a70 023d
000003c0: b326 84bd 4478 f6bd faf7 843d 6923 a03d
000003d0: 971f 9dbd b858 1d3c f2a1 6bbd f22a 853c
000003e0: 2ac0 cbbb 2b63 fbbb 915a 77bc 74cf e6bd
000003f0: 91a7 353d e879 45bc 3b78 a3bd d551 b53c

net.2.bias f4 [128]
-0.006845065 0.070005424 0.17347348 0.12557569 0.19687763 0.14015672 0.036296777 0.06726758
0.01048304 0.06183876 0.118129045 0.102744535 0.09660958 0.10486923 0.07313476 0.048995316
0.044456884 0.044646632 0.056980647 -0.03557809 0.019786464 0.10679762 -0.013894987 0.03325117
0.13716558 -0.07929204 0.11526626 -0.07862782 0.19569151 0.007930832 -0.05147626 -0.09243601
0.075329624 0.030110598 0.1483067 -0.14326935 0.07016091 0.2037152 -0.026270272 0.034470532
0.051582444 0.06592249 0.16758613 0.14423834 -0.061274435 0.16251154 0.034452353 -0.02364438
0.05984242 0.15583289 0.083652094 -0.032252174 -0.06747586 -0.04166865 0.14769596 0.110564604
-0.120610625 0.13241015 -0.0051760394 0.17776103 0.18645644 -0.09675628 -0.088764 0.20872222
0.10962795 0.10552538 0.17072703 0.009419135 0.0021622707 0.04080769 0.09465948 0.011952274
-0.00084719015 0.163388 -0.003460657 0.1369132 0.16345483 -0.07739354 0.13429525 -0.1588788
0.15872987 -0.011407986 -0.040089257 0.16020124 0.18989362 0.18603799 0.1849167 0.059597325
0.08072841 0.09344308 0.06695435 0.15953884 0.06304612 0.027591836 0.04336333 0.114135556
-0.0035029352 0.17952356 0.016694572 -0.07378069 0.20858449 0.046143867 -0.12591648 0.15281825
0.10858807 0.19896947 0.19213018 0.073589146 -0.0608886 0.020751424 0.18524599 0.011342934
0.022635749 0.18113887 0.05412176 0.072127976 0.1860895 -0.012136127 -0.13134815 0.15177828
0.0126224095 -0.010609653 0.023596048 0.1369352 -0.021011762 0.042344227 -0.007930168 0.03315835
00000000: 914c e0bb 015f 8f3d 08a3 313e ea96 003e
00000010: 4a9a 493e 3e85 0f3e eeab 143d 96c3 893d
00000020: 0ec1 2b3c a44a 7d3d a4ed f13d ba6b d23d
00000030: 3edb c53d aec5 d63d adc7 953d 50af 483d
00000040: 6c18 363d 63df 363d 8a64 693d 55ba 11bd
00000050: 3917 a23c b6b8 da3d cda7 63bc 6132 083d
00000060: 2275 0c3e dd63 a2bd b810 ec3d 9f07 a1bd
00000070: 5b63 483e 52f0 013c c5d8 52bd 174f bdbd
00000080: 6b46 9a3d 80aa f63c b6dd 173e 33b5 12be
00000090: 86b0 8f3d b89a 503e c134 d7bc f930 0d3d
000000a0: 1d48 533d 5f02 873d b39b 2b3e 37b3 133e
000000b0: e7fa 7abd 6d69 263e e91d 0d3d dcb1 c1bc
000000c0: 531d 753d a892 1f3e ca51 ab3d db1a 04bd
000000d0: c930 8abd bfac 2abd 9c3d 173e b26f e23d
000000e0: b402 f7bd 8796 073e c49b a9bb fd06 363e
000000f0: 70ee 3e3e 2828 c6bd e6c9 b5bd 47bb 553e
00000100: 9e84 e03d b11d d83d 11d3 2e3e b752 1a3c
00000110: e2b4 0d3b f725 273d d4dc c13d 78d3 433c
00000120: f815 5eba 2f4f 273e 31cc 62bb f932 0c3e
00000130: b460 273e 8180 9ebd b284 093e 20b1 22be
00000140: 158a 223e 90e8 3abc a234 24bd cb0b 243e
00000150: 7973 423e be80 3e3e ce5a 3d3e 531c 743d
00000160: f054 a53d 165f bf3d 5d1f 893d 265e 233e
00000170: 531e 813d 4608 e23c bf9d 313d e7bf e93d
00000180: 8091 65bb 06d5 373e 0ec3 883c 551a 97bd
00000190: 2c97 553e 5a01 3d3d 40f0 00be 637c 1c3e
000001a0: 6c63 de3d a7be 4b3e c6bd 443e e8b5 963d
000001b0: 5366 79bd e4fe a93c 20b1 3d3e b7d7 393c
000001c0: 9b6e b93c 787c 393e c7ae 5d3d d5b7 933d
000001d0: 3f8e 3e3e 9bd6 46bc 2180 06be c46b 1b3e
000001e0: 39ce 4e3c 1cd4 2dbc 804c c13c be38 0c3e
000001f0: dc20 acbc 2471 2d3d 89ed 01bc 0dd1 073d

net.4.weight f4 [256, 128]
0.15288012 -0.030838532 0.097519085 -0.03467034 0.082792744 0.051402863 -0.06282483 0.026383521
0.013924893 -0.040781688 -0.0042096176 0.08139839 -0.044620268 0.039700083 0.126118 0.068840526
-0.025356589 -0.02787761 0.098623104 -0.070581555 -0.0052311854 0.042246316 0.07317594 0.04633804
-0.028319415 0.07027567 -0.022513717 -0.08945767 -0.03343381 0.06566147 -0.00079731573 -0.06494919
-0.057797223 -0.08277958 -0.040997304 -0.079079084 0.10397116 0.07636304 -0.008797498 -0.101450704
0.07995592 -0.025714362 0.018850317 0.035801902 -0.052063756 -0.037242983 -0.019373842 -0.025326455
0.079010196 0.07320611 0.097520925 0.027939118 0.07473923 0.12743792 0.11721565 0.03341067
-0.1109874 -0.110022604 -0.099292435 0.10711326 -0.03847491 0.020630091 0.045956068 0.14573485
0.022199193 0.02852249 -0.032280147 0.12257305 0.017194305 0.027461825 -0.063461505 0.01550802
-0.050947994 0.0828668 -0.00045461464 0.048805326 0.005409202 -0.03664925 0.06607067 -0.01798175
0.102968834 -0.027721975 0.03679655 0.021726463 0.05356473 0.07892056 -0.003404556 -0.022830082
0.0004966915 0.008023137 0.038281225 -0.034499835 0.1269266 -0.037563577 -0.022940876 0.05098949
-0.07523465 0.023106566 0.08790389 -0.035541944 0.07396015 0.024051875 0.0048634172 0.034137543
-0.0012610123 0.11254684 0.045894045 0.06376781 -0.013543201 0.03377661 0.016329262 0.09300742
0.0056502717 0.09858972 0.09855777 0.085162915 -0.05378205 0.07260939 -0.0012845228 0.035679262
0.09939645 0.08147178 -0.046143603 0.028309358 0.013263009 0.060009282 -0.07373061 0.16517092
0.022913627 -0.020204745 0.035255007 -0.07188137 -0.059913114 -0.062034346 0.048165046 0.022170886
-0.03105991 0.042361252 -0.055899333 -0.059277635 0.006141238 -0.04698583 -0.008882351 0.06480118
0.012875736 -0.06893305 0.07111228 0.057010345 -0.07267457 0.070502184 0.043806486 -0.038226757
0.06663995 -0.07592475 -0.0036102906 -0.08389045 -0.00076865405 -0.03289197 -0.013992719 0.06911885
-0.05956929 0.056412242 -0.017354637 0.00097958 -0.06998448 0.0075918064 -0.032204162 0.005182028
-0.04899453 -0.01257766 0.005893171 0.008735374 0.07752616 -0.06629449 0.06706501 0.07035052
-0.019223012 0.074688874 -0.07894075 -0.028840728 -0.039299544 0.07145477 -0.086535804 -0.043825462
0.028380252 -0.006243363 -0.0031413957 -0.024740726 0.037652798 0.027351342 0.075697936 -0.07985358
0.030291729 -0.07977785 0.023481905 -0.082670316 0.049908303 0.008634329 0.08797405 0.044172086
0.015618898 0.007020347 -0.05001268 -0.013471417 -0.055371676 -0.0017911047 0.057376437 -0.08660182
-0.07793342 0.08150353 -0.052422345 -0.08003986 -0.0517275 0.06672167 -0.07592074 -0.044131648
-0.078408465 0.0376805 0.07203811 0.085957594 -0.0021385625 0.07198099 -0.01804097 0.07784837
0.07131686 -0.07050577 0.014424451 -0.0003356263 -0.014725067 -0.03632955 -0.04960486 0.027357794
-0.07173552 -0.07953101 0.0525992 -0.065267704 0.086362384 -0.06368654 0.03571862 -0.0389222
-0.020876937 -0.045292877 0.032477506 -0.06808595 0.022755556 -0.088254824 -0.06755898 -0.08607849
-0.08138207 0.04567293 0.047169812 -0.07240667 0.022449262 0.065872334 -0.014011331 -0.030545898
00000000: 9b8c 1c3e 17a1 fcbc 16b8 c73d 7d02 0ebd
00000010: 3e8f a93d cf8b 523d 4eaa 80bd 4122 d83c
00000020: 3c25 643c b30a 27bd d5f0 89bb 33b4 a63d
00000030: bec3 36bd 8e9c 223d 1425 013e 43fc 8c3d
00000040: 9fb8 cfbc 965f e4bc e9fa c93d 108d 90bd
00000050: 5d6a abbb 790a 2d3d 44dd 953d f5cc 3d3d
00000060: 1efe e7bc b1ec 8f3d b06e b8bc 9535 b7bd
00000070: e4f1 08bd 8579 863d f402 51ba 1504 85bd
00000080: c8bc 6cbd 5788 a9bd caec 27bd 37f4 a1bd
00000090: d5ee d43d 3a64 9c3d 6223 10bc 63c5 cfbd
000000a0: eebf a33d eda6 d2bc fb6b 9a3c 04a5 123d
000000b0: ce40 55bd 198c 18bd e4b5 9ebc 6d79 cfbc
000000c0: 19d0 a13d 16ed 953d 0db9 c73d 94e0 e43c
000000d0: e210 993d 167f 023e c20e f03d a0d9 083d
000000e0: 5d4d e3bd 8853 e1bd d559 cbbd 325e db3d
000000f0: de97 1dbd 7000 a93c 6e3c 3c3d 843b 153e
00000100: 15db b53c ffa7 e93c 3038 04bd 9407 fb3d
00000110: 12db 8c3c 9ff7 e03c 1bf8 81bd 5a15 7e3c
00000120: d8ae 50bd 12b6 a93d 5859 eeb9 18e8 473d
00000130: ad3f b13b 861d 16bd 0f50 873d 774e 93bc
00000140: 53e1 d23d 3219 e3bc fbb7 163d b2fb b13c
00000150: b166 5b3d 1aa1 a13d f91e 5fbb 2706 bbbc
00000160: 6734 023a 7a73 033c c6cc 1c3d b34f 0dbd
00000170: 0cf9 013e 44dc 19bd 81ee bbbc 5bda 503d
00000180: a014 9abd fb49 bd3c f406 b43d 6e94 11bd
00000190: 6b78 973d 7008 c53c 4d5d 9f3b cfd3 0b3d
000001a0: 8d48 a5ba f57e e63d 65fb 3b3d b398 823d
000001b0: 4de4 5dbc 5859 0a3d f2c4 853c ad7a be3d
000001c0: ea25 b93b 68e9 c93d a8d8 c93d e569 ae3d
000001d0: 914a 5cbd 3bb4 943d 6f5d a8ba 6b24 123d
000001e0: 5e90 cb3d adda a63d 1301 3dbd 07e9 e73c
000001f0: 174d 593c 4bcc 753d 1300 97bd 9122 293e
00000200: 5cb5 bb3c 6c84 a5bc 8e67 103d 8a36 93bd
00000210: 7467 75bd ba17 7ebd b648 453d b89f b53c
00000220: 5a71 febc fe82 2d3d b3f6 64bd 1bcd 72bd
00000230: 703c c93b 3774 40bd 4887 11bc 7bb6 843d
00000240: c0f4 523c c52c 8dbd 51a3 913d ae83 693d
00000250: 68d6 94bd 7363 903d 6e6e 333d a993 1cbd
00000260: 877a 883d 6f7e 9bbd a09a 6cbb c2ce abbd
00000270: 807f 49ba bbb9 06bd b841 65bc 2f8e 8d3d
00000280: eefe 73bd 8610 673d 502b 8ebc 4065 803a
00000290: 0654 8fbd b0c4 f83b 83e8 03bd 00ce a93b
000002a0: 7dae 48bd 8812 4ebc 801b c13b d01e 0f3c
000002b0: 09c6 9e3d 68c5 87bd 6159 893d ef13 903d
000002c0: 9479 9dbc 7bf6 983d b0ab a1bd 6443 ecbc
000002d0: 8ff8 20bd e156 923d af39 b1bd 5482 33bd
000002e0: b47d e83c 2095 ccbb e0df 4dbb 10ad cabc
000002f0: d239 1a3d ec0f e03c 8507 9b3d 468a a3bd
00000300: 5c26 f83c 9262 a3bd 205d c03c 0e4f a9bd
00000310: a66c 4c3d 0077 0d3c bd2b b43d caed 343d
00000320: 68e6 7f3c f00a e63b 19da 4cbd 38b7 5cbc
00000330: 69cd 62bd 80c3 eaba 8e03 6b3d 4c5c b1bd
00000340: 8f9b 9fbd 53eb a63d d0b8 56bd f0eb a3bd
00000350: 37e0 53bd 5fa5 883d 557c 9bbd 63c3 34bd
00000360: 9e94 a0bd de56 1a3d b788 933d 890a b03d
00000370: 2027 0cbb c56a 933d a8ca 93bc f76e 9f3d
00000380: 930e 923d 5465 90bd 8854 6c3c 00f7 afb9
00000390: 6841 71bc 4bce 14bd 772e 4bbd 741d e03c
000003a0: 13ea 92bd 27e1 a2bd 4272 573d 13ab 85bd
000003b0: c3de b03d 176e 82bd b04d 123d e36c 1fbd
000003c0: 1c06 abbc 0685 39bd 2207 053d a670 8bbd
000003d0: dc69 ba3c f2be b4bd 5d5c 8abd eb49 b0bd
000003e0: a5ab a6bd 8a13 3b3d 2235 413d f349 94bd
000003f0: 84e7 b73c 13e8 863d c88f 65bc 643b fabc

net.4.bias f4 [256]
0.100064404 -0.06621229 -0.09172068 -0.033310656 0.0064933775 0.0750313 0.016119424 -0.009280075
-0.01035907 -0.090598084 0.04246104 0.08470198 -0.07589108 0.026980426 0.005908308 -0.069206156
0.003950652 -0.010559023 0.032555703 0.012759928 0.06468315 0.0139513 -0.04875521 -0.046993572
-0.026267909 0.020776382 -0.05208966 -0.13120005 0.10958621 -0.11894389 -0.13659489 -0.08485785
0.124430425 0.033950064 0.14809369 0.048647888 0.1498381 0.1295532 -0.027647827 0.028404346
0.09456075 0.1531416 0.002748534 0.06041743 -0.009308965 0.09717695 -0.019029517 0.16226381
0.11267105 0.007875165 -0.05763256 -0.053910457 -0.094378866 0.118528105 -0.06234722 -0.017969012
0.115787715 0.15501896 -0.03765309 0.08958487 0.13940988 0.09220534 0.11529553 0.16200393
0.026956681 0.10760306 0.023396287 0.15256283 0.15342416 -0.015612268 0.12548676 -0.0005097423
-0.00017679001 -0.017419407 0.018553982 -0.072630376 -0.10612973 0.10291593 -0.07508872 -0.06701778
0.074115865 -0.109650105 -0.014681379 -0.0042533553 0.14508775 0.051882446 0.028295068 -0.12718658
0.12575604 -0.031925954 0.015665935 0.16032524 0.16081761 0.0074698506 0.032695085 0.044816285
-0.07510537 0.1543141 -0.012066991 0.025291637 -0.04755206 0.12616362 0.14886993 0.0037233962
0.06166576 0.018567422 0.11895187 -0.06031505 0.056975074 -0.07889534 -0.052041665 0.014900873
-0.02208224 0.028905155 0.037720386 0.046060976 -0.0072912443 -0.07728214 0.06047534 -0.10427496
0.15113886 -0.029198421 0.03572747 0.15604018 0.047556315 0.05596677 0.13861652 0.046308912
0.08515842 0.04590994 -0.11686753 -0.012813702 0.08155989 0.14515457 0.0063430704 0.13275027
0.13620512 -0.0969999 0.01973323 0.16523932 0.15241924 0.0154605275 0.06807845 0.039300784
-0.063967034 0.08989898 -0.015206905 -0.122336835 0.15678202 0.0050816187 0.0534317 0.031612765
-0.10605783 0.0723314 -0.0333247 0.12363839 -0.1021091 0.05270464 0.15969385 0.061113585
0.0439482 0.054345112 -0.11323648 0.15857503 0.05894249 0.08442341 -0.040844616 0.14223795
-0.060102347 0.021799345 0.068557955 -0.024762347 0.041408334 -0.10939917 -0.098299555 -0.0811329
-0.07134888 0.03198776 0.13410829 0.14591171 0.13441372 -0.06441507 0.021958847 0.023618815
-0.029325277 0.08827592 -0.03953319 0.09827324 0.00079359295 0.076981105 0.0058200723 0.09658417
-0.04301351 0.13033211 -0.011528619 0.0026112222 -0.063316815 0.16371618 0.042143665 0.15355374
0.07429607 0.08068207 -0.090794854 0.11966424 -0.028719258 -0.01755392 0.07094545 0.059740696
0.09396706 0.08343558 0.051185455 -0.108764 0.047579955 0.113965265 0.11812554 -0.022678263
0.10020763 0.14279282 0.101772174 0.06993626 -0.017832283 -0.0969602 -0.03174216 0.16047657
0.1141542 0.0042194054 -0.009309111 0.056451645 -0.07615 0.017016238 0.16986458 -0.055051062
-0.10036514 -0.100243405 -0.03476653 0.04492238 0.10356288 -0.07673937 0.071798295 0.051606476
0.15844297 0.036300138 -0.070533335 0.04924259 -0.018907243 -0.058638062 0.14191091 -0.049418297
-0.06521614 -0.07207611 0.032799598 0.016139353 0.0585646 0.05004142 -0.008364828 -0.060678028
00000000: 91ee cc3d 4f9a 87bd 0dd8 bbbd c170 08bd
00000010: 66c6 d43b 03aa 993d e20c 843c 750b 18bc
00000020: 17b9 29bc 7d8b b9bd a1eb 2d3d 3b78 ad3d
00000030: c86c 9bbd 0e06 dd3c 7b9a c13b f5bb 8dbd
00000040: 7974 813b c1ff 2cbc 2159 053d 040f 513c
00000050: 9978 843d fe93 643c 8bb3 47bd 557c 40bd
00000060: cc2f d7bc 3b33 aa3c f85b 55bd 4e59 06be
00000070: bc6e e03d db98 f3bd 88df 0bbe f4c9 adbd
00000080: 61d5 fe3d 390f 0b3d dfa5 173e 0243 473d
00000090: 296f 193e 98a9 043e b27d e2bc 3bb0 e83c
000000a0: 11a9 c13d 27d1 1c3e c020 343b 4478 773d
000000b0: a184 18bc b504 c73d cae3 9bbc 7c28 263e
000000c0: 14c0 e63d d606 013c 1f10 6cbd 36d1 5cbd
000000d0: b549 c1bd ddbe f23d cc5f 7fbd c033 93bc
000000e0: 1c22 ed3d 4abd 1e3e 203a 1abd 4678 b73d
000000f0: 77c1 0e3e 27d6 bc3d 1020 ec3d 5ce4 253e
00000100: 42d4 dc3c fe5e dc3d 92a9 bf3c 6e39 1c3e
00000110: 391b 1d3e 99ca 7fbc 9a7f 003e 3aa0 05ba
00000120: b560 39b9 25b3 8ebc 85fe 973c 3cbf 94bd
00000130: 8b5a d9bd 96c5 d23d 1dc8 99bd 9e40 89bd
00000140: 0fca 973d 3c90 e0bd 2b8a 70bc bb5f 8bbb
00000150: e291 143e b082 543d 0fcb e73c 333d 02be
00000160: 31c6 003e cac4 02bd d955 803c 4d2c 243e
00000170: 5fad 243e a6c5 f43b 48eb 053d 4891 373d
00000180: d8d0 99bd 8404 1e3e a1b4 45bc 6830 cf3c
00000190: f3c5 42bd 0931 013e 5c71 183e 3904 743b
000001a0: 3c95 7c3d b51a 983c 0a9d f33d ea0c 77bd
000001b0: b25e 693d e193 a1bd a429 55bd cb22 743c
000001c0: d0e5 b4bc 81ca ec3c b180 1a3d 6faa 3c3d
000001d0: 64eb eebb 1946 9ebd fdb4 773d 1c8e d5bd
000001e0: 25c4 1a3e 8731 efbc f856 123d ffc8 1f3e
000001f0: 69ca 423d 693d 653d 7df1 0d3e 6aae 3d3d
00000200: 8a67 ae3d 100c 3c3d 3e58 efbd 90f0 51bc
00000210: df08 a73d 66a3 143e 88d9 cf3b b0ef 073e
00000220: 5b79 0b3e e2a7 c6bd 95a7 a13c 7f34 293e
00000230: ca13 1c3e 274e 7d3c b76c 8b3d dcf9 203d
00000240: 2601 83bd f51c b83d 6226 79bc bc8b fabd
00000250: 778b 203e b583 a63b 33db 5a3d 637c 013d
00000260: d934 d9bd 7c22 943d 7b7f 08bd 2036 fd3d
00000270: 931e d1bd d2e0 573d c986 233e 3d52 7a3d
00000280: 0703 343d fb98 5e3d 87e8 e7bd 7e61 223e
00000290: ae6d 713d 2ee6 ac3d af4c 27bd d3a6 113e
000002a0: e12d 76bd 8a94 b23c 1d68 8c3d 68da cabc
000002b0: c99b 293d ac0c e0bd 4751 c9bd 0229 a6bd
000002c0: 5d1f 92bd 9905 033d af53 093e e169 153e
000002d0: c0a3 093e 0cec 83bd 0ae3 b33c 3f7c c13c
000002e0: 903b f0bc 01ca b43d 8eed 21bd 7b43 c93d
000002f0: 1f09 503a 45a8 9d3d 4eb6 be3b eccd c53d
00000300: ef2e 30bd c875 053e 88e2 3cbc 0a21 2b3b
00000310: 3fac 81bd 37a5 273e d69e 2c3d 313d 1d3e
00000320: 8a28 983d a43c a53d a7f2 b9bd 8612 f53d
00000330: a644 ebbc 3dcd 8fbc d94b 913d a9b2 743d
00000340: cd71 c03d 46e0 aa3d d7a7 513d a9bf debd
00000350: 33e3 423d 9f66 e93d ceeb f13d c4c7 b9bc
00000360: a839 cd3d 4838 123e ee6d d03d be3a 8f3d
00000370: 0215 92bc 1293 c6bd 1104 02bd f853 243e
00000380: adc9 e93d f042 8a3b 3e85 18bc d739 673d
00000390: 88f4 9bbd a365 8b3c fbf0 2d3e 397d 61bd
000003a0: 3d8c cdbd 6a4c cdbd 5967 0ebd 8800 383d
000003b0: c618 d43d 8829 9dbd fc0a 933d 5061 533d
000003c0: e03e 223e 74af 143d c873 90bd 99b2 493d
000003d0: 5de3 9abc 772e 70bd 1851 113e d76a 4abd
000003e0: 0a90 85bd a49c 93bd df58 063d ad36 843c
000003f0: 6fe1 6f3d 3bf8 4c3d a20c 09bc 8689 78bd

net.6.weight f4 [1, 256]
0.07410265 -0.046386965 -0.08656699 0.029490538 -0.07827151 0.10469033 -0.06868899 -0.08598354
-0.09323494 -0.0957462 0.06948395 0.088403165 0.0033523166 -0.05217093 0.05645174 0.016329989
-0.09627459 -0.074854754 -0.07153798 -0.06286681 -0.05231795 0.110084124 -0.04910723 -0.009036551
-0.0526414 -0.053621326 -0.099954054 -0.093478546 0.09704588 -0.09130425 -0.10692217 0.052745715
0.07113976 -0.062654 0.119403966 -0.030373644 0.05769939 0.09340336 0.0015596896 -0.048008148
0.050578058 0.096246436 0.0451176 0.11928969 0.08887444 0.0896249 -0.050926477 0.082586125
0.102051884 -0.025470536 -0.07340274 -0.088680595 -0.040633194 0.099519454 0.007493213 0.025698729
0.09517399 0.08327425 -0.06627372 0.11550153 0.101651385 0.12137943 0.059278764 0.11765114
-0.11125703 0.059566047 -0.064698495 0.09727322 0.053355962 0.095393665 0.09439804 -0.0401982
0.063189775 -0.021825474 -0.091319844 -0.021412944 -0.08614424 0.111007355 -0.07400276 -0.011262672
-0.10757156 -0.103260495 -0.05651257 0.086357445 0.09802922 -0.10966149 -0.020223312 -0.057600673
0.088497914 -0.09121764 -0.010470299 0.06299529 0.07338221 0.07049617 -0.07315356 0.057904568
0.055273872 0.062263258 -0.108535275 -0.08714442 -0.08954839 0.07604845 0.082476296 0.06353831
-0.052412786 -0.08995405 0.096735716 -0.06270839 0.110568576 -0.04698638 0.0077287555 -0.062334653
-0.0016741231 -0.044310756 0.09536163 0.11602453 0.11401059 -0.033565447 0.094307594 -0.10770403
0.05687532 -0.06698461 -0.07918323 0.105344504 0.09031104 0.055753343 0.08627583 0.061583415
0.0949267 0.077634804 -0.09785292 0.03821457 0.075761385 0.096454866 -0.05732192 0.061604977
0.118075274 -0.056652773 -0.07812053 0.056404565 0.06108928 -0.068090715 0.07718225 -0.17573044
-0.019579912 0.100729115 0.037561607 -0.10540691 0.06054273 -0.021549195 0.099396154 -0.09860447
-0.07451627 -0.05194483 -0.052069467 0.11156872 -0.08956473 0.06950491 0.098278515 -0.0048402473
-0.04978904 0.0560521 -0.1293093 0.082511805 0.11901087 0.09329812 0.05487594 0.09966608
-0.08239359 0.07054611 -0.010006425 -0.055736117 -0.06028838 -0.09471204 -0.10142833 -0.10412227
0.05445054 0.09247088 0.06348541 0.10244579 0.09096215 -0.09645136 0.07701076 -0.030051803
-0.09457638 0.06259995 -0.06652534 0.0678694 0.09691204 0.10454474 -0.0907009 0.058316465
-0.095701516 0.108472064 -0.050775774 0.063942224 -0.05337938 0.1119776 0.0923191 0.07437614
0.11359885 0.10140073 -0.003330925 0.072213404 -0.06451026 -0.0845842 0.07879054 -0.03123258
0.063666575 0.072220504 0.07728509 -0.10393461 0.07763064 0.10271557 0.05920135 -0.061472856
0.09877411 0.0623269 0.102678925 0.06560212 -0.14917184 -0.07803808 -0.09990529 0.07598476
0.053723108 0.0053909197 -0.07161305 0.10489661 -0.026306018 -0.100171424 0.058989815 -0.061891407
-0.09611303 -0.114108 -0.053421993 -0.023278663 0.08396689 -0.024714462 -0.030987985 0.102870196
0.119402684 -0.09398011 0.03578467 0.09469829 -0.061622117 -0.072718926 0.083436474 -0.038897105
0.028930344 0.02259243 0.103545964 -0.03898007 -0.07196614 0.11136192 -0.10129857 -0.029021105
00000000: 21c3 973d 4200 3ebd 094a b1bd 2496 f13c
00000010: d04c a0bd e267 d63d d0ac 8cbd 2318 b0bd
00000020: f6f1 bebd 9516 c4bd 9a4d 8e3d b80c b53d
00000030: 8ab2 5b3b 2fb1 55bd f139 673d 78c6 853c
00000040: 9d2b c5bd 734d 99bd 8182 92bd 50c0 80bd
00000050: 594b 56bd c973 e13d aa24 49bd 0b0e 14bc
00000060: 829e 57bd 09a2 5bbd b6b4 ccbd ae71 bfbd
00000070: febf c63d b9fd babd 03fa dabd e40b 583d
00000080: b9b1 913d be50 80bd 118a f43d 26d2 f8bc
00000090: 3256 6c3d 434a bf3d 806e cc3a 31a4 44bd
000000a0: f02a 4f3d da1c c53d 3ccd 383d 274e f43d
000000b0: cd03 b63d 428d b73d 4898 50bd ea22 a93d
000000c0: 9400 d13d 96a7 d0bc 2d54 96bd 2c9e b5bd
000000d0: fe6e 26bd dbd0 cb3d a089 f53b 2486 d23c
000000e0: 95ea c23d b18b aa3d 84ba 87bd 118c ec3d
000000f0: 9a2e d03d c795 f83d 4ace 723d 15f3 f03d
00000100: bada e3bd 87fb 733d a580 84bd 2f37 c73d
00000110: c88b 5a3d c15d c33d c253 c13d dea6 24bd
00000120: a469 813d 56cb b2bc e605 bbbd 336a afbc
00000130: 646c b0bd d357 e33d c28e 97bd 1287 38bc
00000140: 7a4e dcbd 3d7a d3bd b979 67bd 2cdc b03d
00000150: 8bc3 c83d 3496 e0bd 5cab a5bc afee 6bbd
00000160: 653e b53d 50d0 babd 9e8b 2bbc ad03 813d
00000170: 6a49 963d 4c60 903d 89d1 95bd 572d 6d3d
00000180: db66 623d c207 7f3d be47 debd c678 b2bd
00000190: 2565 b7bd 4abf 9b3d 55e9 a83d 6020 823d
000001a0: caae 56bd d439 b8bd 601d c63d 426d 80bd
000001b0: c771 e23d ca74 40bd 8041 fd3b 9f52 7fbd
000001c0: 406e dbba 327f 35bd f54c c33d 459e ed3d
000001d0: 627e e93d ec7b 09bd 5724 c13d ee93 dcbd
000001e0: 18f6 683d 3a2f 89bd d12a a2bd dcbe d73d
000001f0: fff4 b83d 9e5d 643d 62b1 b03d e43e 7c3d
00000200: ee68 c23d fffe 9e3d 1d67 c8bd e286 1c3d
00000210: c928 9b3d 218a c53d 64ca 6abd 8055 7c3d
00000220: 73d1 f13d bd0c 68bd a8fd 9fbd 7908 673d
00000230: c138 7a3d 2573 8bbd ba11 9e3d aef2 33be
00000240: 0d66 a0bc 114b ce3d 33da 193d 94df d7bd
00000250: a7fb 773d f087 b0bc 3690 cb3d 24f1 c9bd
00000260: fc9b 98bd 1ac4 54bd cb46 55bd 247e e43d
00000270: b76d b7bd 9758 8e3d 3f46 c93d f09a 9ebb
00000280: 98ef 4bbd e396 653d a869 04be f3fb a83d
00000290: f9bb f33d 1613 bf3d 98c5 603d bb1d cc3d
000002a0: f8bd a8bd 7b7a 903d fdf1 23bc 8e4b 64bd
000002b0: f3f0 76bd 63f8 c1bd a8b9 cfbd 0f3e d5bd
000002c0: 8807 5f3d 5f61 bd3d a304 823d 19cf d13d
000002d0: 5d4a ba3d 4a88 c5bd d1b7 9d3d 332f f6bc
000002e0: 43b1 c1bd 6734 803d 703e 88bd 1dff 8a3d
000002f0: d279 c63d 8d1b d63d 65c1 b9bd 3fdd 6e3d
00000300: 28ff c3bd 9a26 de3d 42fa 4fbd 24f4 823d
00000310: 56a4 5abd 8354 e53d cc11 bd3d 8552 983d
00000320: 84a6 e83d 30ab cf3d a64b 5abb 9fe4 933d
00000330: f51d 84bd 7b3a adbd ef5c a13d 78db ffbc
00000340: 9f63 823d 58e8 933d a547 9e3d abdb d4bd
00000350: d0fc 9e3d 8a5c d23d 1d7d 723d f6ca 7bbd
00000360: 154a ca3d 7e4a 7f3d 5449 d23d 675a 863d
00000370: 81c0 18be 6ed2 9fbd 259b ccbd e69d 9b3d
00000380: c30c 5c3d 50a6 b03b dda9 92bd 09d4 d63d
00000390: b87f d7bc ad26 cdbd 4e9f 713d d881 7dbd
000003a0: e9d6 c4bd 75b1 e9bd 05d1 5abd e5b2 bebc
000003b0: d5f6 ab3d fc75 cabc 84da fdbc 9cad d23d
000003c0: 6589 f43d a578 c0bd f292 123d 2df1 c13d
000003d0: 7967 7cbd a9ed 94bd bee0 aa3d 9252 1fbd
000003e0: 54ff ec3c c213 b93c e80f d43d 91a9 1fbd
000003f0: fc62 93bd b811 e43d a075 cfbd abbd edbc
