model/dqn/dqn_5.pth (torch, 2304 bytes, 4 tensors)

fc1.weight f4 [16, 4]
-3.32e-42 3.524e-42 3.495e-42 -4.249e-42 -2.411541e-27 4.338442e-27 7.090806e-28 -3.9137416e-27
-9.130782e-09 1.7302104e-07 -4.7661366e-08 -2.3566915e-07 0.018588027 -0.008021591 -0.035761613 0.009056488
6.135e-42 1.698e-42 -3.447e-42 -1.128e-42 0.00024467468 -0.00020249277 -0.0004711162 0.0001859329
3.130151e-14 -3.8626742e-14 3.143804e-14 -3.5109976e-14 -5.844483e-10 2.290077e-09 -8.9025975e-10 -3.7094744e-10
-5.5164127e-11 -2.02035e-10 -1.8523916e-10 1.2186792e-10 -9.420328e-07 0.00020408948 6.224054e-05 -0.00024814522
2.384079e-10 -3.500646e-10 1.1567122e-11 -2.5954068e-09 -4.552356e-26 1.084223e-25 3.6090963e-25 2.0817729e-25
0.14929211 -0.1663846 -0.40903357 -0.2577661 -9.5952e-08 -1.725981e-07 1.5330023e-08 5.4228195e-08
-8.889046e-14 -1.1767884e-12 6.587778e-14 7.3438467e-13 -0.08565807 -0.06420469 0.26811403 0.47389752
00000000: 4109 0080 d309 0000 be09 0000 d80b 0080
00000010: dd0f 3f93 07dd ab13 74b7 6012 0e0a 9b93
00000020: 9bdd 1cb2 a9c7 3934 3ab4 4cb3 3e0c 7db4
00000030: eb45 983c fe6c 03bc c57a 12bd aa61 143c
00000040: 1a11 0000 bc04 0000 9c09 0080 2503 0080
00000050: ae47 8039 3d54 54b9 2500 f7b9 fcf6 4239
00000060: 2ff8 0c29 9af5 2da9 9895 0d29 0c1f 1ea9
00000070: e5a6 20b0 765f 1d31 76b6 74b0 36ee cbaf
00000080: 499d 72ae cc23 5eaf 30ac 4baf c5fe 052f
00000090: 00e0 7cb5 da00 5639 2387 8238 7d19 82b9
000000a0: ee10 832f 3673 c0af b07d 4b2d e15a 32b1
000000b0: f86b 6195 6638 0616 6a64 df16 02db 8016
000000c0: 08e0 183e b960 2abe d96c d1be ebf9 83be
000000d0: 2b0e ceb3 6853 39b4 14af 8332 88e8 6833
000000e0: dd29 c8a9 459e a5ab f457 9429 feb5 4e2b
000000f0: 806d afbd c07d 83bd 3e46 893e b2a2 f23e

fc1.bias f4 [16]
-5.438e-42 5.7721045e-27 -1.0979727e-07 0.017435608 1.228e-42 0.0004963075 1.1194921e-15 1.1152888e-09
1.1890679e-10 -0.00020401913 2.2877924e-09 -1.6960581e-25 1.3666606 2.3683862e-08 1.9924457e-12 -0.69873136
00000000: 290f 0080 18a8 e413 b0c9 ebb3 1fd5 8e3c
00000010: 6c03 0000 a21a 023a f855 a126 bc48 9930
00000020: 49bd 022f f8ed 55b9 4537 1d31 3af6 5196
00000030: bcee ae3f 5d71 cb32 b634 0c2c 0fe0 32bf

fc2.weight f4 [2, 16]
6.059e-42 6.5117594e-27 -2.7466353e-07 0.08478236 -1.701e-42 0.0010362796 -3.9662e-14 -5.191493e-09
1.0663166e-10 0.00016602244 -3.5933896e-09 2.3189535e-25 1.2275794 -1.111732e-07 -1.5659691e-12 -0.8501818
4.336e-42 2.6084512e-26 2.0713507e-08 0.002567016 1.8e-42 0.00024453743 -4.454274e-14 -1.4339734e-10
1.6458164e-10 8.605133e-06 4.2230958e-10 -3.0880083e-25 0.84868854 -1.0907641e-07 1.0768133e-12 -0.22812048
00000000: e410 0000 8bfa 0014 7875 93b4 60a2 ad3d
00000010: be04 0080 c6d3 873a 2c9f 32a9 db60 b2b1
00000020: 4a7c ea2e 4f16 2e39 94ef 76b1 4989 8f16
00000030: 5221 9d3f 1dbe eeb3 fc63 dcab 84a5 59bf
00000040: 160c 0000 0c2a 0115 7ced b132 623b 283b
00000050: 0505 0000 4235 8039 489a 48a9 c3aa 1daf
00000060: 9df5 342f c45e 1037 ca2a e82f 7223 bf96
00000070: a743 593f 643d eab3 4a8c 972b 6a98 69be

fc2.bias f4 [2]
0.8216716 0.5868323
00000000: 1259 523f a43a 163f
