model/dqn/dqn_2.pth (torch, 2304 bytes, 4 tensors)

fc1.weight f4 [16, 4]
00000000: b6f5 3cbe 362f 94be 4886 e2be 13c5 b3be
00000010: 0eff 72be f7af 053e 8b99 ccbe 8ac4 a13e
00000020: 4ebb 893e c69b cfbe 4cc5 853f c0dc ddbe
00000030: ec48 c73d 13f0 a63e 10a8 bc40 5de3 ed3e
00000040: 9707 ac3f e88f dc3f 02f8 8abf 57c4 053f
00000050: 820c 99bf e0d6 72be 877e cec0 db3e 7bbf
00000060: 7340 b73f 7c33 e13f fc2d 88c0 14c2 9f3e
00000070: 1dbe 29c0 7864 483f df5e e240 5e0b bd3f
00000080: 47dc 2a3d 8ed4 aebe 1a39 c83e 775a 9fbe
00000090: 02e2 16be c717 bf3d 16d2 d03f 70d1 d7be
000000a0: aac0 13bf 8a90 d3be b97d 8ebf a390 38be
000000b0: 1e08 f33e 9cb2 b6be e3cc f13e dda2 82be
000000c0: 1cde 653e a080 7bbe b066 c93f bb01 0dbf
000000d0: aae9 76bf e386 0abf 04fb 0c40 727f 333d
000000e0: 42a1 473e 8203 02bd e9c1 adbf a7c9 a23d
000000f0: f9e8 dc3e b1e6 1a3f 3d71 0a40 36a9 623e
-0.18453106 -0.2894227 -0.44243073 -0.35111293 -0.23730108 0.13055407 -0.39960894 0.3159526
0.26900715 -0.40548533 1.0450835 -0.4333248 0.097307056 0.32605037 5.8955154 0.46462527
1.3439816 1.7231417 -1.0856936 0.52252716 -1.1956942 -0.23714781 -6.452945 -0.98142785
1.4316543 1.7593837 -4.2556133 0.31202757 -2.6522286 0.78278303 7.074081 1.4769094
0.04171398 -0.3414654 0.39106065 -0.31123707 -0.14734653 0.09330707 1.6314113 -0.42151976
-0.5771586 -0.41321212 -1.1132118 -0.18023925 0.4746713 -0.35683143 0.4722663 -0.2551488
0.22448009 -0.24560785 1.5734463 -0.55080765 -0.96450293 -0.5411207 2.2028208 0.043822713
0.19495109 -0.031741627 -1.3574802 0.079486184 0.43146494 0.6050826 2.1631615 0.22134861

fc1.bias f4 [16]
00000000: 1c20 1a3f 7732 1b3f 9038 1d3f 3599 53bf
00000010: a49a c8be 6773 1fbf 54dc 88bd 9a3d bbbf
00000020: 2a2a 04bf f9ad 003f 1954 483e ca81 67bf
00000030: b0f1 8f3f f6ab 87bf 5dee 32bf 2c56 e8be
0.60205245 0.6062388 0.6141443 -0.8265565 -0.3918048 -0.62285465 -0.06682649 -1.4628174
-0.5162684 0.5026546 0.1956333 -0.9043242 1.1245632 -1.0599353 -0.69894964 -0.45378244

fc2.weight f4 [2, 16]
00000000: 412a 843e 9480 843f 8099 b53e 4670 2ebf
00000010: 8cac 39bd a8df 0ebe b288 bb3c 6c80 a4be
00000020: ec33 1d3d 4492 933e 2183 9c3e 2a0d 2c3e
00000030: 7c54 8a3c 956d 88bf d537 873e badf 853d
00000040: ccfe 99bf e814 4c3f b20e 133f 0678 d7bf
00000050: 7187 4a3f fe5c fe3e 2424 63bf 0b57 383d
00000060: 3ed0 0d3e 468d 013f 63e8 c13f b7dc 82be
00000070: 8018 ad3e cbbb 4b3d 654a 73be 2e30 b73e
0.25813487 1.0351739 0.35468674 -0.68140066 -0.04533057 -0.13952506 0.02289233 -0.32129228
0.038379595 0.2882253 0.30568793 0.16801897 0.016885988 -1.0658442 0.26409784 0.06536813
-1.2030883 0.797194 0.574443 -1.6833503 0.7911292 0.49680322 -0.8872702 0.045004886
0.1384897 0.5060619 1.5149044 -0.25559017 0.33807755 0.04973964 -0.23758848 0.35778946

fc2.bias f4 [2]
00000000: e53a a73f f4c8 bc3f
1.3064848 1.4748826
