models/DDPG_actor.pth (torch, 170648 bytes, 7 tensors)

fc1.0.weight f4 [64, 3]
0	0x3e604635	0.21901782
1	0xbf6a1014	-0.91430783
2	0x3e135615	0.14388306
3	0x3ed3a06d	0.41333333
4	0x3e612023	0.21984915
5	0x3dc8dae7	0.09807377
6	0xbd13449e	-0.03595411
7	0x3ef855e8	0.4850304
8	0x3ea6ad56	0.3255412
9	0xbe1d3b8c	-0.15354747
10	0x3f0b76d1	0.54478174
11	0x3ee5ea2a	0.44905216
12	0xbe1e7aa6	-0.15476474
13	0x3ec68a31	0.38777307
14	0xbecd1a6c	-0.4005922
15	0x3e308beb	0.17240874
16	0xbed9f5e5	-0.42570415
17	0x3f172d26	0.59053266
18	0xbe06cc2a	-0.1316382
19	0x3f3136b0	0.6922407
20	0x3ecfec16	0.40609807
21	0x3f151e79	0.5824962
22	0xbee837d3	-0.4535509
23	0xbef1725f	-0.4715757
24	0xbed3a111	-0.4133382
25	0x3f253852	0.6453906
26	0xbf033c17	-0.51263565
27	0x3ed4d395	0.41567674
28	0xbef15542	-0.4713536
29	0xbea27e3d	-0.31736937
30	0x3ef970cb	0.48718867
31	0xbecf9c3c	-0.40548885
32	0x3f12d8c9	0.5736204
33	0xbf0b51af	-0.54421514
34	0x3d204ecf	0.039137658
35	0x3ee9fc11	0.45700124
36	0x3ea1d045	0.3160421
37	0x3ee0fb40	0.4394169
38	0xbdf5177b	-0.11967369
39	0x3efeb95d	0.49750796
40	0xbe5ec983	-0.21756558
41	0xbbbd93fa	-0.0057854624
42	0xbe2c949a	-0.16853562
43	0x3f56a23e	0.8384131
44	0xbd7f92d4	-0.062395886
45	0x3f258d24	0.6466849
46	0x3f16d2db	0.5891549
47	0x3ecb41ff	0.3969879
48	0x3f26f262	0.65213597
49	0xbf474c2a	-0.7785059
50	0xbebead3c	-0.37241542
51	0x3ecd9721	0.40154365
52	0x3dd18425	0.10230283
53	0x3c581b34	0.0131900795
54	0xbf060327	-0.5234856
55	0xbeccffbf	-0.4003887
56	0xbe062380	-0.1309948
57	0xbe2e1a0f	-0.17002128
58	0xbf146a1e	-0.5797442
59	0x3c73e496	0.014886042
60	0xbf10f00f	-0.566163
61	0xbeb17908	-0.34662652
62	0xbd7a62e8	-0.06112948
63	0x3ebe7d81	0.37205127
64	0xbe963f5f	-0.29345223
65	0xbe508892	-0.20364597
66	0xbcaf8d41	-0.02142966
67	0xbe9bb202	-0.30409247
68	0x3da449e7	0.08021908
69	0xbeeb383d	-0.45941344
70	0xbf1cdd21	-0.61274916
71	0x3d8dec8a	0.06929882
72	0xbe903f6a	-0.2817338
73	0x3ee8ccca	0.45468742
74	0x3bea9d28	0.0071598478
75	0x3d0fadc9	0.035077844
76	0x3e5cfa16	0.21579775
77	0xbee7b6aa	-0.4525655
78	0xbec953b2	-0.39321667
79	0x3e84fb16	0.25972813
80	0x3e4b4f69	0.19854511
81	0xbeea8bd1	-0.45809796
82	0x3f0fba77	0.561439
83	0xbf023108	-0.50856066
84	0xbef07a13	-0.46968135
85	0x3ed12cdc	0.40854537
86	0x3f0a8c10	0.5411997
87	0xbdbf1474	-0.09330073
88	0x3eed6d54	0.46372473
89	0xbe0898a1	-0.13339473
90	0x3efd820e	0.49513286
91	0x3e51bd26	0.2048231
92	0x3ee488b1	0.44635537
93	0xbdf801a0	-0.12109685
94	0xbf33ae65	-0.7018798
95	0x3dcebb2a	0.100942925
96	0xbf27023a	-0.6523777
97	0xbe2b61f6	-0.16736588
98	0xbf02f475	-0.5115426
99	0xbec08490	-0.37601137
100	0x3d899cba	0.06719346
101	0xbea344b7	-0.31888363
102	0xbeb40e9a	-0.3516739
103	0xbf05b408	-0.5222783
104	0xbf0f7ebe	-0.5605277
105	0x3de8e9b1	0.11372698
106	0x3e2e20e0	0.17004728
107	0xbf050bb8	-0.51971006
108	0x3e8b0b32	0.2715698
109	0xbf2e0a8c	-0.67984843
110	0x3ef9e27e	0.48805612
111	0xbdb1188e	-0.086472616
112	0xbf058e2f	-0.5217008
113	0xbdc6927b	-0.09695908
114	0xbe7c30a1	-0.24627925
115	0xbd796709	-0.060889278
116	0xbed0888e	-0.40729183
117	0x3ef24872	0.47320896
118	0x3c8ff09a	0.017570782
119	0xbddb7051	-0.10714782
120	0x3ddce824	0.10786465
121	0x3ef4e8e1	0.47833923
122	0xbe83d15e	-0.25745672
123	0x3d57e320	0.052706838
124	0x3f01bb4b	0.5067641
125	0xbf0c5590	-0.5481806
126	0xbf35edeb	-0.7106616
127	0xbf11279c	-0.56701064
128	0x3ebcd5e4	0.36881936
129	0xbeae274d	-0.3401436
130	0xbda20761	-0.07911564
131	0xbf23b8c4	-0.63953805
132	0xbe6656db	-0.2249407
133	0xbe3035ba	-0.17207995
134	0xbe63d59d	-0.22249456
135	0x3dd7f668	0.10545045
136	0x3f034b93	0.5128719
137	0xbf06c3d3	-0.52642554
138	0xbf106da3	-0.5641729
139	0x3e7f39f8	0.24924457
140	0xbf0e986b	-0.5570132
141	0x3e8b2582	0.27177054
142	0x3f0fc5c8	0.56161165
143	0xbe19e5ba	-0.1502904
144	0xbe253ed5	-0.1613725
145	0xbf4b6557	-0.7945151
146	0x3eee36ca	0.46526176
147	0x3ef73dc2	0.48289305
148	0x3f1836ff	0.5945892
149	0xbdbe0d19	-0.09279842
150	0xbda884c4	-0.08228448
151	0x3e5db16c	0.21649712
152	0x3ca91220	0.020638525
153	0x3f180dce	0.59396064
154	0x3ede5187	0.43421575
155	0x3ed0643d	0.40701476
156	0x3e92460d	0.2856907
157	0x3a567f40	0.0008182414
158	0x3f14b4d0	0.580884
159	0xbee5bda5	-0.4487125
160	0xbed7f8a2	-0.4218188
161	0xbf243597	-0.6414427
162	0xbe3bdc93	-0.18345861
163	0xbef30176	-0.47462052
164	0x3eb2a2e6	0.34889907
165	0xbec3c875	-0.38238874
166	0xbf452473	-0.7700874
167	0xbdc3933a	-0.095495656
168	0xbe8f1a1f	-0.27949616
169	0x3dc2170c	0.09477052
170	0xbeff9f4e	-0.49926227
171	0xbe90d385	-0.28286377
172	0xbf031c64	-0.51215196
173	0xbeb430e3	-0.35193548
174	0xbeaa52a0	-0.33266163
175	0x3dbd2e53	0.09237351
176	0x3d70b22e	0.058763675
177	0x3e9a3416	0.30117863
178	0xbe1eeb1f	-0.15519379
179	0xbed2c97c	-0.41169345
180	0x3eca875b	0.39556393
181	0x3f562236	0.8364595
182	0x3ed14365	0.4087173
183	0x3f18245d	0.59430486
184	0xbd1f38d6	-0.038872562
185	0xbf0844ac	-0.53229785
186	0x3e9d9450	0.30777216
187	0xbe85f03b	-0.26159844
188	0xbe1f1539	-0.1553544
189	0xbe4776c1	-0.19478895
190	0x3eecac82	0.46225363
191	0xbe33a6a7	-0.17544042

fc1.0.bias f4 [64]
0	0x3b396b28	0.002829263
1	0xbd72be5b	-0.05926357
2	0x3f2d7678	0.67758894
3	0xbe4c2a49	-0.19938006
4	0xbebd4699	-0.36967924
5	0x3ec57b05	0.3857042
6	0xbeac05fa	-0.3359831
7	0xbe8ecc33	-0.27890167
8	0x3e43cd37	0.19121252
9	0x3e4b4d02	0.19853595
10	0xbe9d681c	-0.30743492
11	0xbdfc40bb	-0.12317034
12	0x3ea36ea8	0.31920362
13	0x3f13c8db	0.57728356
14	0xbd290ea1	-0.041273717
15	0xbd8d8da9	-0.06911785
16	0xbeb60194	-0.3554808
17	0x3ef540be	0.47900957
18	0x3e849c53	0.25900516
19	0xbe231364	-0.15925366
20	0xbe258e3a	-0.16167536
21	0x3ccc69a6	0.02495272
22	0x3e90fe72	0.28319126
23	0x3f0a7d7b	0.5409772
24	0x3cdba27e	0.02681088
25	0xbf090ecb	-0.535382
26	0xbe6d0d3c	-0.2314958
27	0x3e802c8b	0.25033984
28	0x3ea8d508	0.3297503
29	0xbb8bf8fa	-0.0042716237
30	0xbeec4c64	-0.4615203
31	0x3e52c9b2	0.20584753
32	0x3e9d81ca	0.30763084
33	0xbe6e3c4b	-0.23265187
34	0x3e934fd5	0.28771845
35	0xbe90113d	-0.28138152
36	0x3e967ed0	0.29393625
37	0x3e94192c	0.28925455
38	0xbef4f627	-0.4784405
39	0x3e763324	0.24042946
40	0x3e90942c	0.28238046
41	0x3e78abfd	0.24284358
42	0xbeb6e0b2	-0.35718304
43	0x3d9309a9	0.07179577
44	0xbeb144f4	-0.3462292
45	0xbe9a71c0	-0.3016491
46	0x3ec1ebc0	0.37875175
47	0x3eb5d45c	0.3551358
48	0x3e8f8173	0.2802845
49	0x3e5050ff	0.20343398
50	0xbecb357c	-0.39689243
51	0xbeddbbe0	-0.433074
52	0xbeee5f21	-0.46556953
53	0xbed26941	-0.41095927
54	0x3eb91451	0.36148313
55	0x3cdbcf43	0.026832229
56	0xbebd22ef	-0.36940715
57	0xbe8d9c34	-0.27658236
58	0xbeea24d8	-0.45731235
59	0x3c9364e7	0.01799245
60	0xbea38233	-0.31935272
61	0xbee49170	-0.4464221
62	0x3e885338	0.2662599
63	0x3f1f4053	0.62207526

fc1.2.weight f4 [128, 64]
0	0x3b8cf940	0.004302174
1	0x3cead018	0.02866368
2	0xbdb351a0	-0.08755803
3	0xbe4a3fd4	-0.19750911
4	0xbc83e914	-0.016102351
5	0xbe10dff1	-0.14147927
6	0xbd807810	-0.062729
7	0x3c832175	0.016007164
8	0x3e107e13	0.14110593
9	0xbe22b775	-0.15890296
10	0x3e04638a	0.12928596
11	0xbe08fb4d	-0.13377114
12	0x3e153800	0.14572144
13	0x3bc2ec87	0.0059486064
14	0x3c08e00c	0.008354198
15	0x3d813b39	0.06310124
16	0xbde4862f	-0.11158406
17	0x3d90b6d5	0.070661224
18	0xbe0e53dc	-0.13899177
19	0xbe99b88f	-0.3002362
20	0xbd25bdc7	-0.04046419
21	0xbc9205e0	-0.017825067
22	0xbc8243fa	-0.015901554
23	0xbe317a1c	-0.17331737
24	0x3ca1d4d9	0.019754814
25	0x39f93dae	0.00047538936
26	0xbe5e75b9	-0.21724595
27	0x3e03079f	0.12795876
28	0xbc4e47d9	-0.012590372
29	0x3b0b594b	0.002126294
30	0xbc190987	-0.00934065
31	0xbe943cd1	-0.2895265
32	0xbd3848e8	-0.044991404
33	0x3cfdbd47	0.030974044
34	0xbdc140a9	-0.09436161
35	0x3d8c730b	0.0685788
36	0xbe25ad9f	-0.16179512
37	0xbe27aeda	-0.16375294
38	0x3ac53a68	0.0015047314
39	0x3c099411	0.008397118
40	0xbd95da7e	-0.07317065
41	0x3dcc14e0	0.09964919
42	0xbea1a184	-0.3156854
43	0xbc976cb4	-0.01848445
44	0xbe091970	-0.1338861
45	0x3e0a61f7	0.13513933
46	0x3c0ff297	0.008785865
47	0x3d549b5b	0.05190597
48	0xbe43420f	-0.19068168
49	0x3ba1a4c1	0.0049329703
50	0x3def313a	0.11679311
51	0x3e6e625c	0.23279709
52	0xbcd8c733	-0.026462173
53	0xbd21ac23	-0.039470803
54	0xbca535e7	-0.020167304
55	0xbd9ad873	-0.07560816
56	0x3dbdd951	0.092699654
57	0x3c1077fe	0.008817671
58	0xbe2fc02a	-0.17163149
59	0xbdbe12db	-0.0928094
60	0x3e08de24	0.1336599
61	0xb944e882	-0.00018778633
62	0x3d7e5484	0.06209232
63	0x3d64dbf3	0.055873822
64	0xbce55f39	-0.027999507
65	0xbb65460d	-0.003498438
66	0xbe0fb900	-0.14035416
67	0x3bdf15d3	0.0068080216
68	0x3e37c88b	0.17947595
69	0xbd192326	-0.037387036
70	0xbc8523e6	-0.01625247
71	0xbd9f4a88	-0.077778876
72	0x3df8fd17	0.12157648
73	0xbdbe6898	-0.092972934
74	0xbd8db0e7	-0.06918507
75	0x3d59a40f	0.053134974
76	0x3db2478b	0.08705052
77	0xbc880f8f	-0.016608981
78	0x3d24e874	0.040260747
79	0x3dc5cb83	0.096579574
80	0x3d601317	0.054705705
81	0xbc589865	-0.013219927
82	0x3ca6a7f4	0.020343758
83	0xbe4730dd	-0.19452234
84	0x3cd9cbec	0.026586495
85	0xbd351f0e	-0.04421907
86	0xbe464af7	-0.19364534
87	0xbe30dd5f	-0.17271946
88	0x3e03d689	0.12874807
89	0x3d287885	0.04113056
90	0xbc630204	-0.013855461
91	0x3e01e6a7	0.12685643
92	0x3d148937	0.03626367
93	0x3e222269	0.15833439
94	0xbd4cc8b3	-0.04999609
95	0xbe69fb81	-0.22849847
96	0xbdb40dc3	-0.08791687
97	0x3e4c1d0a	0.19932953
98	0x3d87198f	0.06596672
99	0xbd562d21	-0.052289132
100	0xbe399282	-0.18122295
101	0xbe29d092	-0.1658347
102	0xbbcfdd8a	-0.006343548
103	0xbe23f971	-0.16013123
104	0x3e16e045	0.1473399
105	0x3c0b3863	0.00849733
106	0xbc4a571b	-0.012349869
107	0xbddb531c	-0.10709211
108	0x3d617ab0	0.055048645
109	0x3d950e29	0.072780915
110	0x3d6845dc	0.056707248
111	0xbd227df3	-0.039670896
112	0xbda153da	-0.078773215
113	0x3dde677f	0.10859584
114	0x3dcf631c	0.101263255
115	0xbd1c1b84	-0.03811218
116	0xbddcc68c	-0.10780057
117	0x3d8a4a2b	0.06752428
118	0xbd857cf0	-0.065179706
119	0x3d5c009e	0.053711526
120	0x3dc2fc4f	0.0952078
121	0xbc813f15	-0.01577715
122	0xbb20141d	-0.002442605
123	0xbdd252e1	-0.10269714
124	0xbde39be7	-0.111137204
125	0xbd582f8c	-0.05277972
126	0xbda93f39	-0.08264012
127	0xbd3bd87c	-0.045860752
128	0xbdbc6fc3	-0.09201004
129	0xbdb41350	-0.08792746
130	0x3c6015cc	0.013677072
131	0xbd80cba7	-0.062888436
132	0x3b2ae854	0.002607842
133	0x3d1193c9	0.03554133
134	0xbd05219b	-0.03250275
135	0xbc49c99b	-0.012316133
136	0x3e0a4897	0.13504253
137	0xbdeadcac	-0.11467871
138	0xbde3e496	-0.11127584
139	0x3e195165	0.14972456
140	0xbcb7dd6e	-0.022444453
141	0xbe28d2b5	-0.16486628
142	0xbda7c02b	-0.0819095
143	0xbb4ad5f3	-0.0030950278
144	0xbb3f8b78	-0.0029227417
145	0xbd2d087e	-0.042244427
146	0x3d4edb50	0.05050212
147	0xbe7eaee3	-0.24871401
148	0xbc88081a	-0.016605426
149	0xbde36964	-0.11104086
150	0xbde18f0f	-0.110136144
151	0xbd71b6c8	-0.059012204
152	0x3e35a613	0.17739134
153	0x3daf8b56	0.08571498
154	0x3cf1b6ea	0.029506166
155	0x3ccf8770	0.025333136
156	0x3e063223	0.13105063
157	0x3d15aa6d	0.036539484
158	0xbbfdbb18	-0.0077432506
159	0x3cd8819a	0.026428986
160	0x3db718c8	0.089402735
161	0xbcec9198	-0.028878018
162	0xbded81a4	-0.115969926
163	0xbcc0aa8d	-0.023518825
164	0xbdb6e860	-0.08931041
165	0xbe12241e	-0.1427159
166	0x3d851dab	0.06499799
167	0xbe1a896a	-0.15091482
168	0x3e00a100	0.12561417
169	0x3dc05636	0.093914434
170	0xbcb2cf68	-0.021827415
171	0xbd8b1b63	-0.06792333
172	0xbe27182e	-0.16317818
173	0xbc66f162	-0.014095636
174	0x3d2f7e47	0.042845037
175	0x3df1abe5	0.118003644
176	0xbddf6baf	-0.10909211
177	0xbc9c95e2	-0.019114438
178	0xbdb31bb4	-0.08745518
179	0x3d44dcfb	0.048062306
180	0x3d907b9a	0.07054825
181	0xbd8a6c93	-0.0675899
182	0x3da81c0a	0.08208473
183	0xbd2c3ffe	-0.042053215
184	0xbdb11dfc	-0.08648297
185	0x3d3f5705	0.046713848
186	0x3e4f108b	0.20221154
187	0x3d6cc900	0.057808876
188	0xbdaadb43	-0.08342602
189	0xbb989908	-0.0046569146
190	0x3dce4cf9	0.10073275
191	0xbdd224bf	-0.10260915
192	0x3d4fd35c	0.050738677
193	0xbd7eadff	-0.062177654
194	0x3c8cb4cf	0.01717606
195	0x3ddfbc18	0.10924548
196	0xbca72fea	-0.02040859
197	0xbdab7133	-0.083712004
198	0xbc59e91b	-0.013300206
199	0xbdb13a4e	-0.08653699
200	0xbdac0e3b	-0.08401152
201	0x3d1535f4	0.036428407
202	0x3dd78d90	0.10525048
203	0xbdd198b8	-0.10234207
204	0x3d188c21	0.037243012
205	0xbd85f1c9	-0.065402575
206	0xbdcc868f	-0.099866025
207	0x3d5ecce7	0.05439463
208	0x3cda8563	0.026674932
209	0xbdaa4e33	-0.083156966
210	0x3d12c1c3	0.035829317
211	0x3d086b10	0.033305228
212	0x3d6a6ee5	0.057234664
213	0xbdf1ef73	-0.118132494
214	0xbd99b220	-0.07504678
215	0xbddbd04f	-0.10733091
216	0x3da51f2b	0.080625854
217	0x3d5c41f8	0.05377385
218	0xbd3abd68	-0.045590788
219	0xbd372d6c	-0.044721052
220	0x3db5f416	0.08884446
221	0x3cd399ba	0.025830138
222	0x3d1df84a	0.038566865
223	0x3c35c57d	0.011094448
224	0xbd27b37a	-0.040942647
225	0xbbd8ab39	-0.006612208
226	0xbc89b686	-0.016810667
227	0x3d9cd218	0.0765726
228	0xbdd9bfa8	-0.10632259
229	0xbc216062	-0.00984964
230	0xbdcdc031	-0.10046423
231	0x3dcd54bc	0.100259274
232	0x3d946b6d	0.07247052
233	0xbc919d02	-0.017775062
234	0xbdd19449	-0.10233361
235	0xbd432437	-0.04764196
236	0x3d8df528	0.069315255
237	0xbc1c8e77	-0.009555451
238	0x3dd4f3f0	0.1039809
239	0xbd5c4b2e	-0.053782634
240	0xbd84062b	-0.06446489
241	0xbd11b719	-0.035575006
242	0x3dba14f6	0.09086029
243	0x3daea3aa	0.0852731
244	0x3c536974	0.01290356
245	0xbdb9e23b	-0.09076353
246	0xbdcf15c8	-0.10111576
247	0xbdded150	-0.10879767
248	0xbd87ae72	-0.0662507
249	0x3cb0fae8	0.021604016
250	0xbcbe3883	-0.023220306
251	0xbd67fff6	-0.056640588
252	0x3d8122ec	0.06305489
253	0x3de95cd9	0.113946624
254	0x3d0693aa	0.032855667
255	0x3dac67b7	0.084182195

fc1.2.bias f4 [128]
0	0x3d8e95bb	0.069621526
1	0x3dc1bbaa	0.09459622
2	0xbcce746a	-0.025201995
3	0xbd671166	-0.056413077
4	0xbd5cc3c6	-0.05389764
5	0xbc9cf821	-0.019161286
6	0xbd036524	-0.032078877
7	0xbd65417b	-0.05597065
8	0xbc0ce320	-0.008599073
9	0xbdd0ae90	-0.10189545
10	0xbdd2c389	-0.102912016
11	0x3d7501c9	0.059816156
12	0xbc83abe4	-0.016073175
13	0x3d9d3f06	0.076780364
14	0x3d5c127e	0.053728573
15	0xbd857e94	-0.065182835
16	0xbc9599d7	-0.018261833
17	0xbd934998	-0.07191771
18	0x3dfa31a0	0.122164965
19	0x3d73ab9c	0.05948983
20	0x3d970583	0.07374098
21	0xbda4cfdb	-0.08047458
22	0xbd99adbe	-0.07503842
23	0x3dd2edd4	0.10299268
24	0x3d860b78	0.06545156
25	0xbdcde64d	-0.10053692
26	0xbd13455a	-0.03595481
27	0xbdbdc91b	-0.092668734
28	0xbd8c8b47	-0.068625025
29	0xbce9774a	-0.028499264
30	0x3aa2aa7c	0.0012410427
31	0x3d75530a	0.059893645
32	0x3d9ab502	0.07554056
33	0xbd18c076	-0.03729292
34	0xbd736a9d	-0.059427846
35	0xbdcd90c2	-0.10037376
36	0x3d32ca65	0.04365005
37	0xbce497b3	-0.027904367
38	0xbd8a6db4	-0.067592055
39	0x3e28bb0f	0.16477607
40	0x3d823216	0.063572094
41	0x3db9aadf	0.09065794
42	0xbccf0990	-0.025273114
43	0xbd88d3ba	-0.06681009
44	0x3da50e50	0.080593705
45	0xbd840577	-0.06446355
46	0xbdbc4bb2	-0.09194125
47	0x3dae5233	0.08511772
48	0x3e041bde	0.12901255
49	0x3dce4f6a	0.10073741
50	0x3cbd47b9	0.02310549
51	0xbd6349be	-0.055490248
52	0xbd774753	-0.060370754
53	0x3dd7c903	0.10536387
54	0xbda078a2	-0.07835509
55	0x3cab5136	0.020912748
56	0xbd1abbd3	-0.03777678
57	0xbd36b107	-0.04460242
58	0xbde9d178	-0.11416906
59	0xbd8c2788	-0.068434775
60	0xbdcda83a	-0.10041852
61	0xbdf79294	-0.120885044
62	0x3caf984c	0.021434925
63	0x3d270ccd	0.040783692
64	0xbdb20f08	-0.08694273
65	0x3d851e4c	0.06499919
66	0xbd04eb81	-0.032451157
67	0xbd6a4a9d	-0.057200063
68	0x3ca32489	0.019914882
69	0xbd8bf0db	-0.06833049
70	0xbe1dd70c	-0.15414065
71	0x3def5db9	0.11687798
72	0x3d065712	0.03279788
73	0xbcaf6361	-0.021409692
74	0x3d4f2411	0.050571505
75	0xbcee3102	-0.029076103
76	0x3e0d3b33	0.13792114
77	0xbd054b97	-0.03254279
78	0x3d873c36	0.06603281
79	0xbdbbdbf3	-0.09172811
80	0xbd06c985	-0.032907028
81	0x3dd0f3ca	0.10202749
82	0xbd5e556f	-0.054280695
83	0x3df31421	0.11869074
84	0x3ad9a800	0.0016605854
85	0xbd19fee4	-0.0375966
86	0xbd507d02	-0.050900467
87	0x3e15325f	0.14569996
88	0x3dd4b38b	0.103858076
89	0x3df9c888	0.121964514
90	0xbd82e168	-0.06390649
91	0x3d9c8a28	0.07643539
92	0x3c48b5cc	0.012250375
93	0x3c7f7c3c	0.015593585
94	0x3dcaaa01	0.09895707
95	0xbcc65c9a	-0.024214078
96	0x3b749b85	0.0037324142
97	0xbcbdc149	-0.023163455
98	0xbdfc1f12	-0.12310614
99	0xbdb84c8f	-0.089989774
100	0x3ca75789	0.020427482
101	0x3dfd8c00	0.123802185
102	0xbdb59c55	-0.088677086
103	0x3d821ea9	0.06353504
104	0x3d8e9228	0.06961471
105	0x3dd968e6	0.10615711
106	0xbdcab187	-0.09897142
107	0x3dd3b56d	0.103373386
108	0x3d8b25d8	0.067943275
109	0xbde60c16	-0.11232774
110	0x3c14ea0d	0.009089005
111	0x3d939c99	0.07207603
112	0xbdc5d690	-0.09660065
113	0x3c5ecbc9	0.013598391
114	0xbb30fb06	-0.002700509
115	0x3d26998f	0.04067379
116	0xbcbdc1e4	-0.023163743
117	0x3e237970	0.15964293
118	0x3e07e3e8	0.13270533
119	0x3daa3742	0.08311321
120	0xbd609847	-0.054832723
121	0xbd12bdd4	-0.035825565
122	0x3b8e46aa	0.00434192
123	0xbd9bbab8	-0.07603973
124	0xbc8a265e	-0.016863998
125	0x3e3e3d9c	0.1857819
126	0xbdeb7a83	-0.11497977
127	0xba9993be	-0.0011717004

fc1.4.weight f4 [256, 128]
0	0x3dc4c57a	0.09607978
1	0xbd61546a	-0.055012144
2	0x3e1a42ed	0.15064593
3	0x3d1d88b4	0.03846045
4	0x3dd8bb84	0.10582641
5	0xbe0117c7	-0.12606727
6	0x3e05429b	0.13013689
7	0xbd157bdc	-0.036495075
8	0x3d5e5eae	0.054289512
9	0x3d8cd5d5	0.06876723
10	0xbe94ee93	-0.29088268
11	0x3d3bcc7e	0.045849316
12	0x3d66a464	0.05630912
13	0x3e0caa76	0.137369
14	0xbd87f0b1	-0.06637705
15	0x3d874f32	0.06606902
16	0xbdf695b9	-0.12040276
17	0x3ccc54de	0.024942812
18	0x3cbc0fd2	0.022956762
19	0x3e36871b	0.17824976
20	0xbdaa9e98	-0.083310306
21	0x3d874e3b	0.06606718
22	0xbde9b6b0	-0.11411798
23	0xbccf49c9	-0.025303738
24	0xbd41c6ec	-0.047308847
25	0x3d041e93	0.03225572
26	0xbe6ad108	-0.22931302
27	0xbca42a69	-0.020039754
28	0x3d890d8c	0.06692037
29	0x3e047aba	0.12937441
30	0xbcf75e88	-0.030196443
31	0xbd9955b3	-0.07487049
32	0x3d8f7af1	0.07005871
33	0x3d54e426	0.05197539
34	0x3b4130a0	0.0029478446
35	0x3df8d4b7	0.12149947
36	0x3de7a79f	0.11311268
37	0x3d469c09	0.04848865
38	0x3e1d263a	0.15346614
39	0x3c230b95	0.009951492
40	0xbca42d0e	-0.020041015
41	0xbd1f61d4	-0.038911656
42	0xbdab6f47	-0.08370834
43	0x3de5cb4c	0.112204164
44	0x3ea8e375	0.32986036
45	0x3e0a632d	0.13514395
46	0xbd9c0e42	-0.07619907
47	0x3d5b420d	0.053529788
48	0x3d49d043	0.04927088
49	0xbd287f97	-0.041137304
50	0xbb47fc41	-0.0030515345
51	0x3ddc7cf2	0.10766019
52	0x3da3b13e	0.07992791
53	0x3d2fc620	0.042913556
54	0x3d481005	0.048843402
55	0x3d802af0	0.0625819
56	0xbe174ebf	-0.14776133
57	0x3e12d34d	0.14338417
58	0x3c1239d5	0.008924921
59	0xbc7756b8	-0.015096359
60	0xbebf3ad5	-0.37349573
61	0xbda18baf	-0.07887971
62	0x3d85ff27	0.06542807
63	0x3d75de2d	0.060026336
64	0xbd9e32f0	-0.07724559
65	0xbd678678	-0.056524724
66	0x3e9f4ec5	0.31114784
67	0x3e25a324	0.16175514
68	0xbdbd2b35	-0.09236757
69	0x3db2fb33	0.08739319
70	0xbcabbd66	-0.020964336
71	0x3d071bac	0.032985374
72	0xbd84e34b	-0.06488665
73	0xbd21679d	-0.039405454
74	0xbd5f656a	-0.054540075
75	0x3d7e54d7	0.06209263
76	0xbc9ed3ce	-0.019388106
77	0xbcf194b1	-0.029489847
78	0xbc8688ef	-0.016422717
79	0x3de3e300	0.11127281
80	0x3e75e3ca	0.24012676
81	0xbd953408	-0.07285315
82	0xbd45870e	-0.0482245
83	0xbd221bd0	-0.039577305
84	0xbad44900	-0.0016196072
85	0xbdb49352	-0.088171616
86	0x3dc772a5	0.097386636
87	0xbd40c70b	-0.047064822
88	0xbdc291ae	-0.095004424
89	0x3c05ab7f	0.008158564
90	0xbddd398e	-0.10801993
91	0x3dcbb882	0.099473014
92	0x3db8ce0c	0.09023675
93	0x3e16c637	0.1472405
94	0xbdb46802	-0.088089004
95	0x3da5bb47	0.08092361
96	0x3de14317	0.109991245
97	0xbe3edc3b	-0.18638699
98	0xbd1e97ac	-0.038718864
99	0x3e0ffa09	0.14060225
100	0xbd6a9910	-0.057274878
101	0x3cd26e80	0.025687456
102	0xbdcc737f	-0.09982967
103	0xbd08dfbf	-0.033416506
104	0xbd824dcc	-0.06362495
105	0xbc6841ad	-0.014175815
106	0x3e2f9b3f	0.17149065
107	0xbd6692c8	-0.056292325
108	0x3c89cfcf	0.016822724
109	0x3d541e34	0.051786616
110	0x3d87dc60	0.0663383
111	0x3cec17ba	0.028819907
112	0xbdd740ca	-0.105104044
113	0xbd0caccf	-0.03434449
114	0xbd8add78	-0.06780523
115	0x3c7bb096	0.015361926
116	0x3cf458f5	0.029827574
117	0x3e52b353	0.2057622
118	0xbd2735d0	-0.040822804
119	0x3d866cef	0.06563746
120	0xbe89c0f5	-0.26905027
121	0x3df14abe	0.11781834
122	0xbe5c1b60	-0.21494818
123	0xbd148532	-0.036259837
124	0x3da8020d	0.08203516
125	0x3c4eb832	0.012617158
126	0xbda29617	-0.079387836
127	0xbd4eecd8	-0.05051884
128	0x3c85f5d8	0.016352579
129	0xbe5b32d9	-0.21406116
130	0x3df2aceb	0.11849388
131	0x3d4fce6d	0.050733972
132	0x3e84883e	0.25885195
133	0xbd9324c6	-0.07184748
134	0xbb16be73	-0.00230017
135	0x3c5c0716	0.013429424
136	0x3d7699ba	0.0602052
137	0x3ca2778b	0.019832393
138	0xbe245ddf	-0.16051434
139	0x3de39241	0.1111188
140	0x3e6557ff	0.22396849
141	0x3e1b3b61	0.1515937
142	0xbd89da1a	-0.06731053
143	0x3dc87fb1	0.0978998
144	0xbdf81cc6	-0.12114863
145	0x3cd5384e	0.026027825
146	0x3d443683	0.04790355
147	0x3d89fabf	0.06737279
148	0x3d218890	0.039436877
149	0x3cbf2132	0.023331258
150	0xbd875386	-0.06607728
151	0x3dd19251	0.10232986
152	0x3dbc60f1	0.091981776
153	0x3c90b1ed	0.017662967
154	0xbe19484a	-0.14968982
155	0x3a2d3d5d	0.000660857
156	0x3d299432	0.041401096
157	0x3cf76be0	0.030202806
158	0x3daf5877	0.08561795
159	0xbdaeab19	-0.08528728
160	0x3d6a7dd9	0.057248924
161	0xbabd8616	-0.0014459516
162	0x3b7ffe40	0.0039061457
163	0x3c85e7e0	0.016345918
164	0x3c501e51	0.0127025405
165	0x3d21e38a	0.03952364
166	0x3d905f52	0.07049431
167	0xbc79867e	-0.015229819
168	0xbda48292	-0.08032717
169	0x3c7f95be	0.015599666
170	0xbe102329	-0.14075913
171	0x3d9b95f0	0.07596958
172	0xbd845bdc	-0.06462833
173	0x3dda3c21	0.10656
174	0x3c2ef320	0.010678083
175	0x3d276aae	0.040873222
176	0xbcf24be0	-0.029577196
177	0xbe397456	-0.18110785
178	0x3c34fbda	0.011046374
179	0x3d2d4d9b	0.04231034
180	0x3c4362b5	0.011925389
181	0xbc8def61	-0.017326059
182	0xbd2bc0b7	-0.041931834
183	0x3d1a0c02	0.037609108
184	0xbdf9b41b	-0.121925555
185	0x3e36992c	0.17831868
186	0x3de917c0	0.11381483
187	0x3bc9c328	0.0061572976
188	0xbe0289c1	-0.12747861
189	0x3b1a0df6	0.0023506857
190	0xbc254f0a	-0.010089645
191	0x3db32277	0.08746808
192	0xbdf6157f	-0.12015819
193	0xbca6d399	-0.02036457
194	0x3cb756fd	0.022380346
195	0x3dad49c5	0.08461336
196	0xbe4f4b60	-0.20243597
197	0x3b343df0	0.0027502738
198	0x3d5842a4	0.05279793
199	0x3dfa1ecf	0.122129075
200	0x3b45dbef	0.0030190905
201	0xbdad8c5e	-0.084740385
202	0xbd1cf42a	-0.03831879
203	0x3e03996f	0.12851499
204	0x3c5b19cc	0.01337285
205	0xbd7f95d2	-0.06239874
206	0xbcd219e6	-0.025647115
207	0x3cf141f1	0.029450389
208	0x3e002028	0.12512267
209	0xbd9c4647	-0.07630592
210	0x3d556cb2	0.052105613
211	0xbddd4b21	-0.10805345
212	0xbd56a05f	-0.052399036
213	0xbe072452	-0.13197449
214	0x3db1893f	0.08668756
215	0x3daedde1	0.08538414
216	0x3ccf991b	0.025341561
217	0xbd2177e2	-0.03942097
218	0xbe158226	-0.14600429
219	0x3dccdd7b	0.100031815
220	0x3c2f622c	0.010704558
221	0x3debdeca	0.11517103
222	0xbd814454	-0.06311861
223	0xbcba2076	-0.022720557
224	0x3d4b1607	0.049581554
225	0xbe7a9b7d	-0.24473377
226	0x3b789e20	0.0037936047
227	0x3c9b0be3	0.018926566
228	0xbe26b005	-0.16278084
229	0x3dc6a2e6	0.09699039
230	0xbc7b521a	-0.015339399
231	0xbd758a51	-0.059946362
232	0x3ba1ac00	0.004933834
233	0x3d33cc11	0.043895785
234	0x3e336726	0.17519817
235	0x3dd469c1	0.103717335
236	0x3dcff390	0.10153878
237	0x3d9b39ac	0.075793594
238	0xbdd85284	-0.105626136
239	0x3dc03833	0.09385719
240	0xbe554664	-0.20827633
241	0x3c5f1e1f	0.013618021
242	0x3c09b85a	0.008405769
243	0xbdc9d40c	-0.09854898
244	0x3d9352b6	0.0719351
245	0x3db5bc92	0.088738576
246	0x3d7aa8d1	0.061196152
247	0xbc242339	-0.010018163
248	0xbe43a30a	-0.19105163
249	0x3d1eb643	0.038748037
250	0xbebe3887	-0.37152502
251	0xbd02bd8d	-0.03191905
252	0xbd896393	-0.067084454
253	0x3cb50db3	0.022101259
254	0xbc9f4723	-0.0194431
255	0x3d43839d	0.047732938

fc1.4.bias f4 [256]
0	0x3da1de4b	0.07903727
1	0x3c957ff8	0.018249497
2	0xbb165642	-0.0022939597
3	0x3bda8729	0.0066689444
4	0xbcc5ec74	-0.024160601
5	0xbd37bbcf	-0.044856843
6	0xbd7a8cce	-0.061169438
7	0xbd345dba	-0.044034697
8	0x3cb2514e	0.021767285
9	0xbda2fd22	-0.079584375
10	0xbcb98510	-0.022646457
11	0xbd89347e	-0.06699465
12	0xbb20dd00	-0.0024545789
13	0x3db1688a	0.08662517
14	0x3dce73a7	0.10080653
15	0x3d0bcaa4	0.0341288
16	0x3d653785	0.05596115
17	0x3d0032ab	0.03129832
18	0x3d6c1534	0.05763741
19	0x3c9cd327	0.019143654
20	0x3a60629b	0.0008559615
21	0xbd81f282	-0.06345083
22	0x3d908231	0.07056082
23	0x3dc6d23d	0.097080685
24	0x3de26b3e	0.11055611
25	0x3d81eafc	0.06343648
26	0xbd79808c	-0.060913607
27	0x3c08ae12	0.008342283
28	0xbcebff6d	-0.02880832
29	0x3ca1e24a	0.019761223
30	0x3ca399a4	0.019970722
31	0xbccb000c	-0.024780296
32	0xbc803904	-0.015652187
33	0x3afd42b2	0.0019322245
34	0x3db7c116	0.08972375
35	0xbd2b5440	-0.041828394
36	0x3d10406a	0.03521768
37	0x3d3fc0f2	0.046814866
38	0x3d246ff2	0.040145822
39	0xbd9052dd	-0.07047055
40	0x3d58effb	0.05296324
41	0xbc5fb20f	-0.013653292
42	0x3c236925	0.009973799
43	0x3dbf10ce	0.09329377
44	0xbb770c02	-0.0037696366
45	0x3da3cb95	0.079978146
46	0x3dac1bd8	0.08403748
47	0xbd9053b1	-0.07047213
48	0xbd932f53	-0.07186761
49	0x3d1bfa57	0.03808054
50	0xbd04296a	-0.032266058
51	0x3c4ff0fd	0.012691733
52	0xbd8d7b50	-0.069082856
53	0x3d8ee967	0.06978112
54	0x3d682411	0.05667502
55	0x3cd25780	0.025676489
56	0xbdba1a11	-0.09087003
57	0x3da418f2	0.080125704
58	0x39c1cfe8	0.0003696673
59	0xbdb2f6c9	-0.08738477
60	0x3db462ed	0.08807931
61	0x3dbe69b7	0.09297507
62	0x3cc169f8	0.0236101
63	0xbd3ab934	-0.04558678
64	0x3bbd66a9	0.0057800603
65	0x3d9bc76e	0.076063976
66	0x3cf1c061	0.029510679
67	0x3b02c7ac	0.001995544
68	0x3d37ee1d	0.044904817
69	0xbd1afe2d	-0.037840057
70	0x3d8d7e54	0.06908861
71	0x3cc2f21b	0.023797086
72	0x3daa832f	0.083258025
73	0x3c37ec33	0.011225748
74	0x3c834b2b	0.016027054
75	0x3d0622df	0.0327481
76	0x3d50db1f	0.05099022
77	0x3d6b3b75	0.05742975
78	0xbbea69e9	-0.0071537388
79	0x3c1de317	0.009636662
80	0x3da5df4d	0.08099232
81	0x3b194975	0.002338973
82	0x3cdec5e3	0.02719397
83	0xbc48c914	-0.012254972
84	0xb91237e5	-0.00013944467
85	0x3da3812a	0.079836205
86	0xbda005c3	-0.07813599
87	0xbce320c9	-0.027725594
88	0x3d948457	0.07251804
89	0xbceb2e4a	-0.028708596
90	0x3b73bbe4	0.003719085
91	0xbcc45fd1	-0.02397147
92	0x3dc81a0a	0.097705916
93	0xbbfc687d	-0.0077028857
94	0x3d515eda	0.051115848
95	0xbce0c32d	-0.027436817
96	0x3dd86284	0.10565665
97	0x3d41404f	0.04718047
98	0xbd67a8f8	-0.056557626
99	0xbdbcfefb	-0.09228321
100	0x3dc772ba	0.09738679
101	0x3d0014b3	0.03126974
102	0x3d19e1f1	0.03756899
103	0x3da02b0c	0.078207105
104	0xbcab188c	-0.020885728
105	0x3cf25a3d	0.029584045
106	0x3e028d07	0.1274911
107	0x3dc5b008	0.09652716
108	0x3da2c7ae	0.07948242
109	0xbc42fa8a	-0.0119005535
110	0xbd90fd52	-0.07079567
111	0xbc7c0a49	-0.015383312
112	0x3c5de32d	0.013542932
113	0x3dc97c96	0.09838216
114	0x3c61ad17	0.013774178
115	0x3d98f24a	0.07468088
116	0x3d99631e	0.07489608
117	0xbcd799c4	-0.026318438
118	0x3d06c719	0.032904718
119	0xbda998e2	-0.08281113
120	0x3dd84867	0.10560685
121	0xbd50915e	-0.050919883
122	0x3c1259a5	0.008932506
123	0x3d52ec9d	0.051495183
124	0xbd8aed65	-0.06783561
125	0xbda398a4	-0.07988098
126	0xbda07d95	-0.07836453
127	0x3c6beb06	0.014399296
128	0xbd3d9822	-0.046287663
129	0xbd611031	-0.054947082
130	0xbd2c8fcf	-0.042129334
131	0x3dbbe296	0.09174077
132	0xbca6447c	-0.020296328
133	0xbcddf9ab	-0.02709659
134	0x3dbcc30a	0.09216888
135	0x3db0392f	0.08604657
136	0x3a8cccd4	0.0010742196
137	0xbd4e272b	-0.050330322
138	0x3da16dba	0.07882257
139	0x3db98a62	0.090595976
140	0xbd35dc4e	-0.044399552
141	0xbd3532e7	-0.044237997
142	0x3cecdecc	0.028914832
143	0x3bcad45e	0.006189867
144	0x3d778eca	0.06043891
145	0xbbc07a9f	-0.0058739926
146	0xbcf19386	-0.02948929
147	0xbda9ecd5	-0.08297125
148	0xbb96e6bf	-0.004605144
149	0x3d12ea18	0.03586778
150	0x3c087019	0.008327507
151	0xbc5cee79	-0.013484591
152	0x3dee059b	0.11622163
153	0xbd1454fb	-0.036213856
154	0xbc8efe06	-0.017455112
155	0xbbcab94d	-0.0061866404
156	0x3d595f3f	0.05306935
157	0xbb3fe637	-0.0029281506
158	0x3d621bee	0.055202417
159	0xbd33b0e8	-0.043869883
160	0xbd7f7216	-0.06236466
161	0x3d68bf80	0.056823254
162	0xbc469213	-0.012119788
163	0xbd6a7b9c	-0.05724679
164	0x3da86fa3	0.08224418
165	0x3c2f11b0	0.010685369
166	0x3d499ea1	0.049223546
167	0xbc5da794	-0.013528723
168	0x3d84df37	0.06487887
169	0x3d1bdd88	0.038053066
170	0xbda6837f	-0.0813055
171	0x3db59603	0.08866503
172	0xbcf32354	-0.029679932
173	0x3dd43549	0.10361726
174	0x3db23155	0.087008156
175	0x3d3a2088	0.04544118
176	0xbdab0e7b	-0.08352371
177	0x3dd67544	0.104715854
178	0x3d006611	0.031347338
179	0x3dace920	0.084429026
180	0x3c06b570	0.008221969
181	0xbce58ca3	-0.028021162
182	0x3c22d020	0.009937316
183	0x3db9ab63	0.090658925
184	0xbc24869f	-0.010041862
185	0x3d91fc4d	0.07128201
186	0x3cf7ea1f	0.030263005
187	0xbd31ceb8	-0.043410033
188	0xbd00498f	-0.03132015
189	0x3d13dc2c	0.036098644
190	0x3d39f979	0.04540393
191	0xbcaa5bcf	-0.02079573
192	0x3ce93f9d	0.028472716
193	0xbd59c22f	-0.053163704
194	0xbc17a019	-0.009254479
195	0xbd787f0f	-0.060668048
196	0xbb834879	-0.004006442
197	0x3d90bea2	0.0706761
198	0x3d86cca3	0.06582
199	0x3c14b509	0.009076365
200	0x3d7effba	0.0622556
201	0xbb737fd2	-0.0037155044
202	0x39fa037d	0.00047686315
203	0x3d9e3612	0.07725157
204	0x3cd1a21a	0.025589991
205	0x3db203cf	0.08692133
206	0x3d50caa9	0.05097452
207	0x3dc7f0ac	0.097627014
208	0x3da7eca3	0.08199432
209	0x3cd85335	0.026406864
210	0xbd26c2df	-0.040713187
211	0xbd4703a7	-0.048587468
212	0xbcf986ae	-0.030459728
213	0x3dc0de22	0.094173685
214	0x3cf53de5	0.02993674
215	0xbcc2e4a3	-0.023790663
216	0xbd82eca6	-0.06392793
217	0x3c920923	0.017826622
218	0x3d97acc6	0.07406001
219	0x3dd3392d	0.1031364
220	0x3db89389	0.09012515
221	0xbd19bdcc	-0.03753452
222	0xbd4eba15	-0.05047043
223	0x3d88e626	0.06684522
224	0xbd345661	-0.04402769
225	0xbca766cb	-0.020434758
226	0x3d1655eb	0.03670303
227	0x3c895ffb	0.0167694
228	0x3c8beec5	0.017081628
229	0x3da79b92	0.081839696
230	0x3963222d	0.00021661138
231	0x3d1179e6	0.035516642
232	0xbdafb97a	-0.08580299
233	0x3de50962	0.1118343
234	0xbd92b086	-0.071625754
235	0xbcb258bc	-0.021770827
236	0x3da0e42c	0.0785602
237	0xbd5333d6	-0.051563106
238	0x3da4a9b9	0.080401845
239	0x3da2aded	0.0794333
240	0x3dc57b1e	0.09642623
241	0x3d974c20	0.073875666
242	0x3d9d64b2	0.07685222
243	0x3d931d88	0.07183367
244	0x3c8e0e74	0.017340876
245	0x3d6dff28	0.058104664
246	0x3dabaa68	0.08382112
247	0x3d282b61	0.041056994
248	0xbd978e59	-0.074001975
249	0xbd00cb66	-0.031443976
250	0xbca83ca5	-0.02053673
251	0x3dab1155	0.08352915
252	0x3dccd8aa	0.10002263
253	0x3c8085be	0.015688773
254	0xbddca18f	-0.10773002
255	0x3d9e56e1	0.077314146

fc2.weight f4 [1, 256]
0	0x3e12fe90	0.1435492
1	0x3e2158ec	0.15756577
2	0x3ecc8ddd	0.39951983
3	0x3e7410d5	0.23834546
4	0xbe9ed94c	-0.3102516
5	0xbdf9baa0	-0.12193799
6	0xbe195792	-0.14974812
7	0xbf32bded	-0.69821054
8	0xbe2e04aa	-0.16993967
9	0x3e3aafdb	0.18231146
10	0xbe56c511	-0.20973612
11	0x3dd8ae8a	0.10580166
12	0x3e01b39a	0.12666169
13	0xbdd40459	-0.10352392
14	0x3e5713c5	0.21003635
15	0xbbd8d5f0	-0.0066173
16	0x3e30f826	0.17282161
17	0xbdd89c77	-0.10576718
18	0xbe1c041a	-0.1523594
19	0x3e622bda	0.2208704
20	0xbe720aa7	-0.23636876
21	0xbf135b18	-0.57560873
22	0x3e70117d	0.23444171
23	0xbe29284d	-0.1651928
24	0x3e6613d0	0.22468495
25	0x3ec67cfb	0.38767228
26	0x3e3f3826	0.18673763
27	0xbe89a94c	-0.26886976
28	0xbe314625	-0.17311914
29	0x3e2cab44	0.16862208
30	0x3e0b7159	0.13617457
31	0x3e8303c8	0.25588822
32	0xbdc31bb8	-0.09526771
33	0xbf3c0c44	-0.73456216
34	0xbe8ce593	-0.275189
35	0xbe687e12	-0.22704342
36	0x3e316a85	0.1732579
37	0x3e45ae42	0.19304755
38	0x3e472a88	0.19449818
39	0x3e2e3797	0.17013393
40	0xbe22a302	-0.15882495
41	0xbe3e2321	-0.18568088
42	0xbe3a89fb	-0.18216698
43	0xbe009eda	-0.12560597
44	0x3e428c2c	0.18998784
45	0xbcf4b2b8	-0.029870376
46	0xbdfe0f46	-0.12405257
47	0xbe605283	-0.21906476
48	0xbda3532f	-0.079748504
49	0xbe233ceb	-0.15941207
50	0xbed7afc2	-0.4212628
51	0xbe2ce84c	-0.16885489
52	0xbdebfb7d	-0.11522577
53	0xbe1ddc1b	-0.15415995
54	0x3e033a53	0.12815218
55	0x3e24c77c	0.16091722
56	0x3e25a5bf	0.16176508
57	0xbdcc3c52	-0.09972443
58	0xbe3ce5a6	-0.18446979
59	0xbdde18f0	-0.108446
60	0xbf33d46b	-0.70246
61	0x3e360bbb	0.17777912
62	0x3e87446d	0.26419392
63	0x3e13e613	0.14443235
64	0x3e9db8a3	0.3080493
65	0x3e5b74a8	0.2143122
66	0x3e89aecc	0.26891172
67	0x3e5c4fe5	0.21514852
68	0x3e36b9d7	0.1784433
69	0x3e27eab3	0.16398124
70	0x3e49130a	0.19636169
71	0xbee457ca	-0.44598228
72	0x3e4e1db2	0.20128515
73	0x3e4abd56	0.19798788
74	0xbf195998	-0.59902334
75	0x3e03b7b6	0.12863049
76	0xbe1e5af2	-0.1546438
77	0xbe15dbe3	-0.14634661
78	0xbe1cd277	-0.15314661
79	0xbe10c366	-0.14137039
80	0xbe4c4818	-0.19949377
81	0xbe809134	-0.2511078
82	0x3e54445c	0.20729202
83	0x3e373a9c	0.17893451
84	0xbe715efe	-0.23571393
85	0x3ec2540f	0.37954757
86	0x3d2be5b0	0.041967094
87	0x3e4b6287	0.19861804
88	0xbe1714cb	-0.14754026
89	0xbee37e5a	-0.44432336
90	0x3e8dcdfc	0.27696216
91	0x3e17f554	0.14839679
92	0x3e1032f3	0.14081936
93	0x3ecaa59f	0.39579484
94	0xbe4f26a0	-0.20229578
95	0x3e127774	0.1430338
96	0xbe73276c	-0.23745507
97	0x3e3df5a5	0.18550737
98	0xbf0e8647	-0.5567364
99	0xbe96bdb0	-0.29441595
100	0x3e4de8f7	0.201084
101	0xbd629ae4	-0.055323496
102	0xbe31ffef	-0.17382787
103	0x3e3a7200	0.1820755
104	0x3deef3a4	0.116675645
105	0x3e517062	0.20453027
106	0x3e8a382d	0.26995984
107	0x3e256a50	0.16153836
108	0x3f0db34e	0.5535172
109	0xbe5ebc7a	-0.21751586
110	0xbe59dfb7	-0.21276747
111	0xbdf546e9	-0.11976416
112	0x3d7a48b9	0.06110451
113	0xbf289a2e	-0.6586026
114	0xbf1f036e	-0.6211461
115	0xbe321cb0	-0.17393756
116	0xbf3ad218	-0.7297683
117	0x3e490749	0.19631685
118	0x3eb9bbd6	0.3627612
119	0xbe2d0e01	-0.16899873
120	0x3e1df205	0.15424354
121	0x3e97b4c3	0.29630098
122	0x3ef321e4	0.47486794
123	0xbeb0e9c0	-0.34553337
124	0xbe66f59b	-0.22554629
125	0xbe27a095	-0.16369851
126	0xbe80d6ac	-0.25163782
127	0xbdff211f	-0.12457489
128	0xbdf39275	-0.11893169
129	0x3e3e4565	0.1858116
130	0x3e8041ae	0.2505011
131	0x3dfcafc0	0.12338209
132	0xbea39789	-0.3195155
133	0xbf18434f	-0.59477705
134	0xbde44b8c	-0.11147222
135	0xbc6c5fa0	-0.014427096
136	0xbe2e705a	-0.17035046
137	0xbea7ff13	-0.32811794
138	0xbf2971c8	-0.6618924
139	0x3e5d6a6b	0.21622626
140	0x3e4bdea6	0.19909152
141	0x3f05f39d	0.5232485
142	0x3e49430c	0.19654483
143	0x3e146aac	0.14493817
144	0x3e0e13c0	0.13874722
145	0x3ea1418d	0.31495324
146	0xbe450e18	-0.19243658
147	0xb97dda00	-0.00024209172
148	0x3e238aef	0.15970968
149	0x3e917d11	0.2841573
150	0x3eac1cf1	0.3361583
151	0x3e4a99dd	0.19785257
152	0x3eaa5d57	0.33274338
153	0xbe4f7d43	-0.20262627
154	0x3e5d13d4	0.21589595
155	0x3e320d46	0.17387876
156	0x3f0802cd	0.53129274
157	0xbe239c72	-0.15977648
158	0x3e18cde3	0.1492229
159	0x3ef07f01	0.46971896
160	0x3d455e08	0.04818538
161	0xbda0da23	-0.07854106
162	0x3df24938	0.118303716
163	0xbe328ed4	-0.17437297
164	0xbe4cb69f	-0.1999154
165	0x3e442cbe	0.19157693
166	0x3e129233	0.14313583
167	0xbe97455b	-0.29545102
168	0x3eee2c67	0.4651825
169	0x3e8a9430	0.27066183
170	0x3eefdb8b	0.46847185
171	0xbe162c8f	-0.14665435
172	0x3e51d415	0.20491059
173	0xbdc5bc3d	-0.09655044
174	0xbe2a6305	-0.16639335
175	0xbe62cb78	-0.2214793
176	0x3e3f0af5	0.18656524
177	0x3e482950	0.1954701
178	0x3e8864e5	0.26639476
179	0xbe9695b1	-0.2941108
180	0xbe98695d	-0.29767886
181	0x3e54ac6b	0.20768897
182	0x3f120822	0.5704366
183	0x3dd82abc	0.10555026
184	0x3dd7be36	0.10534327
185	0xbe030d07	-0.12797938
186	0x3e10de4f	0.14147304
187	0x3dfb2b11	0.12264074
188	0xbe08899b	-0.13333742
189	0xbdbed0f9	-0.09317202
190	0xbe8e252f	-0.27762744
191	0x3e0e91eb	0.13922851
192	0xbddad726	-0.106855676
193	0x3e575d0a	0.21031585
194	0x3e008a9b	0.12552874
195	0x3e94888d	0.2901043
196	0x3eb7a006	0.35864276
197	0xbde7c98d	-0.1131774
198	0xbe1211cd	-0.14264603
199	0x3e347b0f	0.17625068
200	0x3e60ca27	0.21952115
201	0x3e869e78	0.26292777
202	0xbe675e67	-0.22594605
203	0xbde3a323	-0.111151
204	0xbe5e331c	-0.21699184
205	0xbe6c2417	-0.23060642
206	0xbe09932f	-0.13435052
207	0xbe29f9e7	-0.16599236
208	0x3e02fcc1	0.1279173
209	0xbe00e955	-0.12589009
210	0xbe90868d	-0.28227654
211	0x3e6a196a	0.22861257
212	0x3e892efc	0.2679366
213	0x3ef49d15	0.47776094
214	0xbdef2ae3	-0.11678102
215	0x3e4befb2	0.19915655
216	0xbe07dd01	-0.132679
217	0x3e2a4869	0.16629185
218	0x3e01df16	0.12682757
219	0x3e04d14d	0.12970467
220	0xbe8988b6	-0.26862115
221	0xbdd43ef2	-0.10363568
222	0xbd48bcac	-0.049008057
223	0xbdd9cc68	-0.106346905
224	0xbe2e59f5	-0.17026503
225	0xbdfa33e7	-0.12216931
226	0x3e1730a8	0.14764655
227	0xbe34a4f3	-0.17641048
228	0x3e52738b	0.20551889
229	0xbe4568d1	-0.19278266
230	0xbdd84d71	-0.10561646
231	0xbea2c7e2	-0.31793123
232	0xbe99e4f9	-0.30057505
233	0x3ec37392	0.3817411
234	0x3ed18571	0.4092212
235	0xbe8af08e	-0.27136654
236	0xbe510501	-0.20412065
237	0x3e6bcce3	0.23027377
238	0x3df8def4	0.121519
239	0x3e90477a	0.28179532
240	0xbe6f7cc2	-0.23387435
241	0xbe711b42	-0.23545554
242	0x3edde965	0.43342128
243	0x3e81d06a	0.2535432
244	0x3e1a7e02	0.1508713
245	0x3dddf136	0.10837023
246	0x3ea468fd	0.3211135
247	0x3f1f07cb	0.62121266
248	0xbeac4f64	-0.3365432
249	0x3e0c0cb1	0.13676716
250	0x3e86de2d	0.26341382
251	0x3e661db3	0.22472267
252	0x3e9f1acd	0.31075135
253	0x3e14d577	0.14534555
254	0x3d5bc631	0.053655807
255	0x3e038675	0.1284426
