models/DDPG_critic.pth (torch, 171056 bytes, 7 tensors)

fc1.0.weight f4 [64, 4]
000000 7a c3 35 3d 6b ec 7b 3e d3 17 5c 3d 40 aa 10 be
       0.044375874 0.24601905 0.053733658 -0.14127445
000010 4e 61 97 3e e5 35 28 bf cb b7 e1 3d db 89 c1 be
       0.29566425 -0.65707237 0.11021384 -0.37800488
000020 61 4c 51 3e 2d 8a ff be 3f c0 c6 3e c9 48 20 be
       0.20439292 -0.49910107 0.38818547 -0.15652765
000030 f7 71 10 bf ca c1 84 be f9 09 77 3c a0 29 a6 be
       -0.56423897 -0.259291 0.015078061 -0.32453632
000040 91 21 3f 3f 78 02 09 3f 0e 3e c4 3e 38 8a a5 3e
       0.74660593 0.5351939 0.38328594 0.32332015
000050 b1 bb eb 3e 53 7c 59 3e ac 6e d4 be b0 31 01 3f
       0.46041635 0.21238832 -0.41490686 0.5046644
000060 27 2d 1c 3f f7 f3 f2 bd 1b 09 8c 3e 52 b5 d3 bc
       0.61006397 -0.11862939 0.27350697 -0.025843296
000070 7c 64 b4 3d c7 a8 1a bf 15 16 01 bf 72 a1 81 bd
       0.088082284 -0.60413784 -0.5042432 -0.063296214
000080 1b 69 dc 3e bd 00 d9 3b a9 69 8f be 7e 77 55 3c
       0.4304894 0.0066224025 -0.280103 0.013028977
000090 89 51 02 bf 84 0c 53 3e 87 8f d4 be 24 5e 6e 3e
       -0.5090566 0.20610243 -0.41515753 0.232781
0000a0 ef 02 8c be 1a 9e b9 3e 1b 18 9c 3e b4 3f e0 3e
       -0.27345988 0.36253434 0.3048714 0.43798602
0000b0 90 b3 18 3e 08 ed be be d2 b6 42 be a7 c0 64 bd
       0.14912248 -0.37290215 -0.19015053 -0.05584779
0000c0 6b c4 e4 3d 4f fc 7b 3e b7 33 c6 3e 5b ee cd be
       0.11170276 0.24607967 0.3871133 -0.40220913
0000d0 17 24 aa bd 3a 26 f3 bd 83 e5 1c bf 95 6d 5e be
       -0.08307665 -0.118725255 -0.6128771 -0.2172149
0000e0 98 14 00 be 65 ec 9e 3e cd fc 68 be 51 ef 32 3e
       -0.12507856 0.3103973 -0.22752686 0.17474104
0000f0 e3 59 b9 3d 1d f2 26 3f f8 88 0f 3f 08 c4 92 3e
       0.09050348 0.65213186 0.5606837 0.28665185
000100 76 a2 46 3d 89 bf da 3e 74 1d c1 bd 17 ce 03 bf
       0.04849478 0.42724255 -0.09429446 -0.51486343
000110 af d2 76 3e 14 d7 92 3d 9c d7 ed be 29 de fa be
       0.24103807 0.07169929 -0.4645356 -0.4899762
000120 3a 3c 1d bf 23 af 8c bc 5e 0e 97 be 11 69 4b 3c
       -0.61420023 -0.017173355 -0.2950315 0.0124151865
000130 3d 48 78 3e 65 36 1a bf a7 32 0b 3f bf e7 91 3e
       0.24246307 -0.6023925 0.54374164 0.2849712
000140 18 7b 7d be f2 0e 65 3c fe 4a 67 be f7 73 73 be
       -0.24753988 0.013980614 -0.22587201 -0.23774706
000150 cb 2f 18 bf 2b f8 f7 bd ed 4b 0a 3e 71 99 a6 bd
       -0.59447926 -0.12107881 0.13505526 -0.081347354
000160 60 fc 02 bf 0f a2 3e 3e 19 9f 48 3d e9 eb 0a 3e
       -0.51166344 0.18616508 0.048979852 0.13566555
000170 78 a9 83 bc 47 05 9e 3e 39 c8 60 3e 6e e0 f4 bd
       -0.01607202 0.308634 0.21951379 -0.11956869
000180 5e 08 3c be 8c 48 14 bf 26 ed 38 3e 72 86 5b be
       -0.18362567 -0.579232 0.18059215 -0.21438006
000190 f8 7b 13 3f 16 f5 b1 3e 98 4d b5 3e 57 87 f8 bd
       0.57611036 0.34757298 0.35410762 -0.12135189
0001a0 54 66 04 bf 3a f2 43 be 22 be 18 be 7e d3 bc bd
       -0.5171864 -0.19135371 -0.1491628 -0.092200264
0001b0 99 89 e7 3e 85 9b e3 be 3b e3 e9 3e 86 4f 92 be
       0.45222166 -0.4445459 0.45681176 -0.28576297
0001c0 38 24 13 3e 35 e7 cd 3e bc 18 92 be 6b eb e7 bd
       0.14369285 0.4021546 -0.28534496 -0.11324199
0001d0 e2 df d4 be 8b aa c2 3e ee 19 99 3d 2b ff 1c 3b
       -0.4157706 0.3802074 0.07475649 0.0023955803
0001e0 46 85 e3 be 97 66 53 be 84 56 be 3e 6a ad 5e 3e
       -0.44437617 -0.20644604 0.3717538 0.2174584
0001f0 e4 bb bc be 62 1d 1a bf 2d b1 df be c3 90 8b be
       -0.368621 -0.60201085 -0.43689862 -0.27258882
000200 64 31 b7 3e 90 35 4a bf 51 b6 ad 3d e4 cd e6 be
       0.3577987 -0.7898798 0.0848204 -0.45078957
000210 47 93 9b 3d 25 69 98 3e b9 fe c3 3e ba 02 3c 3e
       0.0759645 0.2976772 0.38280275 0.18360415
000220 a6 81 88 bd 03 14 18 3f db ad 62 bd 67 8b a1 be
       -0.066653535 0.59405535 -0.055341583 -0.31551668
000230 26 d4 0d be 41 a1 0a 3e 04 cc 72 3e 71 05 83 be
       -0.1385046 0.13538076 0.23710638 -0.2559009
000240 2f 9b 22 3f dd 34 0c bf 6f 2b 51 be 0d ff db 3c
       0.6351804 -0.5476816 -0.20426725 0.026855016
000250 c8 b4 ba be 2d 3c 3a 3f c5 e4 9e 3e 59 44 33 be
       -0.3646605 0.7274807 0.31033912 -0.17506541
000260 c6 d5 d9 3e 68 e5 1b bf b0 da 96 3d ba 44 ae bd
       0.4254591 -0.6089692 0.0736593 -0.08509202
000270 6f 91 f3 be cf ac b1 be ae 21 b8 3e 23 f5 7e 3e
       -0.47571895 -0.34702155 0.35963196 0.248982
000280 ed 94 e4 be 75 2c bf 3e 2d 90 53 be c5 37 54 3d
       -0.4464487 0.37338606 -0.20660467 0.051811
000290 85 da e3 be d8 7e 9d be 32 24 9a 3d fa bc a8 be
       -0.44502655 -0.30760837 0.07526435 -0.32956678
0002a0 7e 91 cc bd 56 28 84 bf 11 96 4b bd d7 31 1e 3e
       -0.09988688 -1.032481 -0.04970366 0.154487
0002b0 68 f2 8a 3e 05 8d 1a bf 7d 21 a7 3c 00 00 bf 3d
       0.27138066 -0.6037143 0.02040171 0.09326172
0002c0 c7 42 98 3e ac 5c 3b bf 40 cb 0f 3f c3 af d5 3d
       0.29738447 -0.7318828 0.5616951 0.104339145
0002d0 51 a9 58 3e f0 d7 20 3e 50 ed da be a5 1f 09 3f
       0.21158339 0.15707374 -0.4275918 0.5356391
0002e0 8e 1e b5 be d9 26 90 3e 36 77 07 be db 1a b7 3e
       -0.35374874 0.28154638 -0.13229069 0.35762677
0002f0 ec ef 63 3e 8e 5c 63 bf bd 37 a8 be 2e d9 b5 3d
       0.22259492 -0.888131 -0.32855025 0.08879314
000300 22 cf d3 3e 00 b3 27 3f f3 b7 36 be 2f 68 47 3c
       0.41368967 0.6550751 -0.17843609 0.012170835
000310 30 dc 27 bf f9 74 ce bc 1e 58 d3 3d 84 e0 12 bc
       -0.65570354 -0.025202261 0.103195414 -0.0089646615
000320 be f2 cc 3e f7 df 84 3e 35 70 7d bd f5 0f 92 3e
       0.40028948 0.25952122 -0.061874587 0.285278
000330 d3 79 3c 3d c5 c2 92 3e 36 64 b5 be c0 46 e7 3e
       0.046014618 0.28664222 -0.35428017 0.45171165
000340 42 a3 00 bf 27 eb f1 3d 96 29 88 bc 68 fb e3 3e
       -0.5024911 0.1181243 -0.016621392 0.44527745
000350 46 8b 9c be 38 9b a5 be 8c e3 83 be 64 3a 36 3e
       -0.30575007 -0.32344985 -0.25759542 0.17795712
000360 2b 3e 38 3f 29 ea 75 be e9 05 92 3e fc 79 03 bf
       0.7196986 -0.24015106 0.28520134 -0.5135801
000370 8e af 33 be 56 01 f4 3d 13 88 90 be c8 68 ce be
       -0.17547438 0.11914317 -0.28228816 -0.40314317
000380 3b 9b d7 be c4 43 ed 3e e2 ba d6 be 28 2b 76 3e
       -0.4211062 0.46340764 -0.41939455 0.240399
000390 39 59 f4 be 9b 76 c0 be 72 9c bb bb 5d 71 8b 3e
       -0.4772432 -0.3759049 -0.005725437 0.27234927
0003a0 ee 83 34 3c 1a dc 2c 3f cb e2 9c 3e f8 15 f5 3d
       0.011017783 0.6752335 0.3064178 0.11967081
0003b0 d2 98 4b be f8 5f db bd f5 1c ae bd 30 74 a1 3d
       -0.19882515 -0.10711664 -0.08501617 0.07883489
0003c0 83 ba 81 be e1 b3 07 3d 2e b9 b4 3e 51 fa ce be
       -0.2533761 0.03313053 0.3529753 -0.4042535
0003d0 da 99 d9 be ee a5 69 3e f2 f8 be be 01 9e 2b 3e
       -0.42500192 0.22817203 -0.37299305 0.16759492
0003e0 a2 96 18 3f c2 af df be e5 59 cd be 3d aa af 3e
       0.5960485 -0.4368878 -0.40107647 0.3430957
0003f0 3d 33 14 bf 63 fb e2 bd d8 d9 c6 3e a2 55 3e be
       -0.57890683 -0.110831045 0.38838077 -0.18587354

fc1.0.bias f4 [64]
000000 cd 46 13 3f da dd 05 3f f6 40 a5 be 67 a7 ea 3d
       0.5752991 0.52291644 -0.32276124 0.11457711
000010 5e 82 91 be 4b e8 80 bb 3f 22 a9 be ad e3 15 be
       -0.28419775 -0.0039339415 -0.3303394 -0.14637633
000020 4b ec 0b bc 73 a9 e0 3e 33 1e 0c 3e fb 0e ed be
       -0.008540223 0.4387928 0.13683395 -0.46300492
000030 4b 1c 5b be d1 09 dd be b4 22 ec 3e 65 26 ee 3e
       -0.21397512 -0.43171552 0.46120226 0.46513668
000040 ce 06 65 bd e8 ba c5 be e0 e5 da 3e 8e 4c 9e 3e
       -0.055914693 -0.3861916 0.42753506 0.30917782
000050 41 1c f3 3c 69 4b 62 be 76 a3 b8 3e 88 66 1d be
       0.029676558 -0.22099079 0.3606221 -0.15371144
000060 0d e8 95 3e 1d b8 f7 bd ca 8b 4d 3d c5 57 c8 be
       0.29278603 -0.12095664 0.05018214 -0.39129463
000070 0c 69 8a bd 0b b0 e4 3d 7b 50 d7 be e7 10 f6 3e
       -0.06758317 0.1116639 -0.4205359 0.4805977
000080 1d 76 9b 3d 32 89 68 3e bd 35 1a 3f d5 1a a4 3e
       0.07590888 0.22708586 0.6023825 0.3205172
000090 6a 0c 61 be 73 fa ac be 26 26 07 3f a5 49 94 3e
       -0.21977392 -0.33784828 0.52792585 0.28962436
0000a0 f5 a8 33 3d 91 82 ec 3d 64 11 43 3e fc fd d0 3e
       0.0438623 0.11548341 0.19049603 0.40818775
0000b0 ad 84 9b be 40 d0 8c be 71 36 4c 3c 22 6a 34 3d
       -0.3037466 -0.27502632 0.012464152 0.04404653
0000c0 f9 fc ca 3e 7a 4e 34 bd f7 5a bb bd a7 42 11 3f
       0.39646128 -0.044020154 -0.091482095 0.5674233
0000d0 ac ef 99 be 1a c7 a9 3e c8 a1 b1 be 2a 1e 3b be
       -0.30065668 0.33159715 -0.34693742 -0.18273225
0000e0 de 21 d4 3e aa 38 33 3e 61 97 e8 3e 44 c0 d0 3e
       0.4143209 0.17502084 0.45427993 0.40771687
0000f0 0e 0a 03 3e d9 c2 80 be 45 c2 6f 3e b5 9c 5a be
       0.12796804 -0.25148657 0.23413952 -0.21348841

fc1.2.weight f4 [128, 64]
000000 31 ac d2 3d e9 26 ec bd bd f0 09 3d 50 e6 ea 3c
       0.10286749 -0.11530859 0.03367685 0.028674275
000010 a1 ee 41 3e fc 2f b4 3d 90 a5 8b 3d c7 ad a5 3d
       0.18938686 0.08798215 0.06818688 0.08089786
000020 76 1f e0 bc 64 7c d8 3d 72 2e 26 bd ba 65 02 3e
       -0.027358752 0.10570601 -0.040571637 0.12734118
000030 66 1e 3f bc 00 2c 73 3d 15 d6 a9 3b a6 fb 0f 3e
       -0.011664962 0.059368134 0.0051829913 0.1406084
000040 4d b4 31 bd e9 87 27 bd dd 79 d6 3d a7 bb f0 bd
       -0.04338484 -0.0409011 0.10472462 -0.11754542
000050 d2 51 90 3d 7e 6f 2f 3d d7 f0 19 3c af b4 75 bd
       0.07046856 0.042830937 0.0093958 -0.059986766
000060 49 e0 92 bd f3 42 31 3e 27 82 0b 3e 63 6f 14 be
       -0.07171685 0.17310695 0.13623868 -0.14495616
000070 92 d0 df 3d 6a a9 3e 3e f3 4a c3 3c 57 9e ca bd
       0.109284535 0.18619314 0.02383945 -0.09893482
000080 7c 61 1f 3d ab 48 80 3d 22 48 03 3e af 9d c5 3a
       0.038911328 0.0626386 0.12820485 0.0015076901
000090 96 d1 5b 3e 34 3b 10 3e 1a 9c 1d be 33 8c f7 bd
       0.2146667 0.14085084 -0.1539158 -0.12087288
0000a0 64 01 c5 3d 8a 80 73 bd 7e b5 b9 bd ee bc 21 3d
       0.09619406 -0.059448756 -0.0906782 0.039486818
0000b0 3a d8 58 bc 5f 30 5d bd 69 4e 70 bc 23 21 db bd
       -0.013235146 -0.05400121 -0.014667132 -0.1069968
0000c0 c2 be cb bd 89 c3 21 3c d6 75 f0 3d 3b 74 33 bd
       -0.099484935 0.009873279 0.117412254 -0.043812018
0000d0 eb 4e 86 bd be aa 89 bd 28 64 91 3d 2e d0 27 bc
       -0.06558021 -0.067220196 0.070991814 -0.010242505
0000e0 a2 12 bb 3d a7 c1 21 3d 86 18 89 3d aa 32 80 bd
       0.09134413 0.039491322 0.066941306 -0.062596634
0000f0 e6 9d 8b 3d 53 4c 9b 3d d8 2e 09 be 4a bd b0 bd
       0.06817226 0.07582917 -0.13396776 -0.08629854
000100 0f af 0a bd e8 c0 31 3d e6 d4 a9 3c 9d b7 9a bd
       -0.033858355 0.04339686 0.0207314 -0.07554553
000110 ad ee 43 be bc b8 c7 bd 74 05 1f be ff 7a 61 bd
       -0.19134016 -0.09752032 -0.15529424 -0.05504894
000120 cf be b3 3d aa 43 2e 3d 25 c0 bc bd 19 d5 47 3e
       0.08776628 0.042545 -0.09216336 0.19514884
000130 ed 2e e7 bd 92 bf 1d 3c 6c c8 b6 bd ad 87 4a bd
       -0.11288247 0.009628193 -0.08924946 -0.049445797
000140 dc 60 18 be 5a a4 d9 3c 91 94 de bb 73 14 f8 3d
       -0.14880699 0.026567627 -0.006792613 0.121132754
000150 6b 6b b3 bd 47 0c 4b 3c 46 71 6f 3b a9 7b d3 3d
       -0.08760723 0.012393064 0.0036536022 0.10326321
000160 65 f9 67 3e 3c 3c 9c bd 37 12 11 3e b5 73 d8 3d
       0.2265373 -0.07628676 0.14167105 0.10568944
000170 3d a5 f2 bd f6 d5 e8 3d 24 4d da 3d 15 fb 27 3e
       -0.11847923 0.11368935 0.10659245 0.16404374
000180 ad 84 2f 3e a2 1e 39 bd c8 44 b7 bd a3 31 10 bd
       0.17140456 -0.04519523 -0.08948666 -0.035203587
000190 2b bf 55 bd c9 b6 90 3c 6e b6 42 3e 4a 2d 08 bd
       -0.052184265 0.017665284 0.19014904 -0.033246316
0001a0 5a 77 da bd 84 49 76 3d 91 53 f9 3c 8a 28 e6 3d
       -0.10667296 0.060128704 0.030435355 0.11238201
0001b0 28 7a 9d 3d 64 0b e1 bd 91 64 10 bd 5a 1f 9b 3c
       0.07689315 -0.10988501 -0.035252158 0.018935848
0001c0 80 38 20 be 98 d0 3c 3e 55 e5 58 bd fb 1a 5c 3d
       -0.15646553 0.18438947 -0.052953083 0.053736668
0001d0 85 0c d0 3b e5 bd 92 3d ed 98 2b ba 8b ec fd bc
       0.0063491487 0.07165126 -0.000654592 -0.030996582
0001e0 17 c2 a5 3d bb 46 1c 3e db fc 96 bc 88 d1 83 3d
       0.0809366 0.15261357 -0.018431118 0.06436449
0001f0 89 35 3e 3d 76 72 2c 3c 95 c5 04 3e 8e bd 7f bd
       0.046437774 0.0105253365 0.12965997 -0.062436633
000200 e5 d8 11 3e f6 ad df 3d 2e 11 86 bd 6b a7 f3 bd
       0.14242895 0.10921852 -0.065462455 -0.11897167
000210 8a 1e 87 3d 42 a0 99 3d 1d e1 d4 3d be 6d e5 3d
       0.06597622 0.0750127 0.103944995 0.11202572
000220 90 a0 96 3d 15 f5 fb 39 e3 d5 6c 3d e0 75 8c 3c
       0.073548436 0.0004805705 0.057821166 0.01714605
000230 35 31 4e bd 12 f5 3f 3d 87 4c 09 3e 2a 21 cc 3c
       -0.050339896 0.046864577 0.13408099 0.024918158
000240 3b cc ff bd 84 a2 0b be 19 96 42 bd 6b f8 01 3e
       -0.12490126 -0.13636214 -0.047506426 0.1269242
000250 35 1a 02 3e 2e 2a ec bd d6 c5 1b 3d 3b 8d 5e bd
       0.1270531 -0.11531483 0.038030468 -0.054333907
000260 0d c9 9b bc eb 66 82 bb a6 73 f6 3d 0f bf 8d bd
       -0.019016767 -0.003979554 0.12033777 -0.06921207
000270 31 1c 12 bd f3 8b ad 3d d1 30 ec bd cc a1 22 bd
       -0.035671417 0.08473959 -0.115327485 -0.039705083
000280 1e d2 1d 3d ea fc fc 3d 99 55 22 3e 27 b1 67 3d
       0.03853046 0.12352927 0.15852965 0.05656543
000290 fd 99 08 bc 40 7a 6d 3b 15 80 14 bd 49 3f 51 3c
       -0.008337495 0.0036236197 -0.03625496 0.012771436
0002a0 e3 c7 20 3c d7 95 d3 3d 3d 59 3b bd 30 45 83 bb
       0.009813282 0.10331314 -0.0457394 -0.0040060505
0002b0 70 2e 64 3d c8 81 ab 3c ba d0 80 3d dc 87 cc 3d
       0.05570835 0.020935908 0.062898114 0.099868506
0002c0 2a 4d eb bd 64 e6 09 be 5e 37 22 bd b2 4c 58 bd
       -0.11489327 -0.13466793 -0.039603584 -0.052807517
0002d0 a9 eb 09 be 1f 90 44 3d fc 7b 01 3e e8 c0 c2 bc
       -0.13468803 0.047989007 0.12644953 -0.023773625
0002e0 ba b6 45 3c 06 26 a4 bd 4e e9 f2 bc 1d 80 22 3e
       0.012067491 -0.08015065 -0.029652264 0.15869184
0002f0 69 14 b3 3d d4 11 04 bd 8c 7f 93 bd 08 73 2a ba
       0.08744127 -0.032243565 -0.07202062 -0.00065021263
000300 32 9e 2f ba 4c 10 9b bd d1 a7 10 bc f0 04 be 3d
       -0.0006699293 -0.07571468 -0.008829073 0.092782855
000310 5c 7c 12 3d a8 10 7d bd e1 75 00 3d 8a a6 3c bd
       0.03576313 -0.061783463 0.031362418 -0.04605726
000320 c7 be 1b be 61 6a 9f 3d bf e9 25 3e d4 28 0a 3d
       -0.15209495 0.07783962 0.16202448 0.033730343
000330 db e0 3b be 4c e0 e5 3d b5 2c 63 bd 64 cc 58 bb
       -0.18347494 0.11224422 -0.055462558 -0.003308081
000340 96 14 3b be 55 f5 14 bd 00 1c 5d bd eb a8 06 3e
       -0.18269572 -0.03636678 -0.05398178 0.13150375
000350 ae cc a4 3d 5c 64 06 bd b2 58 84 bc be 1b f4 3b
       0.08046852 -0.032810554 -0.016155574 0.007449596
000360 b9 7a 3c bd 57 75 96 bd 28 59 f5 3c 1e 9d 0d 3e
       -0.046015475 -0.073465995 0.02994974 0.13829467
000370 37 cd 01 3e 33 cf 21 be 18 65 ea 3b fb 0f 85 bc
       0.1267594 -0.15801696 0.0071531646 -0.016242972
000380 0d ec a9 be b5 ab 7e bd f8 62 be bd 40 5e df bd
       -0.33187905 -0.06217547 -0.092962205 -0.10906649
000390 be ae ba be d9 70 9b 3d d9 6f b3 bd e1 51 8d 3c
       -0.36461443 0.07589883 -0.087615676 0.017250957
0003a0 09 a0 13 3e 9e a8 fb bc a2 d6 a5 3c db a6 ae 3d
       0.14416517 -0.030720051 0.020243946 0.08527919
0003b0 0d 20 48 bd fb 7f 13 3e 3f 66 36 3e ce 44 f0 bd
       -0.04885869 0.1440429 0.17812441 -0.117318735
0003c0 3a 23 99 3d 12 9c cf 3d 36 a9 22 3c a3 37 8f 3d
       0.07477422 0.1013719 0.009928038 0.06993034
0003d0 4d 21 b0 3d 33 41 fc 3d 0c 20 18 be 92 a2 18 3d
       0.086001016 0.12317123 -0.14855975 0.037264414
0003e0 61 2d 0c 3e 6b ee 46 3d 7c a1 e4 bd d8 28 c1 bd
       0.13689186 0.048567217 -0.11163613 -0.094316185
0003f0 e5 75 ac 3d 5a 37 56 bc e3 d6 86 3d db 33 5d 3d
       0.08420924 -0.01307472 0.06583955 0.05400453

fc1.2.bias f4 [128]
000000 9e 1e ee 3d e2 94 5e 3d 07 ce 1a 3e a0 ad 45 3d
       0.116269335 0.054341204 0.15117656 0.048261285
000010 e3 a5 a9 3c a9 17 c5 3d b6 87 11 bd bd 6b 3b 3d
       0.020708984 0.096236534 -0.035529815 0.045757044
000020 1a 25 08 3e 90 3a 28 3d 9c 08 ef 3d b8 37 88 bc
       0.13295403 0.041071475 0.11671564 -0.016628131
000030 67 40 26 3e 72 f0 a0 3c a0 71 3a 3d 8c bd a7 bc
       0.16235505 0.019645903 0.045518517 -0.020476125
000040 ea 13 ac bc 50 3b b1 3d 7a 96 6c 3b 8c 01 0b 3e
       -0.02100559 0.08653891 0.0036100433 0.13574809
000050 e0 9d f6 bd ec 2e d0 3b bf bd 2c bd 85 bf 06 3d
       -0.12041831 0.00635325 -0.042173143 0.03289749
000060 52 8c d0 3d d7 9e d5 3d af 0d 17 3e 11 32 86 3e
       0.10183014 0.10430687 0.14751314 0.26210073
000070 2a f7 51 bd 8e 9b 5e bd a9 d5 9a 3d d0 51 82 3d
       -0.051261105 -0.054347567 0.07560284 0.06363261
000080 80 a4 32 bd 3f 61 01 3e 25 b0 8b 3d 4c 84 22 3e
       -0.04361391 0.12634753 0.06820706 0.1587078
000090 1f 1b c1 3d 93 86 f6 3c 85 92 6b 3e dc 97 53 3d
       0.09429001 0.030093467 0.23005112 0.051658496
0000a0 71 39 e3 bd ca d3 0b 3d 97 d7 0c 3d e1 0e 0e 3e
       -0.110949405 0.034137525 0.03438529 0.13872863
0000b0 a2 9b d6 3d 6e a2 c4 bd 6d 0a 27 3e 56 fc bb 3d
       0.10478903 -0.096012935 0.16312571 0.09178989
0000c0 fa 81 68 3e f6 39 40 3d 27 c5 83 bd c0 81 26 3e
       0.22705832 0.046930276 -0.06434088 0.16260433
0000d0 c0 21 98 3d 5a 31 0a bc 84 9d 47 bd 0d cb b3 3d
       0.07428312 -0.008434618 -0.048734203 0.08778963
0000e0 8e 12 d3 3d 23 5b 39 bd 85 6d aa 3d de 6b 8b 3d
       0.103062734 -0.04525293 0.083216704 0.068076834
0000f0 89 0c 28 3e 06 3b 5e 3d 4f 14 a5 bd fa 5c 16 be
       0.16411032 0.054255508 -0.08060514 -0.14683905
000100 13 0d 4b 3c b1 23 94 3d ba 34 00 3e 03 82 73 3d
       0.012393254 0.0723337 0.12520114 0.05945016
000110 4a e8 66 bd 56 2d 9b bd 80 5c 19 3d 61 e8 73 3e
       -0.056373872 -0.075770065 0.03744173 0.23819114
000120 53 3b 2d 3e 36 5a b2 3d c0 26 eb 3d f3 3d 0c 3e
       0.16917162 0.087086126 0.11482 0.13695507
000130 0b 80 35 3e 82 db 02 3e 36 e6 13 3e d6 2c 3e 3d
       0.17724626 0.12779048 0.14443287 0.046429478
000140 e0 56 e7 3d e3 11 ee 3b 4b 73 55 bc ae 2a 36 bd
       0.11295867 0.007265316 -0.013027976 -0.044474296
000150 90 2f 8a 3d 06 bc 8d bd 9a 6f d4 bd a7 ff 00 bc
       0.06747353 -0.06920628 -0.10372849 -0.007873452
000160 42 a0 0e 3d f7 35 b3 3c ed 39 46 bd 86 d0 25 3e
       0.034820803 0.021876318 -0.048395086 0.16192827
000170 c3 a3 28 bd 98 6f cb bd a4 32 ec 3d 64 0e e4 bc
       -0.0411718 -0.09933394 0.115330964 -0.027838893
000180 63 2d 51 3e d6 86 9e bc 17 13 77 bd 02 d0 48 3e
       0.2042747 -0.019351404 -0.06032094 0.19610599
000190 95 8d e2 3d d5 73 2a 3d 58 ee b6 3d 22 a1 e2 3d
       0.11062161 0.041614372 0.08932179 0.1106589
0001a0 c8 c0 23 3d 0b 9a 26 3e 5e 80 3f 3d 92 c6 fe 3c
       0.039978772 0.162697 0.04675328 0.031100545
0001b0 36 be af bc eb 3e c7 bb 78 3d db 3d 79 89 1c 3d
       -0.021453004 -0.0060804985 0.107050836 0.03821704
0001c0 e3 7c 29 3d c0 a9 61 bb f0 73 24 3d 07 02 86 3d
       0.041378867 -0.0034433454 0.04014963 0.065433554
0001d0 2d ac 16 3d 08 fd e1 3d b5 00 06 be 2e 5a 0b 3d
       0.036785293 0.1103459 -0.13086207 0.03402155
0001e0 a0 20 25 3c 2b 8b 47 3e c4 09 d1 3d 0f 0e e1 bd
       0.010078579 0.19486682 0.10206941 -0.109890096
0001f0 bb d7 91 3d 84 08 25 3e 58 b3 06 3e 9f 67 19 bd
       0.071212254 0.1611653 0.13154352 -0.037452336

fc1.4.weight f4 [256, 128]
000000 86 fc 36 3d 1c a2 83 3d a8 23 45 3d 01 fe ad bc
       0.04467442 0.06427404 0.048129708 -0.021239283
000010 59 16 cb 3d 29 aa 48 3c 6f c8 4e 3e d6 2a 88 3d
       0.09916372 0.012247601 0.20193647 0.06648795
000020 0d 07 98 bc ad ae 1e bd 97 9e bf bc 2e 6b cb 3d
       -0.01855805 -0.038740803 -0.023391051 0.09932552
000030 01 e6 2b 3d af 7f f1 3d ab d3 ff 3d c4 9b 46 bd
       0.041967396 0.11791932 0.12491544 -0.048488393
000040 52 b4 fc 3c b6 0b 28 3d 2e af 04 3d fe c9 34 bd
       0.030847702 0.041026793 0.032393627 -0.044137947
000050 46 be dd 3e 70 82 a0 3d ad c1 19 3d 0f 6e 81 3d
       0.4330923 0.07837379 0.03753822 0.0631982
000060 54 77 e1 3d 4e 97 e4 3d 3c 4e f8 bc b7 89 18 3e
       0.11009088 0.111616716 -0.030310743 0.14896284
000070 6f fd 78 3d 78 e0 54 3e b7 e2 02 3e 91 8b c8 bd
       0.060788568 0.20788753 0.12781797 -0.09792245
000080 14 cc db 3d 4d 7f 2b bc 58 fe ae 3d 51 39 af bc
       0.10732284 -0.010467363 0.08544606 -0.021389635
000090 db 49 c2 bd 4e 42 48 3e 7a ac bf bc dd d5 4b 3d
       -0.09486743 0.19556543 -0.023397673 0.049764503
0000a0 33 0c 8d 3e a8 23 d7 3c bb 2f a7 bc b2 25 61 3d
       0.2754837 0.02626212 -0.020408502 0.05496759
0000b0 35 29 03 3e 55 dd 14 3e 35 11 1b 3d 0f 84 08 3e
       0.12808688 0.14537556 0.037858207 0.13331626
0000c0 19 dc bf 3d 46 03 fc 3d ee bb 4a 3e 1d cc c3 3c
       0.09368152 0.12305312 0.19798252 0.02390104
0000d0 13 a2 37 3d d6 bf 9b 3d 7f 3d f0 3e b3 f2 32 3d
       0.0448323 0.07604949 0.46921918 0.043688487
0000e0 eb 4b 16 3e 94 09 45 3e 10 4e cd 3d 26 ec 4e 3d
       0.14677398 0.19241935 0.10024655 0.050518177
0000f0 7e d0 ed bc 31 20 d4 bc 67 80 10 3e 29 5e ec 3d
       -0.02903008 -0.025894256 0.14111482 0.11541397
000100 2c 00 d4 3d 04 06 8d 3d 69 61 6f 3d 9a 31 f5 3d
       0.10351595 0.06885913 0.058442507 0.11972351
000110 3e 53 fa bd ae 5f 03 3f 17 2e 93 3d 78 09 1a bd
       -0.122229084 0.5131787 0.07186525 -0.037606686
000120 6d ae fd 3d 89 13 a9 3b f4 d5 60 3e 65 69 51 3d
       0.12386785 0.0051597995 0.21956617 0.051125903
000130 62 88 cf 3d 73 b3 25 3e a7 04 5a 3c f0 da ad 3d
       0.10133435 0.16181736 0.013306773 0.08489025
000140 29 00 89 bb 0c c5 7d bd 28 4c e3 bb c8 6d 5e be
       -0.0041809273 -0.061955497 -0.0069365688 -0.21721566
000150 b2 94 bf 3d 53 09 70 3c ab 1c 43 3d db 2e 3a be
       0.09354533 0.014650661 0.04763476 -0.18181936
000160 7a 5e 0f 3e 22 68 c8 bd 8b e9 9e bb d9 43 c4 3d
       0.14000884 -0.09785487 -0.004849618 0.095832534
000170 5f ff a6 3d d5 d1 61 3e e7 47 54 3d 16 f6 97 3d
       0.08154177 0.22052701 0.051826384 0.07419984
000180 dd b4 17 3e 8a b8 29 bd 9e e7 ed bd a9 5d 84 3d
       0.14815088 -0.041435756 -0.11616443 0.06463177
000190 b9 3f af bd 49 13 7e 3e 61 57 b3 3d 76 70 37 3d
       -0.08557076 0.24812044 0.087569006 0.044784985
0001a0 f1 c0 02 3e e2 7e 1c bc f5 49 8a bc 0c 88 92 bb
       0.12768914 -0.009551736 -0.016880969 -0.0044717845
0001b0 e9 b8 09 3d 3c c7 dd bc 15 32 ec 3c 79 b8 b5 3d
       0.03362361 -0.027072541 0.028832475 0.08873076
0001c0 14 82 00 3e 97 68 b0 3d 64 f9 21 3e 17 2b 9a 3d
       0.12549621 0.08613699 0.15817791 0.0752775
0001d0 51 6d e8 3c bd 72 aa 3d 85 58 fa 3e 67 1b 0b bc
       0.028372439 0.08322666 0.4889566 -0.00849042
0001e0 cc 3a 63 3e fd 2f 82 3c 8f 49 94 3c 40 bf 09 3f
       0.22190398 0.015892023 0.018101482 0.5380745
0001f0 aa d7 5c 3e fa a4 9d 3d 6c 0d 31 3e 01 db 0c be
       0.21566644 0.076974824 0.17290276 -0.13755418
000200 b5 cb ea bd dd 62 09 be 0e 68 60 3c 88 61 d0 bb
       -0.11464635 -0.1341662 0.013696684 -0.006359283
000210 28 09 e9 bd 96 25 a9 bc 32 cb 84 be 5a 59 30 be
       -0.113786995 -0.020647805 -0.25936276 -0.17221585
000220 b3 e5 84 bd b8 95 cc 3d f3 5f 1a 3d 9d 32 f4 bc
       -0.06489124 0.09989494 0.03768916 -0.02980929
000230 07 f4 1c bd 5f ce 4f bd eb 96 b4 3b 03 e6 90 3d
       -0.03831866 -0.05073392 0.005511155 0.07075121
000240 ed eb 1a bd 93 79 15 bd e0 4f ec 3c de 5a 72 3e
       -0.037822653 -0.036492895 0.028846681 0.23667476
000250 85 ff 98 be 9b f5 45 bd 38 fd cf bd 42 e3 03 be
       -0.29882446 -0.04832993 -0.101557195 -0.1287966
000260 b8 e7 d0 3c 0a 7f 9e 3c 9a 8c af 3d 2c d5 a9 3d
       0.025501117 0.019347686 0.085717395 0.082926124
000270 14 f3 3b bd 28 36 66 be 80 84 09 3d 3e 94 29 3e
       -0.045886114 -0.22481596 0.033573627 0.16560456
000280 b5 ea 4e bb e9 34 20 3d 7f f4 d9 3b c8 ed ce 3d
       -0.0031573002 0.03911296 0.0066514607 0.10103947
000290 ae 2e 40 3e 67 3b f3 bd e8 32 1b 3e 09 a4 75 3d
       0.18767807 -0.118765645 0.15156138 0.05997089
0002a0 88 16 9b be 0d 1f bb 3c 35 bc 0f 3d a0 50 f1 bc
       -0.30290627 0.022841955 0.035091598 -0.02945739
0002b0 b8 59 d8 ba 84 a6 23 bd f9 1d eb 3d e3 96 88 bd
       -0.001650623 -0.039953724 0.11480326 -0.06669404
0002c0 cc ad 8c ba 88 63 78 be 28 24 78 be 27 40 d6 ba
       -0.0010732948 -0.24256718 -0.24232543 -0.0016346023
0002d0 65 50 0a 3d a4 4a ae bc 9d 5c 92 be e5 e4 57 ba
       0.033768076 -0.021275826 -0.28586283 -0.0008235707
0002e0 15 9e 0c bd 1c 23 81 be 16 7f 07 bd e0 7a c0 3b
       -0.034330446 -0.252221 -0.033080183 0.005874023
0002f0 3a 80 29 bc 63 99 cb bc c9 d8 ad bd c0 bd 2e be
       -0.010345513 -0.024853414 -0.08488614 -0.17064571
000300 4f 50 92 3d 84 33 14 bc b4 58 b4 bd 0e c8 b4 bd
       0.07144224 -0.009045485 -0.08805981 -0.0882722
000310 79 4f 2d 3e 7c 85 a6 be 5a 42 5a 3d 02 11 15 3e
       0.16924848 -0.32523715 0.053285934 0.14557269
000320 2d 7c 7d bc fe 1b a2 bc 9b 5d a5 be e7 7b c1 3c
       -0.0154715 -0.019788738 -0.32297978 0.023618652
000330 cc 3c 9c bd 22 43 74 bd 05 d3 f0 3c 6d fd 20 3d
       -0.076287836 -0.059634335 0.029397497 0.039304186
000340 5a 19 05 be 3d 21 b1 3c c6 ec 2b 3e 37 5a 6c 3e
       -0.12997952 0.021622295 0.1678954 0.23081289
000350 8a c0 17 be 60 5c 92 3d 02 7c 43 be 89 c6 73 3c
       -0.14819542 0.071465254 -0.19090274 0.014878877
000360 b6 64 e5 3d 43 4d 41 3e 26 f3 60 bd 85 50 ad 3d
       0.1120085 0.1887713 -0.054919384 0.084626235
000370 fa cf c7 bd ad 4b df bd 3b be 23 bd 3b 6f ed bc
       -0.09756465 -0.10903106 -0.03997634 -0.028983703
000380 66 43 67 3c f3 36 c4 3b 5e 6c f7 3d bb 00 93 3c
       0.01411519 0.005987996 0.12081216 0.017944684
000390 98 4a 3a bd c3 0a f3 bd bd 35 d5 bd e0 75 30 bd
       -0.045481294 -0.11867287 -0.104106404 -0.043081164
0003a0 ea 91 c7 3d b6 31 b4 bc 18 81 5e bd d7 b9 85 bc
       0.09744628 -0.02199636 -0.054322332 -0.016323967
0003b0 cb 96 81 bc 42 01 85 3e 96 b1 25 be 27 d0 14 3d
       -0.015818974 0.25977522 -0.16181025 0.036331322
0003c0 88 64 31 bd 6a 72 43 3c 46 03 8c bd a5 1f a8 bb
       -0.043308765 0.011929134 -0.06836562 -0.0051307254
0003d0 c7 7d 30 3d 49 0f 14 3d ca a2 9a be 03 86 c4 bd
       0.0430887 0.03614739 -0.30202323 -0.09595873
0003e0 20 84 b9 be 38 08 75 bd ed 26 23 bd cc a3 ee be
       -0.36233616 -0.05982229 -0.039832044 -0.46609342
0003f0 43 07 50 be 05 fb 34 bd 54 4d 57 be e0 1e dd 3d
       -0.2031527 -0.044184703 -0.21025592 0.107969046

fc1.4.bias f4 [256]
000000 a4 5e 99 3c 00 ab 05 3d 74 29 5c bd 17 15 ce 3d
       0.018721886 0.03263378 -0.05375047 0.10062616
000010 0f 2a e5 bc 4a 86 49 3c ca 61 15 bb a8 85 a6 3c
       -0.027974157 0.012300083 -0.0022793883 0.020327404
000020 fd 6b 6d 3b 7e 1f 0d 3e e1 dc f0 3c 43 31 06 3e
       0.0036227696 0.13781545 0.029402198 0.1310473
000030 aa 1f 8c bc 4e df 00 3d bf 7f e7 3d 07 83 9b 3d
       -0.017104942 0.03146296 0.113036625 0.07593351
000040 9f 26 e7 3d 0d c7 f5 3d 7c 91 98 3d f4 a7 10 3e
       0.11286663 0.120008565 0.07449624 0.14126569
000050 f8 07 66 3d c6 7a 6b bc 79 e0 26 bc 10 aa 06 3d
       0.056159943 -0.014372533 -0.010185354 0.032877028
000060 a3 cf b1 bc ff b2 47 bd dd 35 b2 3d 86 f7 b1 3c
       -0.021705454 -0.04875469 0.0870168 0.021724474
000070 7f 02 b9 3d 52 55 98 bd dd 79 48 3c 56 2a f7 bc
       0.09033679 -0.074381486 0.012236086 -0.030171555
000080 5d a7 37 3d 14 5a 8f bd b3 31 3e bd ae 37 c4 bc
       0.044837344 -0.06999603 -0.046434116 -0.023952331
000090 63 28 1a b9 85 99 a7 3c be 3b ec 3c 45 9e 85 ba
       -0.0001470163 0.020458946 0.028837081 -0.0010194263
0000a0 10 a1 ab 3d df 1d c9 bc 32 83 27 3e 8a c8 f4 bb
       0.083803296 -0.024550376 0.16358641 -0.007470195
0000b0 7a 43 94 3d 9e c9 2c 3d 3d a7 80 bd 25 6b 99 3d
       0.07239433 0.042184465 -0.06281898 0.07491139
0000c0 66 3e c1 bc 1d 03 d2 3d 91 be cd 3c 7f c3 ab 3b
       -0.023589324 0.102545 0.025115283 0.005241811
0000d0 a6 7a 89 bd 86 61 98 3b c6 ce 2c 3d 3c db 88 bd
       -0.067128465 0.0046502976 0.042189382 -0.06682441
0000e0 92 6d 0b 3d c2 21 54 3d a6 17 81 bd db 3e c1 3d
       0.03404004 0.051790006 -0.06303339 0.09435817
0000f0 30 3b f3 3c 06 da 49 3d 6c c6 c1 3d 85 04 1e 3d
       0.029691309 0.04928019 0.09461674 0.03857853
000100 eb df d8 3d 26 d3 ce bc 61 3b 05 3d ba 1b 66 3d
       0.10589584 -0.025247168 0.03252733 0.056178786
000110 34 e6 01 3e f7 9a 09 3e ea 59 a9 3d 57 da 2f 3e
       0.12685472 0.1343802 0.08269103 0.17173134
000120 eb d5 bd bb 45 96 0d 3e 91 14 1b ba 53 be 8a bd
       -0.0057933233 0.13826855 -0.00059158454 -0.06774583
000130 43 7f b3 3b 71 6e 67 3d ad e7 ac 3d 1c ec e6 3d
       0.0054778173 0.05650181 0.08442626 0.11275503
000140 3d 82 76 3d fd 30 3b 3d 9e 79 9d 3d 19 75 c3 3d
       0.0601828 0.045701016 0.07689212 0.09543819
000150 98 30 bf 3b ca de fa 3c 5d 07 71 3d a4 73 73 bc
       0.0058346502 0.030623812 0.058844913 -0.014859114
000160 90 95 04 3e fa d6 22 bc 8b cb 63 3d 42 ee b8 3d
       0.12947679 -0.00993895 0.055614036 0.09029819
000170 05 5a d6 3d f9 ea cf bd 08 b6 28 bb 47 5d 96 3d
       0.104663886 -0.10152239 -0.0025743265 0.0734201
000180 eb f6 1c bb 48 32 27 3d d2 f5 0c 3a fe ce 18 3d
       -0.0023950886 0.040819436 0.0005377206 0.037306778
000190 bf 1d 43 bd 7e 3c 8e 3d 96 fc 82 3d 74 54 bb 39
       -0.04763579 0.06945132 0.06395833 0.00035730342
0001a0 70 1d 82 3d 6a 68 4f bc 26 72 fa 3d fa 91 a9 3c
       0.06353271 -0.012659172 0.12228803 0.02069949
0001b0 66 27 f0 3d a8 db 5d 3d f4 a0 c4 3d b5 6e 04 3e
       0.11726265 0.05416456 0.09601012 0.12932856
0001c0 51 78 91 3d 08 b6 de 3d 33 3e f8 3d a8 dd 87 3c
       0.07103027 0.108745635 0.121212386 0.016585186
0001d0 20 9e 9f bd 50 12 f8 3d 1c 69 16 bc 89 e3 99 3d
       -0.07793832 0.12112868 -0.009180333 0.07514102
0001e0 18 4e 19 3e 8a cc e4 3c ac cd af 3d 3a 9f a4 3d
       0.14971197 0.027929563 0.08584151 0.080381826
0001f0 9b cd 94 3d fc b3 87 3d e2 38 31 bc ed 07 df bc
       0.07265779 0.06626126 -0.010816785 -0.027225459
000200 b5 95 15 3e fa 07 1e bd 21 3c 09 3e cb 0e 6c bc
       0.1460789 -0.038581826 0.13401844 -0.014407824
000210 6c 85 4a 3d 41 6b b4 3d 92 a4 94 3d 69 cf 34 bd
       0.049443647 0.088095196 0.07257952 -0.044143114
000220 d3 fb aa bd a4 39 06 bd 2e d2 c9 bc e0 48 27 3d
       -0.08348813 -0.032769814 -0.024636354 0.040840983
000230 65 52 23 bd 3d 21 8a bc 23 81 0b bc 54 7d d8 bc
       -0.0398735 -0.016861552 -0.008514675 -0.026426949
000240 53 78 b1 3c 00 22 85 3c 8e 24 aa bc 7a 2d 66 bd
       0.02166382 0.016251564 -0.020769384 -0.056195714
000250 ac 63 48 3d b6 4b 25 bd a4 10 46 bc 7e dd ea 3d
       0.04892318 -0.040355407 -0.012088928 0.114680275
000260 50 d1 ab bd df d4 2c 3e b6 cd c2 3d 59 7c 30 3d
       -0.083895326 0.16878079 0.095118925 0.043087337
000270 df 5b 00 3d a2 62 58 3d d7 0e ac 3a 4e 4b 9c 3d
       0.031337615 0.05282844 0.0013126981 0.07631551
000280 db 89 1f ba 38 2b 8c bc 61 59 41 3c 4e a6 17 3d
       -0.0006085911 -0.017110452 0.011801095 0.037023835
000290 0b 8c 22 3d 3b ba 0a bc c8 5d 80 bc 7c 21 62 3c
       0.039684337 -0.008467252 -0.015669718 0.013801929
0002a0 a6 bd 9d bc 18 7c d4 3d de 7e c8 3d a6 58 80 3d
       -0.01925547 0.103752315 0.09789823 0.06266908
0002b0 2b 8a ba bd 93 fd ac 3d c7 8e d3 3c fe 0a d9 3d
       -0.09108385 0.08446803 0.025824917 0.105978
0002c0 26 f5 38 3d 34 80 16 3d 37 f0 57 bc 82 24 af bd
       0.045155667 0.036743358 -0.01317983 -0.08551885
0002d0 3a eb 7a 3d 7d df 19 3c 45 3c 85 3d 0b 30 4f 3d
       0.061259486 0.009391663 0.06505636 0.050582927
0002e0 39 4e 9e 3d 19 43 31 bd 28 84 a6 3d aa ad 98 bd
       0.077297635 -0.04327688 0.081306756 -0.07454999
0002f0 16 fe 95 3d cf 98 08 3e 7d a4 a4 bc e7 fc c1 3d
       0.07323854 0.13339542 -0.020097965 0.094720654
000300 82 bf 67 bd 5f f2 01 3e 5d 07 74 bc ed 94 7c bd
       -0.05657912 0.12690113 -0.014894334 -0.061665464
000310 77 26 1e bd 2b 3c 4f bd 7a 75 07 3d 1d cc 9e bc
       -0.0386109 -0.05059449 0.03307102 -0.019384438
000320 c7 7c 9a 3d e8 c8 65 bd 91 32 87 3c a7 21 0c 3e
       0.07543331 -0.056099802 0.016503604 0.13684712
000330 0f 80 66 bb 50 86 7b 3d ee 9a 03 bd 25 22 46 3d
       -0.0035171544 0.061407387 -0.032130174 0.048372407
000340 ea 8c f9 3d d6 05 07 3e 61 93 8c 3d dc 51 9c 3d
       0.1218508 0.1318582 0.06864048 0.07632801
000350 24 50 dc bb b5 89 b6 3c c8 b9 1e 3d 3c e8 aa 3d
       -0.0067234207 0.02228246 0.038751394 0.083450764
000360 9a f2 22 3d 8b fa 15 3e c9 9b c3 bc 0a 68 60 bd
       0.039782144 0.14646356 -0.023877995 -0.05478672
000370 36 21 63 3d 6a 02 a7 3d 88 9d b9 bc d4 31 af bd
       0.055451594 0.08154757 -0.022658125 -0.08554426
000380 9a ab 96 3d ae e7 34 bd 14 cb eb ba 33 cb 3a 3e
       0.07356949 -0.04416626 -0.0017989599 0.18241577
000390 bf 1e 33 3d 90 6e a1 3d 43 ce ae 3c d2 9b 98 bd
       0.043730494 0.07882416 0.021338588 -0.07451595
0003a0 19 1e 69 bc 55 4a 0f bd ea a2 ba bc 79 ea a7 bd
       -0.014228367 -0.034982998 -0.022782762 -0.08199019
0003b0 b7 d0 d2 bd 2e 01 16 bd af f0 fd 3d ab d1 e5 bb
       -0.102937154 -0.03662222 0.123994224 -0.0070135198
0003c0 fa 60 a0 bd a9 d9 7b 3d 75 8f c4 3c ec 80 fe 3d
       -0.07830997 0.061486874 0.023994187 0.12426934
0003d0 f3 89 9d bc ed 97 ee 3d 47 15 01 3e a9 82 2e bd
       -0.019230818 0.11650071 0.12605773 -0.042605076
0003e0 dc 70 f9 bc 3c d4 d6 bc 8f f3 4f 3d dd 9c 32 bd
       -0.030449323 -0.026224248 0.050769385 -0.043606628
0003f0 12 b0 56 3c 7e 35 a1 3d 6e 9b 0b bd da 22 4e bd
       0.013103502 0.07871531 -0.034083776 -0.050326206

fc1.6.weight f4 [1, 256]
000000 31 d8 12 be 60 8c c8 3e e4 62 66 3e bc 80 bf 3e
       -0.14340283 0.39169598 0.22498661 0.37402904
000010 0b 69 26 3e 2a 81 cb bd 60 9d 4f 3e 6c bf f3 3d
       0.16251008 -0.099367455 0.20274878 0.11901745
000020 28 6b dc bd 00 82 01 be e3 17 09 be c4 d5 be bd
       -0.10762626 -0.12647247 -0.13388018 -0.09318116
000030 31 32 1d 3c e2 c0 15 be d4 48 ab bd 1c d3 a8 3e
       0.009594486 -0.1462436 -0.083635 0.32973564
000040 b5 21 eb bd a1 75 d9 bd 92 4e 04 be f0 05 ef bd
       -0.114810385 -0.10618139 -0.12920597 -0.11671054
000050 fc 65 34 be 9c 9e 24 be 77 c0 09 be de 3f 17 3e
       -0.17617029 -0.1607613 -0.13452326 0.14770457
000060 8e 91 fd bd 44 2d fa 3d 53 9e 12 be be 16 fb bd
       -0.12381278 0.12215665 -0.14318208 -0.12260197
000070 ba ab f0 bd 71 32 7a 3c 25 38 26 3e be 51 2b 3e
       -0.11751504 0.015270815 0.16232355 0.16730401
000080 2a 92 d6 3e f4 e9 bd bd fb 75 fe 3b 2b 8b ed bd
       0.4190839 -0.09273139 0.007765529 -0.1159881
000090 54 92 25 3e e9 ba 18 be 4d 76 0c be 6b d3 08 be
       0.16169101 -0.1491505 -0.13717003 -0.133619
0000a0 17 45 c7 bd 28 f2 1b be 1f fe 9c be e8 34 db bd
       -0.09729975 -0.15229094 -0.3066263 -0.107034504
0000b0 b5 7e e4 bd f3 86 c1 bd ca e7 48 3e bd 19 0e be
       -0.1115698 -0.09449568 0.1961967 -0.13877006
0000c0 67 f4 ee 3d fd df c8 bd c8 d1 05 3d 20 be 09 3e
       0.1166771 -0.098083474 0.032670766 0.13451433
0000d0 ef 57 3a 3d 72 f3 40 3e 3f 62 0d be 1f 36 12 3d
       0.045494016 0.18842867 -0.13807009 0.035696145
0000e0 8f ee 1b be b8 15 08 be 40 26 67 be a6 5d dd bd
       -0.15227722 -0.13289535 -0.22573185 -0.10808878
0000f0 74 7b 16 3e 2c a3 07 3e c4 36 bf bd 1f 92 01 3e
       0.14695531 0.13245839 -0.093366176 0.12653397
000100 e9 50 ca bd 7f 35 fb bd b8 d5 ff bd 96 21 2a 3e
       -0.09878714 -0.12266063 -0.124919355 0.16614375
000110 04 2b a5 bd 5f 6f f8 bd cb fb 94 3e 39 2b 02 3f
       -0.08064845 -0.12130617 0.29098353 0.508472
000120 7b a4 eb bd 89 96 ec bd ef 09 07 3e 15 71 87 3e
       -0.115059815 -0.1155215 0.13187383 0.26453462
000130 51 fa 03 be 04 dc 94 3e 02 e0 06 be 0e cd 5d 3e
       -0.12888457 0.2907411 -0.1317139 0.21660253
000140 0c a4 37 be 2f ff 30 3e f8 b6 c2 bd 78 2e a3 3e
       -0.17933673 0.17284845 -0.09507555 0.3187139
000150 07 70 de bd 2f 32 aa 3e 3a 7d cc bd 32 48 96 3e
       -0.10861211 0.33241412 -0.099848226 0.29351956
000160 18 84 07 be 21 7e 5d 3d ea 04 17 be 72 fa 09 be
       -0.13233984 0.054075364 -0.14747968 -0.13474444
000170 ee cd fe bd 1b 5f 15 3e da 6a 5b 3e 99 8b bc bd
       -0.12441622 0.14587061 0.2142748 -0.09206314
000180 c7 16 d2 3c 86 5c 27 3e 49 ee 01 be c9 b0 13 3e
       0.025645627 0.16343889 -0.12688555 0.14422907
000190 da e9 fb 3c ba 8d 0f 3d ee 37 81 3e 87 2b 1d be
       0.030751158 0.03504727 0.25237983 -0.15348636
0001a0 17 45 c0 bd 0d b0 ff bd d7 55 07 be e1 3f 43 3e
       -0.09388178 -0.12484751 -0.13216339 0.19067337
0001b0 4e e2 aa bd 67 8b 09 be 83 0e da bd 65 a4 08 be
       -0.083439454 -0.13432084 -0.10647299 -0.13343962
0001c0 fa 55 20 be b4 f9 b0 bd db 46 f9 bd 7b b1 f6 bd
       -0.15657797 -0.08641377 -0.12171718 -0.120455705
0001d0 ea d4 6f bd d6 6b f9 bd 30 98 15 be e5 12 fc bd
       -0.05855266 -0.12178771 -0.14608836 -0.12308291
0001e0 9c 2f 3d 3e 22 46 01 be 41 f3 10 be ce 7c e7 bd
       0.18475193 -0.1262441 -0.14155294 -0.113031015
0001f0 54 90 f6 bd af 71 28 3e c9 76 f5 bd 3b e1 26 3e
       -0.12039247 0.16449617 -0.11985547 0.16296856
000200 3c 89 db bd 25 7e 11 3d 45 0f bf bd f9 f8 08 be
       -0.10719535 0.03552069 -0.09329084 -0.13376226
000210 31 34 12 be 76 f1 19 be e2 76 df bd d9 e3 1e 3e
       -0.14277722 -0.15033516 -0.10911347 0.15516604
000220 9c 68 cc be 41 f1 65 bc 4d ab fa bd e8 9f 09 be
       -0.3992356 -0.01403457 -0.12239704 -0.13439906
000230 04 2d f2 3d fc a3 03 be 6a 4b e9 bd 08 0b 49 3e
       0.11824992 -0.12855524 -0.11391337 0.19633114
000240 63 5a 00 be cf 20 f1 bd 48 dc 60 3d 0e a2 94 3e
       -0.1253448 -0.11773836 0.054897577 0.29029888
000250 32 6c 23 3d cf 46 10 3e c2 76 72 3e 7c 87 c4 bd
       0.039898105 0.14089511 0.23678115 -0.09596154
000260 f8 26 ef 3d 42 3e 14 3f 9f ce dd bd de 36 e9 bd
       0.116773546 0.579075 -0.108304255 -0.11387418
000270 61 57 5e 3e 4a 5b 1a be a7 ac d4 bd f0 ec 07 be
       0.2171302 -0.15073887 -0.10384493 -0.13273978
000280 ae 84 b9 3c 80 a0 9b 3b 8f fb b7 be 9a 31 ca bd
       0.022646274 0.0047493577 -0.3593411 -0.09872742
000290 9c 9d 3b 3e 41 69 88 3e 94 df b7 3a fe 4c b8 3d
       0.18321842 0.26642802 0.0014028423 0.0899906
0002a0 ce f3 01 be 29 40 c3 bd f9 76 b6 bd 9e bd 04 be
       -0.1269066 -0.09533722 -0.08909411 -0.12962958
0002b0 fa 20 60 3e 53 a0 0b be 17 c1 49 3e 52 0d 19 be
       0.2188758 -0.13635378 0.19702564 -0.14946488
0002c0 23 c8 a3 3e 7e 13 b4 bd f3 d8 27 3e 38 da 51 bd
       0.3198863 -0.0879278 0.16391353 -0.0512335
0002d0 5e d0 59 3e 2a 17 4d 3e fd 68 77 3e 10 7a a9 3e
       0.21270892 0.20028368 0.24161144 0.3310094
0002e0 f2 9e 0f be d7 8a 87 bd 2e 2a 1f 3e 67 b5 24 3e
       -0.14025477 -0.066182785 0.15543434 0.16084825
0002f0 4f 64 fa 3d b2 3f 9b bd 4a e0 f6 3c e6 2f 65 3e
       0.122261636 -0.07580508 0.030136246 0.22381553
000300 6e bb 14 3e 33 0a de bd 89 5e 51 3c bd 43 dc 3c
       0.14524624 -0.10841789 0.012778887 0.026887769
000310 9a 5e d7 3d ec 11 39 3c 96 db c3 3e c7 7c 7d 3e
       0.10516091 0.011295777 0.38253468 0.2475463
000320 f6 93 fc 3d 52 59 fd 3c 13 d8 21 3e 1b 53 f4 bd
       0.12332909 0.03092638 0.15805082 -0.119299136
000330 ae 37 08 be 09 74 18 be f1 1a 4a 3e 9f da 0d be
       -0.1330249 -0.14888014 0.1973684 -0.13852929
000340 7e 05 17 be 39 99 e7 bd 84 49 cd bd 3b e5 2f 3d
       -0.14748189 -0.11308522 -0.100237876 0.04294322
000350 af 7a fb bd 74 af 31 3e 04 18 06 be 3b dd d7 3d
       -0.122792594 0.17352086 -0.13095099 0.10540243
000360 5a 19 8a 3e 2d 34 c0 bd a0 76 6e 3e e5 61 ab 3c
       0.26972467 -0.09384952 0.2328744 0.020920703
000370 75 07 0e 3e 4c e3 f4 bd ef f1 e0 bd 20 b9 c3 bb
       0.13870032 -0.11957416 -0.10983645 -0.0059729964
000380 54 d9 3a 3e 58 e4 00 3c ba ff c0 3e 69 3c b6 be
       0.18246967 0.007866941 0.37695104 -0.35592964
000390 29 27 d0 bd 68 c3 12 3d c2 c6 1b 3e 9b 3b 25 3d
       -0.10163719 0.035830885 0.15212539 0.040340047
0003a0 f0 78 12 be 90 52 dd bd 63 15 b1 3e d4 bf 70 bd
       -0.14303946 -0.10806763 0.3458663 -0.05877669
0003b0 fa 6a 5c 3e 88 84 46 bc 10 ce 1a be 10 d3 81 3e
       0.21525183 -0.012116559 -0.15117669 0.2535634
0003c0 39 09 58 3d 27 c1 ad 3c 0d d3 d9 bd 7d bb f3 bd
       0.05274317 0.021210266 -0.10635958 -0.11900995
0003d0 0d c5 c7 3e 89 d9 39 be 73 3e c5 bd 6a 3a d4 3e
       0.39017525 -0.1814939 -0.09631052 0.41450816
0003e0 0b 2e 31 3e b8 51 03 3e 0e 5f 4c 3e a7 ed 49 3e
       0.1730272 0.12824142 0.19958135 0.19719563
0003f0 73 5c 74 3e 7c 3b 0a be 0a 69 6b 3d 9e 6d 6a 3c
       0.23863392 -0.13499254 0.05747322 0.014308361
