models/DDPG_actor.pth (torch, 170788 bytes, 7 tensors)

fc1.0.weight f4 [64, 3]
-0.055842217 0.18674824 0.39821357 -0.4138642 -0.2870798 -0.09898049 0.50397694 -0.46854943
-0.38682726 0.13626654 -0.43958768 -0.56736606 0.014054596 -0.06971669 -0.11646709 -0.4942403
-0.041432265 -0.525939 -0.14608894 -0.28895506 -0.4935184 0.48841736 -0.43958184 0.23092084
-0.48531947 -0.5080638 0.21810256 0.19763575 -0.057587974 -0.25853056 0.5433662 -0.14252709
-0.22219853 -0.32169873 -0.0067630266 0.22911087 -0.25792506 -0.494721 -0.33777735 0.064479165
0.09561806 0.06106614 -0.016157296 0.33909503 0.3926384 0.13524425 0.17004532 -0.381987
-0.1347962 -0.36575538 -0.1883279 0.545559 0.5567115 -0.52604884 -0.18169154 0.19289362
-0.42599946 -0.5383265 0.2558006 -0.43190438 -0.41139755 -0.054105025 0.1187761 -0.16003652
-0.56750816 -0.1923138 0.08298721 -0.07982035 0.3532446 0.0051353276 -0.20199063 0.35571697
0.51673585 -0.4955827 -0.3388091 0.15849607 -0.421744 -0.44629934 0.14517437 -0.49176338
0.41292706 -0.5015647 0.361349 -0.2109686 -0.49041167 0.38252437 -0.4089437 -0.1136721
0.5640351 -0.33848086 -0.23646419 0.55610305 0.18673469 -0.37492797 -0.33372065 0.06259718
0.56984645 0.028768484 0.3576814 -0.51959795 0.3321056 -0.45488888 0.30888298 0.2705338
0.15637039 -0.13528487 0.5621934 0.1667686 0.30218878 0.1083709 0.42168647 -0.38988534
-0.5485264 -0.24262314 -0.36921358 -0.47583082 -0.28984863 0.08421191 0.33664426 0.111441396
0.23296356 -0.5312494 -0.08216709 0.11476381 -0.42717737 -0.012752693 -0.050541997 -0.055270597
0.37209156 0.24637304 0.13896383 -0.085184805 0.17459162 0.15005055 0.5311132 0.11207911
-0.14766936 -0.23943785 -0.37427735 0.52910846 0.1320419 -0.16213217 0.15353455 0.022946874
0.46806183 0.50823474 0.3397151 0.05086869 0.31552428 -0.20376715 -0.018430717 0.5021303
-0.1872536 -0.19336922 0.4584029 -0.112216175 0.15152445 0.15741149 0.18177108 -0.07196815
0.082740545 -0.16420135 -0.5317373 -0.5145955 -0.07375598 0.4036107 0.45170772 -0.5570861
0.07492707 0.5541452 0.26459113 0.2713851 -0.47164637 0.43222624 -0.17379172 -0.36820674
-0.15557198 0.16396913 0.29608986 0.4714824 0.28721485 0.15727043 -0.049838472 0.38059938
-0.39071983 -0.42652547 0.19381674 -0.32292807 0.4214725 -0.20328598 -0.38852695 0.35586166
00000000: cfba 64bd ee3a 3f3e a6e2 cb3e 02e6 d3be
00000010: 20fc 92be 48b6 cabd a204 013f b6e5 efbe
00000020: 390e c6be 7589 0b3e a311 e1be e73e 11bf
00000030: 4045 663c a0c7 8ebd 4c86 eebd 110d fdbe
00000040: e1b4 29bd f0a3 06bf 5798 15be ebf1 93be
00000050: 72ae fcbe d711 fa3e df10 e1be 8376 6c3e
00000060: cb7b f8be 7810 02bf 4756 5f3e 0761 4a3e
00000070: 5ee1 6bbd 1e5e 84be 0c1a 0b3f 9ff2 11be
00000080: 0388 63be b2b5 a4be 619c ddbb 0a9c 6a3e
00000090: c10e 84be 124c fdbe 27f1 acbe a70d 843d
000000a0: 67d3 c33d 7d20 7a3d 4e5c 84bc dd9d ad3e
000000b0: e607 c93e 787d 0a3e 5c20 2e3e cd93 c3be
000000c0: 0408 0abe 4a44 bbbe 07d9 40be c1a9 0b3f
000000d0: a584 0e3f 23ab 06bf 590d 3abe e885 453e
000000e0: 9a1c dabe c4cf 09bf 4cf8 823e 9222 ddbe
000000f0: b3a2 d2be 3b9d 5dbd e240 f33d 9de0 23be
00000100: 3748 11bf e9ed 44be 33f5 a93d da78 a3bd
00000110: 7adc b43e 4046 a83b a2d6 4ebe 8920 b63e
00000120: cd48 043f 04bd fdbe 6378 adbe cb4c 223e
00000130: d4ee d7be 5981 e4be 97a8 143e 69c8 fbbe
00000140: 2d6b d33e 8b66 00bf bc02 b93e 2708 58be
00000150: 3d17 fbbe 3cda c33e 1261 d1be ebcc e8bd
00000160: 9b64 103f 5d4d adbe ab23 72be c55c 0e3f
00000170: 6137 3f3e 8ff6 bfbe 6fdd aabe f332 803d
00000180: 75e1 113f e2ab eb3c 0422 b73e 5f04 05bf
00000190: bf09 aa3e 32e7 e8be e925 9e3e 6883 8a3e
000001a0: 8f1f 203e 1e88 0abe e8eb 0f3f 63c5 2a3e
000001b0: 7db8 9a3e 90f1 dd3d 4ae7 d73e 0d9f c7be
000001c0: 3a6c 0cbf 3372 78be 9009 bdbe 19a0 f3be
000001d0: 0a67 94be 4b77 ac3d a35c ac3e 633b e43d
000001e0: 008e 6e3e f6ff 07bf 3847 a8bd 4a09 eb3d
000001f0: feb6 dabe acf0 50bc 2005 4fbd 6c63 62bd
00000200: c982 be3e 3749 7c3e 894c 0e3e 5f75 aebd
00000210: 25c8 323e daa6 193e 09f7 073f bc89 e53d
00000220: a336 17be 322f 75be 48a1 bfbe a773 073f
00000230: fe35 073e fa05 26be 2938 1d3e 15fb bb3c
00000240: cda5 ef3e ac1b 023f 23ef ad3e b05b 503d
00000250: 668c a13e 56a8 50be 04fc 96bc 9d8b 003f
00000260: 68bf 3fbe 9502 46be c9b3 ea3e 98d1 e5bd
00000270: 3a29 1b3e 7a30 213e 3322 3a3e 0a64 93bd
00000280: e073 a93d 6624 28be f01f 08bf 88bc 03bf
00000290: 600d 97bd 10a6 ce3e 3c46 e73e 329d 0ebf
000002a0: 5d73 993d 76dc 0d3f 7d78 873e fdf2 8a3e
000002b0: a27b f1be c24c dd3e 75f6 31be 9885 bcbe
000002c0: 434e 1fbe 86e7 273e 1799 973e 2466 f13e
000002d0: d30d 933e 800b 213e 6d23 4cbd ecdd c23e
000002e0: 6e0c c8be 8c61 dabe e577 463e d456 a5be
000002f0: 3ecb d73e 332a 50be 01ed c6be 8033 b63e

fc1.0.bias f4 [64]
-0.43195838 -0.25897124 -0.54251754 0.13327973 -0.3145315 -0.54053533 -0.36424997 0.3642173
-0.4963416 0.3042022 -0.2641427 -0.22518766 -0.04454727 -0.049408987 -0.019630698 0.5540278
0.087052934 -0.31870824 0.030313801 -0.41901648 0.26549432 0.2850455 -0.26275286 -0.5256673
0.069743626 0.55508316 -0.078614324 -0.26402998 -0.5192695 0.020313522 -0.35124412 0.34875718
0.51699346 -0.4250025 -0.14986932 0.11286296 -0.54774624 -0.4582103 -0.20317714 -0.45868734
0.5563207 -0.038138025 0.32134488 0.5023818 -0.21362114 0.34648246 -0.39542836 -0.15065247
-0.016996771 -0.46277305 0.07870989 -0.38868505 0.104383856 0.43824154 0.4137624 0.039368864
0.4126074 -0.45737675 0.47343507 -0.18267797 -0.28849554 0.4992051 -0.09579331 -0.5775913
00000000: a629 ddbe e197 84be 6ee2 0abf 7b7a 083e
00000010: 460a a1be 8660 0abf f97e babe b17a ba3e
00000020: 7c20 febe 64c0 9b3e b63d 87be 9897 66be
00000030: 3377 36bd 1461 4abd 8fd0 a0bc c4d4 0d3f
00000040: cf48 b23d ba2d a3be a654 f83c 5489 d6be
00000050: dfee 873e 7cf1 913e 8b87 86be 2292 06bf
00000060: bfd5 8e3d ee19 0e3f 8c00 a1bd f02e 87be
00000070: d9ee 04bf 8b68 a63c 45d6 b3be 4d90 b23e
00000080: af59 043f ed99 d9be 5877 19be b224 e73d
00000090: 1939 0cbf 8a9a eabe ab0d 50be 11d9 eabe
000000a0: 096b 0e3f 9e36 1cbd 5187 a43e 189c 003f
000000b0: 80bf 5abe 2666 b13e 9675 cabe a444 1abe
000000c0: d03c 8bbc 97f0 ecbe a732 a13d ba01 c7be
000000d0: 34c7 d53d 3261 e03e aad8 d33e 3f41 213d
000000e0: 4741 d33e 492d eabe 1566 f23e ef0f 3bbe
000000f0: b0b5 93be d097 ff3e 482f c4bd 06dd 13bf

fc1.2.weight f4 [128, 64]
-0.114630274 -0.007009569 0.11508472 0.10132528 0.00082969666 0.03066328 0.04780643 0.041804507
0.09273608 0.10597556 0.108768545 -0.05272109 0.00492965 -0.11893998 -0.10087651 0.11844873
0.050166972 0.106647514 0.033456083 0.09862099 0.055268355 -0.07575212 -0.04537918 -0.03110658
0.118686415 -0.027240803 -0.06801548 0.06735159 0.11122108 -0.041993182 0.0390139 -0.02093909
0.048801914 -0.11060389 0.057481997 0.11097879 -0.09089192 -0.10852483 0.121807255 -0.11850958
-0.0064551686 -0.11972751 0.1216899 0.012636403 0.1249941 -0.10451693 0.00748672 -0.02260607
-0.018890485 -0.045365408 -0.105293155 -0.07129324 -0.118942454 -0.06405146 0.07675445 -0.0021919352
0.08105607 0.031233061 0.057142958 0.0041406653 0.049926214 0.0044389484 -0.09397194 -0.05051049
0.12400309 0.1016658 0.045772344 0.047022596 0.01800996 0.12859224 0.10385594 -0.008054618
-0.0995726 0.07403588 -0.039007675 -0.0748645 -0.105738334 -0.04964938 0.059356764 0.08908535
-0.07940906 0.06252397 0.08971932 0.076124534 0.0029477316 0.0020921314 0.12132048 0.05461929
-0.025391389 0.050156433 0.07425068 -0.09464181 0.015240043 -0.07801044 -0.11456186 -0.040003717
0.036661804 0.030345121 -0.055097327 -0.05671704 -0.07799609 0.12317877 -0.079657435 0.021753859
0.09963449 -0.08061192 0.066971846 0.009012576 -0.010525113 -0.05034002 0.1050682 0.08838398
0.10683001 0.094867915 0.02079401 0.08722812 0.0041442164 -0.032601748 0.102186464 0.09296094
0.038454458 0.022681067 -0.08241545 -0.09604793 -0.063886076 0.0395849 0.008894282 -0.032229956
0.12751848 0.05073651 0.0658429 -0.08889884 0.09337956 -0.114927 -0.12193094 -0.053394463
0.08266507 0.09188486 0.07215226 -0.00047269076 0.09394161 -0.094286285 0.109024785 -0.05858476
-0.030950565 -0.04367804 -0.07199411 -0.047547907 0.044422597 0.028815884 -0.010315779 0.01520469
-0.09017114 0.08065255 -0.097342655 0.028015595 0.055130363 0.1108118 -0.009102381 -0.045164358
-0.10237132 0.10812014 0.090692 0.09964656 -0.053762347 -0.020651707 -0.05218932 -0.027072087
0.05153767 0.006260198 0.122574545 -0.06615531 -0.10236555 0.052382275 0.119141154 0.12173471
-0.057448078 0.045499876 0.019974032 0.037377942 -0.047170993 0.094901875 0.03140373 -0.059940256
-0.10525718 0.115176044 0.01928109 -0.11188541 0.031701624 -0.050782837 0.0005620335 -0.08787245
0.030711336 0.10653083 0.019989893 0.08544863 -0.12292512 0.09813178 -0.06654154 0.039441325
-0.011535697 -0.0781505 -0.11430371 -0.07892933 -0.1037445 -0.08402673 0.11601404 0.10128335
0.023221739 -0.06386679 0.011289688 -0.0234958 -0.111914925 -0.06738641 -0.0009425197 -0.009733492
0.03385044 -0.10142966 -0.019930288 0.116113685 0.11894348 -0.06379198 0.057223618 0.10168132
-0.055822995 -0.06395516 0.04644737 0.03606409 0.029268146 -0.08764651 -0.0507431 -0.0028982107
-0.09622375 0.05660323 -0.030536992 0.07181549 -0.06620577 -0.07870924 -0.045116704 -0.04001797
0.116234064 -0.10810709 0.07125131 -0.021632226 0.11681108 0.060075354 -0.07265074 0.06201328
0.05805654 0.09529228 -0.041790675 -0.095094934 -0.11427095 0.018769978 0.0515828 -0.016999753
00000000: 47c3 eabd 87b0 e5bb 8ab1 eb3d a183 cf3d
00000010: 0080 593a 8f31 fb3c add0 433d 343b 2b3d
00000020: 6aec bd3d b709 d93d 0bc2 de3d 12f2 57bd
00000030: e788 a13b ce96 f3bd 5898 cebd 3f95 f23d
00000040: e27b 4d3d 036a da3d 3f09 093d cdf9 c93d
00000050: 1261 623d ed23 9bbd 85df 39bd 3ad3 febc
00000060: dd11 f33d 1b28 dfbc b34b 8bbd a1ef 893d
00000070: e1c7 e33d 0b01 2cbd 0acd 1f3d 7488 abbc
00000080: 84e4 473d 4b84 e2bd 3e72 6b3d d948 e33d
00000090: 8b25 babd 4442 debd 1576 f93d 27b5 f2bd
000000a0: e185 d3bb b233 f5bd 8e38 f93d ea08 4f3c
000000b0: e8fc ff3d f90c d6bd 2953 f53b 5d30 b9bc
000000c0: 38c0 9abc 14d1 39bd f0a3 d7bd 3102 92bd
000000d0: 1a98 f3bd 692d 83bd 7031 9d3d 92a6 0fbb
000000e0: ba00 a63d 7adc ff3c bc0e 6a3d 6bae 873b
000000f0: 6e7f 4c3d 9974 913b 5c74 c0bd 16e4 4ebd
00000100: 55f5 fd3d 2936 d03d c87b 3b3d c49a 403d
00000110: a089 933c afad 033e 6cb2 d43d 84f7 03bc
00000120: b8ec cbbd 20a0 973d 83c6 1fbd 8f52 99bd
00000130: 578d d8bd 265d 4bbd 1420 733d 6172 b63d
00000140: 38a1 a2bd 910c 803d c3be b73d 2ee7 9b3d
00000150: bb2e 413b 241c 093b df76 f83d 7ab8 5f3d
00000160: 9a01 d0bc d570 4d3d be10 983d 91d3 c1bd
00000170: 60b1 793c f0c3 9fbd 699f eabd f0da 23bd
00000180: b02a 163d 5596 f83c bcad 61bd 2050 68bd
00000190: 6abc 9fbd 2745 fc3d 7023 a3bd 2635 b23c
000001a0: 2b0d cc3d dd17 a5bd 8928 893d 7ca9 133c
000001b0: 8671 2cbc 5631 4ebd ff2d d73d a902 b53d
000001c0: b1c9 da3d 1c4a c23d 3358 aa3c a8a4 b23d
000001d0: 35cc 873b 6989 05bd 2347 d13d 4e62 be3d
000001e0: 6c82 1d3d a5cd b93c 6ec9 a8bd c7b4 c4bd
000001f0: b4d6 82bd c723 223d 53b9 113c 8f03 04bd
00000200: 3494 023e 16d1 4f3d a4d8 863d 9810 b6bd
00000210: c83d bf3d d95e ebbd eeb6 f9bd 27b4 5abd
00000220: 4e4c a93d 212e bc3d 90c4 933d 7bd3 f7b9
00000230: 7564 c03d 2b19 c1bd 6348 df3d 93f6 6fbd
00000240: 0a8c fdbc bfe7 32bd a671 93bd 98c1 42bd
00000250: 78f4 353d 4a0f ec3c 8303 29bc 181d 793c
00000260: a6ab b8bd 2a2d a53d 965b c7bd f680 e53c
00000270: 60d0 613d 4cf1 e23d 2722 15bc 43fe 38bd
00000280: 0ea8 d1bd 186e dd3d babc b93d 7f13 cc3d
00000290: e835 5cbd c52d a9bc 78c4 55bd 48c6 ddbc
000002a0: 2a19 533d 5922 cd3b 5d08 fb3d 6f7c 87bd
000002b0: 08a5 d1bd cc8e 563d 4700 f43d 0c50 f93d
000002c0: ad4e 6bbd 145e 3a3d 95a0 a33c 9d19 193d
000002d0: 5f36 41bd ea5b c23d 33a1 003d ea83 75bd
000002e0: 1491 d7bd 6be1 eb3d 60f3 9d3c 2e24 e5bd
000002f0: 90d9 013d aa01 50bd 6e55 133a 79f6 b3bd
00000300: 5796 fb3c d62c da3d d8c1 a33c b1ff ae3d
00000310: 2ac0 fbbd 51f9 c83d ee46 88bd 3a8d 213d
00000320: 3800 3dbc 5f0d a0bd 1018 eabd b3a5 a1bd
00000330: ff77 d4bd 3516 acbd c598 ed3d a56d cf3d
00000340: 843b be3c 97cc 82bd 62f8 383c 447a c0bc
00000350: a733 e5bd e301 8abd 6d13 77ba 3979 1fbc
00000360: c2a6 0a3d 5bba cfbd d844 a3bc 03cd ed3d
00000370: a498 f33d 5fa5 82bd 5063 6a3d 4c3e d03d
00000380: a7a6 64bd ecfa 82bd 993f 3e3d f0b7 133d
00000390: c0c3 ef3c 0380 b3bd ffd7 4fbd e8ef 3dbb
000003a0: f510 c5bd cad8 673d b728 fabc 0014 933d
000003b0: e496 87bd 4f32 a1bd 4bcc 38bd e2e9 23bd
000003c0: 200c ee3d 4067 ddbd 35ec 913d 1136 b1bc
000003d0: a63a ef3d 9311 763d e9c9 94bd a301 7e3d
000003e0: b2cc 6d3d 9928 c33d b32c 2bbd 22c1 c2bd
000003f0: e306 eabd 7fc3 993c 7c48 533d 1143 8bbc

fc1.2.bias f4 [128]
0.092189044 -0.08714974 0.098465286 0.11237155 -0.0765618 -0.09266162 -0.06572972 -0.095903404
-0.100552455 -0.06795388 0.11908328 0.048343908 0.07520069 0.10038282 0.086907595 0.12303988
0.0558767 0.055054136 0.077754326 0.00018898546 0.099144034 -0.054888763 0.0445053 -0.03689373
0.07518069 0.0580123 0.12968913 0.004323379 -0.011441088 -0.11442146 -0.12248198 -0.023082156
0.04682085 0.04333377 0.013169216 -0.046644118 0.039177474 -0.09388837 -0.10669922 -0.06175995
-0.021573683 -0.10339716 -0.1213927 -0.071883924 -0.066486105 -0.028802799 -0.0453359 0.050982125
0.103859685 -0.0019863984 0.06572471 -0.06382604 -0.023901965 0.017439969 0.013513695 -0.0066537973
-0.10282611 -0.009504674 -0.035672724 -0.07274977 0.0786684 -0.023859518 0.01747894 0.03865779
-0.07863521 -0.0636253 0.0269985 -0.08638172 0.11172573 0.0113414 0.09966152 0.09434058
-0.071222745 -0.086896434 0.028212352 0.036411256 0.05716111 0.017840529 -0.08448066 0.08479996
0.013534263 -0.06709212 0.1050884 0.110586785 -0.07407199 0.10283556 -0.10269152 -0.08227926
0.0048554917 -0.057563055 -0.0434008 0.08091888 0.09703457 0.059491634 -0.08431764 0.055366836
-0.010052446 0.08798439 -0.0040609087 0.11042817 -0.10465001 -0.08575033 0.12862308 -0.024718687
0.10698377 0.09829554 0.094710864 -0.046140198 -0.07916953 0.07074638 0.057224844 -0.028517053
0.09191294 0.06568915 0.09689774 0.075244546 0.08282255 0.122380696 0.09403047 -0.0193031
0.044971585 -0.016342 0.089887 -0.010237407 -0.10469745 -0.041915137 0.031099956 0.012921229
00000000: 9ccd bc3d 907b b2bd 2ba8 c93d 0e23 e63d
00000010: 6fcc 9cbd 60c5 bdbd 4e9d 86bd 0169 c4bd
00000020: 72ee cdbd 672b 8bbd efe1 f33d 4304 463d
00000030: d202 9a3d 8295 cd3d 9cfc b13d 55fc fb3d
00000040: f7de 643d 7280 613d a93d 9f3d 662a 4639
00000050: 070c cb3d 0ad3 60bd 304b 363d e11d 17bd
00000060: 55f8 993d 4e9e 6d3d 3acd 043e 22ab 8d3b
00000070: 6773 3bbc cc55 eabd d5d7 fabd ca16 bdbc
00000080: 38c7 3f3d c07e 313d b2c3 573c e70d 3fbd
00000090: 8f78 203d 8c48 c0bd 1f85 dabd 00f8 7cbd
000000a0: 4bbb b0bc e4c1 d3bd bc9c f8bd e137 93bd
000000b0: de29 88bd d9f3 ebbc 23b2 39bd a2d2 503d
000000c0: 63b4 d43d 3c2e 02bb ad9a 863d 3ab7 82bd
000000d0: 0ece c3bc 44de 8e3c 8c68 5d3c 1908 dabb
000000e0: 7f96 d2bd 7eb9 1bbc 901d 12bd d5fd 94bd
000000f0: e61c a13d 0975 c3bc fe2f 8f3c a157 1e3d
00000100: 7f0b a1bd fb4d 82bd f52b dd3c e6e8 b0bd
00000110: 76d0 e43d 48d1 393c 571b cc3d a235 c13d
00000120: 3bdd 91bd c2f6 b1bd 971d e73c f823 153d
00000130: c521 6a3d 4d26 923c 3204 adbd 9aab ad3d
00000140: d0be 5d3c 9867 89bd 9638 d73d 537b e23d
00000150: 0eb3 97bd 739b d23d ee4f d2bd 0782 a8bd
00000160: d11a 9f3b 3dc7 6bbd 0ac5 31bd ccb8 a53d
00000170: 10ba c63d 80ad 733d baae acbd 56c8 623d
00000180: 04b3 24bc 2931 b43d 5f11 85bb 2a28 e23d
00000190: bf52 d6bd de9d afbd c5b5 033e d87e cabc
000001a0: 4f1a db3d 2c4f c93d c5f7 c13d 81fd 3cbd
000001b0: a223 a2bd 7ae3 903d 9964 6a3d 989c e9bc
000001c0: da3c bc3d 0888 863d 5372 c63d d019 9a3d
000001d0: de9e a93d bba2 fa3d 0c93 c03d 8921 9ebc
000001e0: 2034 383d a8df 85bc ad16 b83d ccba 27bc
000001f0: 9e6b d6bd 35af 2bbd 56c5 fe3c 90b3 533c

fc1.4.weight f4 [256, 128]
0.025236942 -0.009750336 -0.030475646 0.035982557 -0.053635184 0.080269 -0.053278968 0.019235604
-0.03683211 0.077226795 0.0022605583 -0.08163385 -0.05349805 0.07241001 -0.037000813 -0.018407866
0.0067322627 -0.028274994 -0.038131993 -0.06620339 0.07329101 0.0067791715 -0.06903024 -0.08828977
0.054349937 -0.06566748 0.013237178 0.023064375 0.0308607 0.037948392 -0.036436666 0.010243505
-0.045532063 0.026834764 0.07600837 0.061102994 -0.080573015 0.0076244622 0.038344555 -0.040406205
-0.08032245 -0.02221255 -0.0401042 -0.073482916 0.052563034 -0.06892026 0.0020402372 0.036197633
-0.07668953 -0.07398679 0.08522124 0.02891238 -0.047051456 0.029969737 0.029888943 0.07651924
0.07221908 -0.04434999 -0.044400673 0.05630306 0.06687728 -0.05216002 0.012293108 0.07786987
-0.02138964 -0.05669536 -0.014649883 0.031834736 -0.051953968 0.022086285 0.07477627 -0.002995342
0.021271832 0.07115167 -0.063884325 -0.07119267 0.048492946 -0.05656302 -0.040839504 -0.036723938
0.04712855 -0.0024001151 0.07783886 0.081797265 0.0057400838 -0.080431744 -0.0004876107 0.03785745
0.002523765 -0.04640076 -0.037040904 -0.076786436 -0.060047932 0.00956393 0.049941383 -0.036577817
-0.084809765 -0.015668526 0.07493315 -0.02110459 0.017350607 -0.027338658 0.07093673 -0.021496683
-0.08553097 -0.051053688 -0.08217637 0.06121435 0.08236071 -0.05531696 0.06509546 0.031175077
-0.02237343 -0.066174574 0.0024286583 0.00047449023 -0.083218284 -0.033699375 -0.022465765 0.001536116
-0.07864108 0.029216133 -0.053866897 -0.04430288 0.05186861 0.08059455 0.031800956 -0.042782348
-0.05807208 0.08959623 -0.020423539 0.048816014 -0.05585837 0.028766118 0.022498861 -0.020926917
0.046577357 0.09170893 -0.04468386 0.0733194 -0.087140515 0.054440323 -0.05010854 -0.075568095
-0.005981664 0.06642515 0.0027821886 0.022590615 0.079244465 -0.0058605354 -0.008497201 -0.01786673
0.048682205 -0.07543532 -0.034633864 -0.03225501 0.016465347 0.086137824 0.07810121 0.049204785
0.039839663 -0.016955689 0.06285505 0.025791267 0.037694354 0.021911263 -0.023498528 -0.033765513
0.06506962 -0.053933866 -0.024657346 -0.06229897 -0.05867655 0.04140029 -0.060551748 0.041697036
0.06217796 -0.011087004 -0.0027131108 0.07669454 -0.045334853 -0.037926488 0.085885085 0.085913934
0.044362582 -0.027099079 -0.05682295 -0.017698355 0.04438304 -0.027923344 0.04318323 -0.012753382
0.014440721 -0.0806616 0.01117189 0.021727934 0.06942526 -0.03613715 0.06553934 -0.04201852
0.08164111 -0.02233237 -0.05275308 0.049808666 0.014771716 -0.056120336 -0.076943055 -0.07440647
-0.013637938 -0.08282735 -0.083935425 0.03309 0.08509536 -0.03689653 -0.04553142 0.0327583
0.03916032 0.08629038 0.00883837 0.011530802 -0.022678092 0.08263733 -0.008473203 0.0025583871
-0.059324276 0.08695265 0.00068498217 0.0036629844 -0.028687838 -0.075999334 0.013737404 0.023607947
0.001469247 0.06662084 0.038427792 -0.0037138849 0.03560699 -0.028223015 -0.08221712 0.08345214
0.027136318 -0.059865512 -0.058139127 0.023927428 0.028081385 -0.06482385 0.023889413 -0.017977314
0.0051112636 0.07302909 0.09174987 -0.066900745 0.08740354 -0.08626555 -0.08211507 0.0861636
00000000: b4bd ce3c e0bf 1fbc 10a8 f9bc 7262 133d
00000010: 91b0 5bbd 1364 a43d 0c3b 5abd fc93 9d3c
00000020: 44dd 16bd 1529 9e3d e025 143b a62f a7bd
00000030: c520 5bbd b34b 943d 2a8e 17bd 18cc 96bc
00000040: 509a dc3b f6a0 e7bc 4b30 1cbd a595 87bd
00000050: 9919 963d d023 de3b ba5f 8dbd 44d1 b4bd
00000060: 0a9e 5e3d ac7c 86bd c0e0 583c 80f1 bc3c
00000070: 94cf fc3c c66f 1b3d 9d3e 15bd 60d4 273c
00000080: d47f 3abd 94d4 db3c 47aa 9b3d 2247 7a3d
00000090: 7703 a5bd a0d6 f93b 2e0f 1d3d fa80 25bd
000000a0: 1980 a4bd 18f7 b5bc 4d44 24bd 367e 96bd
000000b0: 564c 573d 1126 8dbd 80b5 053b f843 143d
000000c0: 660f 9dbd 6386 97bd 7988 ae3d a8d9 ec3c
000000d0: 07b9 40bd 1883 f53c a8d9 f43c 1fb6 9c3d
000000e0: 99e7 933d 56a8 35bd 7bdd 35bd 0a9e 663d
000000f0: f5f6 883d bfa5 55bd 0869 493c 3d7a 9f3d
00000100: 5439 afbc 6539 68bd 1006 70bc 2465 023d
00000110: afcd 54bd 4cee b43c 4d24 993d 804d 44bb
00000120: 4442 ae3c f7b7 913d c9d5 82bd 76cd 91bd
00000130: 8aa0 463d a0ae 67bd 5347 27bd d76b 16bd
00000140: de09 413d 404b 1dbb fb69 9f3d 5385 a73d
00000150: 5017 bc3b 66b9 a4bd 00a6 ffb9 6a10 1b3d
00000160: c065 253b b90e 3ebd 34b8 17bd 3542 9dbd
00000170: d2f4 75bd 08b2 1c3c 568f 4c3d 9fd2 15bd
00000180: beb0 adbd 485b 80bc 8d76 993d 88e3 acbc
00000190: dc22 8e3c 52f5 dfbc 4747 913d d019 b0bc
000001a0: dc2a afbd ac1d 51bd 164c a8bd e6bb 7a3d
000001b0: bbac a83d 0994 62bd c550 853d e062 ff3c
000001c0: 7c48 b7bc 8986 87bd 202a 1f3b 00c5 f839
000001d0: 596e aabd 5b08 0abd 200a b8bc 8057 c93a
000001e0: 930e a1bd ac56 ef3c 89a3 5cbd f076 35bd
000001f0: 2e74 543d c10e a53d b841 023d 8b3c 2fbd
00000200: fddc 6dbd 3a7e b73d 444f a7bc 4df3 473d
00000210: bfcb 64bd eca6 eb3c 884f b83c ed6e abbc
00000220: e6c7 3e3d e4d1 bb3d 6c06 37bd 7b28 963d
00000230: ba76 b2bd d1fc 5e3d 9d3e 4dbd 72c3 9abd
00000240: d601 c4bb e909 883d 6155 363b f40f b93c
00000250: ec4a a23d bc09 c0bb d837 0bbc 405d 92bc
00000260: fe66 473d d57d 9abd 3ddc 0dbd d41d 04bd
00000270: 56e2 863c 0769 b03d 87f3 9f3d f58a 493d
00000280: ea2e 233d a8e6 8abc 26ba 803d 3548 d33c
00000290: 6565 1a3d 407f b33c fc7f c0bc b54d 0abd
000002a0: 3943 853d c2e9 5cbd 34fe c9bc 342d 7fbd
000002b0: d256 70bd 5a93 293d 1c05 78bd 83ca 2a3d
000002c0: 51ae 7e3d 44a6 35bc 72ce 31bb 0712 9d3d
000002d0: 0ab1 39bd ce58 1bbd 85e4 af3d a5f3 af3d
000002e0: 8ab5 353d e3fe ddbc 2ebf 68bd 24fc 90bc
000002f0: feca 353d 7fbf e4bc e6e0 303d 90f3 50bc
00000300: c698 6c3c e931 a5bd 4e0a 373c c8fe b13c
00000310: d52e 8e3d 8c04 14bd 7d39 863d 9d1b 2cbd
00000320: 7433 a73d 60f2 b6bc 9d13 58bd 2c04 4c3d
00000330: 1105 723c 70de 65bd 5294 9dbd 6b62 98bd
00000340: a871 5fbc 63a1 a9bd 56e6 abbd 6189 073d
00000350: 7a46 ae3d d120 17bd 277f 3abd 912d 063d
00000360: 9266 203d 03b9 b03d d0ce 103c b0eb 3c3c
00000370: 68c7 b9bc c33d a93d 30d3 0abc 9daa 273b
00000380: 03fe 72bd 3b14 b23d 6090 333a ae0e 703b
00000390: c202 ebbc 8aa5 9bbd d912 613c 7465 c13c
000003a0: c093 c03a 8270 883d 7666 1d3d a664 73bb
000003b0: a3d8 113d f433 e7bc 7361 a8bd f5e8 aa3d
000003c0: fc4c de3c 8a35 75bd 4b23 6ebd 7403 c43c
000003d0: ef0a e63c 5ec2 84bd bbb3 c33c 2945 93bc
000003e0: 637c a73b 4790 953d 5be7 bb3d 4203 89bd
000003f0: a100 b33d feab b0bd f22b a8bd 8b76 b03d

fc1.4.bias f4 [256]
-0.05345455 -0.05024945 -0.018119644 -0.07178713 -0.024061477 -0.06556258 -0.054606464 -0.06519733
-0.034546442 -0.012208307 -0.060145874 -0.00015457622 0.0014810067 -0.052545313 0.08305303 -0.0091490075
-0.032978293 0.029442899 -0.008957729 -0.078622974 -0.0018039487 -0.086872056 0.03468946 0.068895675
0.08405649 0.04201569 -0.05523897 -0.0628679 0.037845053 0.007783511 -0.039632127 0.032294825
0.032677744 0.05170528 -0.07328084 -0.07162092 -0.024838945 0.091546915 -0.008639183 0.03993009
-0.04832715 -0.040358093 -0.0644732 -0.041856214 -0.029070009 0.012761068 -0.08618085 0.04664475
0.0125679895 -0.060515564 0.012947135 -0.04687197 0.09173179 -0.07859278 0.021754362 -0.003637433
-0.0400232 0.016697109 -0.066166386 0.037042174 0.044334497 0.046572533 0.050068013 -0.047151357
0.0033418755 -0.052699536 -0.04861504 -0.06183097 0.025458582 -0.035290085 -0.036944292 -0.07004653
0.04217029 0.07870602 -0.078242704 -0.030317051 -0.05228798 -0.033483453 0.082081996 0.025094792
-0.034503162 -0.038569815 -0.029799266 -0.03493 -0.0368855 0.008775066 -0.04081401 0.04519878
0.079881035 -0.056986168 0.064569615 -0.03787027 0.008298862 0.07249277 0.03318906 -0.0575649
0.0428967 -0.06876575 -0.017346144 0.011990631 -0.045842383 -0.078832306 0.013766073 -0.044665426
-0.035321068 -0.011737642 -0.07878469 -0.07676005 -0.08810967 0.037621666 0.045398295 0.06207575
-0.079010166 -0.062158212 0.028671393 -0.018524192 0.018162955 0.0118396655 0.059789706 0.013346893
-0.006257929 0.02798707 -0.0579706 -0.082822815 -0.072364725 0.0434568 0.06829693 0.020308383
0.0600792 0.067922376 0.057338335 -0.023995116 -0.08709012 0.022360113 0.056849483 0.0153940255
-0.02822379 -0.0046834284 -0.06712887 0.0041061915 -0.0076226126 0.06357307 -0.07491367 -0.027725637
-0.03695522 -0.07510639 0.011548437 -0.0091240555 0.075934805 0.017549219 -0.046175055 -0.021653127
-0.085065186 -0.049500555 0.027658941 -0.036295526 -0.045971874 0.07547777 0.043561704 -0.08035001
0.06777621 0.02344946 0.086191006 0.04373288 0.0006589878 -0.039974682 -0.070255764 0.005944109
0.06669202 -0.03348004 0.085172616 -0.024386398 0.045072712 0.070779726 -0.026636545 -0.021677136
0.063573904 -0.061198536 -0.009735053 0.07931465 0.011092864 -0.073708534 -0.035904158 -0.02681338
0.0314356 -0.08389733 -0.067536205 -0.062851764 -0.064088084 -0.04820779 -0.041798376 -0.022479255
-0.061416194 -0.049464993 -0.08234252 -0.004539304 -0.06517804 0.07746633 -0.04690411 -0.003828821
0.008912653 0.025948025 -0.015712682 -0.05183444 0.03825182 -0.014651332 -0.007909372 -0.07522452
0.08155691 0.06039736 0.06888974 -0.037425324 -0.08061349 -0.04050319 -0.012515369 0.09048146
-0.052066945 -0.036691945 0.060324874 0.027099246 -0.0031117708 -0.05510943 -0.05981884 -0.028359074
0.041046783 0.048416913 0.038949672 0.06472185 0.08789992 -0.025134156 -0.034046017 -0.036365755
0.055628683 -0.021329315 -0.07521725 -0.053151697 -0.03239672 -0.032293573 0.07270728 -0.066504724
-0.047998447 -0.0003021495 -0.059620198 0.05023942 0.012000332 -0.052592985 -0.07442529 0.0009712428
0.06409859 0.052972876 -0.07449324 0.068183824 -0.06746234 -0.039862424 -0.085609816 0.07152861
00000000: 29f3 5abd 5ed2 4dbd a66f 94bc 2105 93bd
00000010: 931c c5bc ad45 86bd 07ab 5fbd 2e86 85bd
00000020: 9280 0dbd 5a05 48bc 855b 76bd bd15 22b9
00000030: 571e c23a c139 57bd b517 aa3d b8e5 15bc
00000040: 3f14 07bd 3c32 f13c 70c3 12bc 1505 a1bd
00000050: 7972 ecba fae9 b1bd 8916 0e3d 2d19 8d3d
00000060: cf25 ac3d a518 2c3d 4242 62bd e3c0 80bd
00000070: 6a03 1b3d d30c ff3b 4c55 22bd 9447 043d
00000080: 19d9 053d eac8 533d 4414 96bd fdad 92bd
00000090: 0b7b cbbc f37c bb3d 5c8b 0dbc bc8d 233d
000000a0: b1f2 45bd 874e 25bd 860a 84bd 6c71 2bbd
000000b0: 3a24 eebc cc13 513c 967f b0bd 910e 3f3d
000000c0: f8e9 4d3c 2bdf 77bd 3820 543c d3fc 3fbd
000000d0: e0dd bb3d 40f5 a0bd 3436 b23c 0062 6ebb
000000e0: 5eef 23bd 60c8 883c 3e82 87bd 89b9 173d
000000f0: 1798 353d d7c2 3e3d 1e14 4d3d c821 41bd
00000100: 5e03 5b3b 78db 57bd 9020 47bd 7942 7dbd
00000110: 848e d03c 568c 10bd e652 17bd 8e74 8fbd
00000120: c1ba 2c3d 9f30 a13d b63d a0bd 775b f8bc
00000130: ec2b 56bd f225 09bd 9b1a a83d 9893 cd3c
00000140: 3053 0dbd 62fb 1dbd 971d f4bc c212 0fbd
00000150: 4015 17bd 4bc5 0f3c 972c 27bd 5b22 393d
00000160: ab98 a33d 546a 69bd 133d 843d db1d 1bbd
00000170: f3f7 073c 1777 943d 40f1 073d 2cc9 6bbd
00000180: 73b4 2f3d 0fd5 8cbd 8019 8ebc 5a74 443c
00000190: 39c5 3bbd d572 a1bd 188b 613c 18f3 36bd
000001a0: d3ac 10bd 3d4f 40bc de59 a1bd 6034 9dbd
000001b0: d872 b4bd 2d19 1a3d 90f3 393d 2443 7e3d
000001c0: 15d0 a1bd 9c99 7ebd 45e0 ea3c 0cc0 97bc
000001d0: 7aca 943c 28fb 413c 0de6 743d edac 5a3c
000001e0: 500f cdbb 2445 e53c 9472 6dbd 029f a9bd
000001f0: f533 94bd c2ff 313d 43df 8b3d c45d a63c
00000200: 9b15 763d e31a 8b3d 9adb 6a3d 6891 c4bc
00000210: 4e5c b2bd 8e2c b73c 01db 683d 3937 7c3c
00000220: 9435 e7bc 7277 99bb dc7a 89bd 3b8d 863b
00000230: 1cc7 f9bb 9932 823d 576c 99bd e020 e3bc
00000240: 5b5e 17bd 61d1 99bd a835 3d3c 107d 15bc
00000250: b583 9b3d 61c3 8f3c 0e22 3dbd e661 b1bc
00000260: a836 aebd 18c1 4abd 0195 e23c 9eaa 14bd
00000270: 014d 3cbd 1794 9a3d c26d 323d 8c8e a4bd
00000280: 41ce 8a3d 1519 c03c e984 b03d 4021 333d
00000290: ecbf 2c3a 7ebc 23bd 41e2 8fbd cdc6 c23b
000002a0: d395 883d 5e22 09bd fb6e ae3d fcc5 c7bc
000002b0: 2a9e 383d f6f4 903d e234 dabc 4094 b1bc
000002c0: 0933 823d 51ab 7abd c67f 1fbc b86f a23d
000002d0: d8be 353c 80f4 96bd 3d10 13bd bca7 dbbc
000002e0: 9ec2 003d 5dd2 abbd 6c50 8abd 6db8 80bd
000002f0: 9d40 83bd 8875 45bd c634 2bbd 6a26 b8bc
00000300: 8c8f 7bbd ce9b 4abd 32a3 a8bd 71be 94bb
00000310: 107c 85bd aba6 9e3d 861e 40bd f5ec 7abb
00000320: 6006 123c f490 d43c e2b7 80bc 5a50 54bd
00000330: f1ad 1c3d 240c 70bc 5096 01bc 500f 9abd
00000340: 4f07 a73d 3963 773d 1016 8d3d 4c4b 19bd
00000350: af18 a5bd ace6 25bd 430d 4dbc 584e b93d
00000360: 2644 55bd 4b4a 16bd 3717 773d 3dff dd3c
00000370: daee 4bbb 6dba 61bd 9a04 75bd 4a51 e8bc
00000380: ac20 283d d050 463d b189 1f3d e48c 843d
00000390: e004 b43d 25e6 cdbc d673 0bbd 42f4 14bd
000003a0: e7da 633d d1ba aebc 800b 9abd 98b5 59bd
000003b0: 6cb2 04bd 4446 04bd 8ee7 943d a133 88bd
000003c0: 059a 44bd d269 9eb9 4f34 74bd dac7 4d3d
000003d0: 0a9d 443c be6b 57bd 496c 98bd 009b 7e3a
000003e0: 1f46 833d 16fa 583d e98f 98bd f6a3 8b3d
000003f0: b229 8abd c846 23bd 3354 afbd 987d 923d

fc2.weight f4 [1, 256]
-0.0013011768 -0.03566915 0.024090009 0.059878733 -0.028628737 0.033454813 0.019737907 -0.06567809
-0.02463013 -0.013557557 0.05657551 0.049429417 -0.04701338 -0.053967472 -0.015087037 -0.06128023
-0.03905521 -0.059994396 -0.03820801 0.042422082 0.014271714 0.003380862 -0.016721457 -0.0011359134
-0.045495477 -0.033519473 0.0014156224 0.048068605 0.04291729 -0.015104968 0.045942355 -0.043808095
0.032354612 -0.011470452 -0.056260243 0.0466227 0.036615666 -0.020126408 0.0049357144 0.0037846423
-0.045838658 -0.02068734 -0.0662691 -0.04639814 -0.00072963536 -0.033200897 0.028235711 -0.05506193
-0.04609309 -0.030691538 0.023987934 -0.0003460238 -0.053816658 0.057765633 0.021708636 -0.05005392
0.058979418 -0.0021127933 -0.039005376 -0.05766985 0.04330676 0.012631012 -0.062368903 0.052938633
0.041373458 0.04908624 -0.05199133 0.026430408 -0.055688333 0.034236696 -0.0572294 0.037151046
0.006058677 -0.061763886 -0.033064988 -0.026498007 -0.012254871 0.053616118 -0.029877538 -0.05208372
-0.03580626 -0.03425308 0.03093842 0.010025729 0.044966802 -0.045591705 0.013523108 -0.0321405
0.024755184 -0.036178265 -0.010409881 -0.043821886 0.0042590424 -0.060864627 -0.0050939512 0.0006726768
-0.0074922373 0.056996524 0.00891537 0.029951816 0.031015966 0.05258786 0.022488426 0.03287026
0.022934156 0.03465483 0.037971526 0.03127557 -0.049782626 -0.04489002 0.003528743 -0.02716532
-0.02295132 0.0032887782 -0.04179713 0.03264998 -0.012257837 0.010141902 0.0117945485 0.060658775
-0.042067472 0.022723189 -0.040881667 -0.02253218 0.046901185 -0.018804006 -0.003022005 -0.0067135906
-0.043860383 -0.016213043 0.046179295 0.008310348 0.04779329 0.014066546 0.021093445 0.015181645
0.055937734 0.031912647 -0.0239589 0.017435832 -0.0237711 -0.020826276 -0.03693592 0.05935275
0.03503158 0.009465782 0.008393124 0.046094015 -0.01919787 0.04519377 0.034955617 0.049053103
-0.013105056 -0.018491875 -0.037828285 0.055302948 0.060633756 -0.013081284 0.022885205 0.03350893
-0.001085066 0.039621163 -0.025496196 -0.0626919 -0.0658024 0.0027122437 -0.0015690351 -0.04335897
0.058424857 -0.0314757 -0.018099826 -0.03959035 0.052228726 0.037397 0.006973109 0.059892226
0.04198107 -0.03298715 0.036937654 0.0180666 0.016197369 0.03805873 0.014350164 0.04859575
0.054373838 0.003482793 -0.037563942 -0.05170635 0.03516667 0.02072341 0.00073609565 -0.0029426788
0.036514465 0.061554126 0.027136631 -0.04864355 -0.02268067 0.042153787 0.034818523 0.015299019
0.057146646 -0.034821823 -0.056798123 0.0066614137 0.02837725 -0.012586642 -0.04228212 -0.00085688115
-0.055002667 0.051788833 0.05696815 0.04932908 -0.02903606 -0.029546726 -0.022132834 -0.019235792
0.0075611286 0.00479667 0.052044436 -0.018908693 -0.039628975 -0.0510097 0.030979952 0.030356051
-0.052417893 -0.039408486 0.048611827 9.807726e-05 -0.03394294 0.051541686 0.045999464 -0.017702349
-0.045168098 -0.0418504 -0.04463102 -0.041261546 0.048380557 0.056694023 -0.0040061884 -0.05056029
0.008468847 0.0040872223 -0.04404658 0.029289026 0.0009225441 0.062406443 -0.041032717 0.025534108
-0.056442983 0.03296604 0.041305996 -0.019903008 0.023565704 0.051219232 -0.034766205 0.030296415
00000000: 408c aaba d119 12bd 6958 c53c 6743 753d
00000010: d086 eabc ea07 093d 64b1 a13c 3c82 86bd
00000020: 20c5 c9bc 8420 5ebc b9bb 673d 8076 4a3d
00000030: 1a91 40bd ff0c 5dbd 9f2f 77bc fa00 7bbd
00000040: 5bf8 1fbd afbc 75bd 0180 1cbd c7c2 2d3d
00000050: e8d3 693c 7491 5d3b 70fb 88bc eee2 94ba
00000060: 7759 3abd b74b 09bd 688c b93a 96e3 443d
00000070: 0aca 2f3d d47a 77bc 0d2e 3c3d 1e70 33bd
00000080: 4586 043d 90ee 3bbc 2471 66bd 72f7 3e3d
00000090: 4ffa 153d 23e0 a4bc c6bb a13b c307 783b
000000a0: 51c1 3bbd 7f78 a9bc 18b8 87bd fa0b 3ebd
000000b0: 0045 3fba aafd 07bd 944e e73c 9e88 61bd
000000c0: 1ccc 3cbd d26c fbbc 5882 c43c 876a b5b9
000000d0: db6e 5cbd a89b 6c3d 4fd6 b13c 5705 4dbd
000000e0: 6794 713d ca76 0abb 1ac4 1fbd 3837 6cbd
000000f0: 6e62 313d 4ef2 4e3c 8976 7fbd 2ed6 583d
00000100: 3777 293d a70e 493d dcf4 54bd 9584 d83c
00000110: 7319 64bd c73b 0c3d 6069 6abd b22b 183d
00000120: de87 c63b 21fc 7cbd 276f 07bd 5912 d9bc
00000130: a8c8 48bc 939c 5b3d bdc1 f4bc bd55 55bd
00000140: 96a9 12bd f54c 0cbd 9272 fd3c f542 243c
00000150: 1c2f 383d 5ebe 3abd 0790 5d3c c2a5 03bd
00000160: 62cb ca3c a92f 14bd 358e 2abc 947e 33bd
00000170: 708f 8b3b 304d 79bd 29eb a6bb 9356 303a
00000180: 7181 f5bb 3075 693d c611 123c 835d f53c
00000190: 3215 fe3c 5e66 573d a639 b83c f7a2 063d
000001a0: 69e0 bb3c 39f2 0d3d 0888 1b3d d01a 003d
000001b0: dee8 4bbd 99de 37bd 7c42 673b ce89 debc
000001c0: 6804 bcbc 8b88 573b 7833 2bbd fcbb 053d
000001d0: 18d5 48bc 382a 263c ec3d 413c 5675 783d
000001e0: f14e 2cbd fb25 ba3c 8973 27bd 6895 b8bc
000001f0: 751b 403d dc0a 9abc d50c 46bb aefd dbbb
00000200: f2a6 33bd 37d1 84bc 8026 3d3d 2028 083c
00000210: e6c2 433d 5f77 663c 29cc ac3c 6fbc 783c
00000220: f71e 653d d6b6 023d 7445 c4bc 97d5 8e3c
00000230: 9cbb c2bc de9b aabc 1f4a 17bd df1b 733d
00000240: 467d 0f3d 5e16 1b3c 5083 093c 14cd 3c3d
00000250: da44 9dbc 1a1d 393d 9f2d 0f3d e8eb 483d
00000260: 97b6 56bc 467c 97bc d5f1 1abd 5885 623d
00000270: 1a5b 783d e252 56bc c179 bb3c a940 093d
00000280: c638 8eba cd49 223d 66dd d0bc 9c64 80bd
00000290: 69c3 86bd e6bf 313b 15a8 cdba 2d99 31bd
000002a0: e74e 6f3d aaec 00bd 1646 94bc 7e29 22bd
000002b0: caed 553d 992d 193d ae7e e43b 8d51 753d
000002c0: 58f4 2b3d 891d 07bd f04b 173d 6800 943c
000002d0: 58b0 843c 79e3 1b3d f31c 6b3c 560c 473d
000002e0: 1ab7 5e3d 923f 643b a6dc 19bd 0aca 53bd
000002f0: ed0a 103d 24c4 a93c 8bf6 403a f5d9 40bb
00000300: 3190 153d 2e20 7c3d a44d de3c 763e 47bd
00000310: d0cc b9bc 73a9 2c3d de9d 0e3d bda8 7a3c
00000320: 9a12 6a3d 54a1 0ebd 26a5 68bd fd47 da3b
00000330: 6877 e83c 3438 4ebc 0430 2dbd 52a0 60ba
00000340: 7a4a 61bd 8720 543d 6f57 693d 4a0d 4a3d
00000350: 08dd edbc fa0b f2bc eb4f b5bc 6194 9dbc
00000360: 58c3 f73b 622d 9d3b 8c2c 553d 67e6 9abc
00000370: fe51 22bd 8cef 50bd abc9 fd3c 41ad f83c
00000380: 25b4 56bd cb6a 21bd 321d 473d d4ae cd38
00000390: c107 0bbd 601d 533d ef69 3c3d 8404 91bc
000003a0: 2f02 39bd 536b 2bbd 04cf 36bd de01 29bd
000003b0: b12a 463d fe37 683d 5846 83bb 4f18 4fbd
000003c0: ebc0 0a3c 1bee 853b 306a 34bd 8aef ef3c
000003d0: e3d6 713a e69d 7f3d ec11 28bd e82c d13c
000003e0: c230 67bd 6607 073d 7a30 293d a20b a3bc
000003f0: dd0c c13c 42cb 513d 0267 0ebd 3030 f83c
