models/DDQN.pth (torch, 2296 bytes, 4 tensors)

fc1.weight f4 [16, 4]
000000 02 27 8a be f0 2f 09 3e ba e0 a5 3f a9 fe bb 3e
       -0.26982886 0.13397193 1.2959206 0.36717728
000010 ec 37 cb bf d0 57 13 3f 84 51 38 3e 78 a3 b8 3e
       -1.5876441 0.57555866 0.17999846 0.36062217
000020 35 01 0a bf 4a 26 97 3e f8 5f 18 3f fd 14 cd be
       -0.5390809 0.295214 0.59521437 -0.40055075
000030 98 98 4f 3e a0 9d 2b 3e 66 82 71 c0 a0 20 21 3d
       0.20273054 0.16759348 -3.773584 0.039337754
000040 68 2c 90 3e bf fd a2 be 13 9c e6 3c 0e 42 52 bf
       0.2815888 -0.31834218 0.028150594 -0.8213204
000050 0b 7e a1 3e 4b a9 f8 be 95 ec 68 bf ea 3b af be
       0.31541476 -0.4856666 -0.90985996 -0.34225398
000060 61 8e 62 3e 00 b2 28 be b1 f4 e4 3f 0d c7 9f be
       0.22124626 -0.16474152 1.7887174 -0.3120655
000070 b3 90 26 be d8 dd 92 bc 8d a7 00 c1 74 ca ca bf
       -0.16266136 -0.017928049 -8.040906 -1.5843034
000080 8c 17 ca 3f 7b 2f f4 be cb 1a a1 3f 8c 7b 51 be
       1.5788436 -0.47692475 1.2586302 -0.20457286
000090 97 59 11 3e 9d 33 a7 bd a2 7b b8 40 85 67 c4 3e
       0.14194332 -0.08164141 5.765092 0.3836023
0000a0 4a 96 88 be 64 49 d3 be f8 30 07 3f 86 34 a7 be
       -0.2667716 -0.4126693 0.52809095 -0.3265726
0000b0 6f 9d 04 c0 26 61 52 3f 06 80 83 40 28 11 18 3f
       -2.072109 0.82179487 4.109378 0.5940118
0000c0 35 04 64 3e 58 43 61 be 86 f6 16 bd bf cb 95 3e
       0.2226723 -0.21998346 -0.036856197 0.29257008
0000d0 28 77 ef bd a4 6e 41 be 89 0e 00 be 9f bd 30 be
       -0.11692649 -0.18889862 -0.12505545 -0.17259835
0000e0 6e d8 20 be 3a 8f ac 3c 80 7c 44 be 16 2a c3 3d
       -0.15707561 0.02106439 -0.19188118 0.09529512
0000f0 b7 0d 8a be 90 67 47 3d 5c 6f 22 40 24 ad 0e bf
       -0.2696359 0.04868275 2.5380468 -0.5573294

fc1.bias f4 [16]
000000 cb c9 a9 3f d7 b0 45 bf 44 ff 7f 3d f7 68 3d 3f
       1.3264707 -0.7722296 0.0624993 0.7398829
000010 c7 49 cb 3f 0c e7 65 be 51 e3 08 bf 3f 22 33 be
       1.588189 -0.22451419 -0.5347186 -0.17493533
000020 60 1b 84 bd 90 6f 61 bf 2a ed e0 bd 9f d4 44 bf
       -0.06450534 -0.88060856 -0.109827355 -0.76886934
000030 b1 da 0f bf 97 85 d7 be 20 8b 90 be d1 66 ed 3d
       -0.5619307 -0.42094108 -0.28231144 0.11591876

fc2.weight f4 [2, 16]
000000 34 2b 3b 3f 09 2a 11 be b0 bd d4 be 5f 1a b6 3e
       0.731128 -0.14176191 -0.4155097 0.35566995
000010 62 d1 c5 3e a4 9c c3 bb 30 a8 4b be 85 89 49 3e
       0.3863631 -0.0059696008 -0.19888377 0.19681366
000020 c6 a6 46 bd 9c f6 39 bf c4 2f b1 be 4a ed 73 bf
       -0.04849889 -0.7264192 -0.34606755 -0.9528395
000030 a2 b7 36 3e 18 8d d2 be 14 0c 57 3b 7a c6 c1 3e
       0.17843488 -0.4112327 0.0032813596 0.37846738
000040 dd d0 b0 3f 22 97 a8 bb a0 97 f6 3d 29 ae f9 be
       1.381374 -0.0051449696 0.12040639 -0.48765686
000050 23 1a 88 be f0 b6 64 3e 7f 1b 31 3e 2e a3 e2 3e
       -0.2658244 0.2233541 0.17295645 0.4426512
000060 88 6a cf 3e 1d bd 06 c0 e7 dc 8b 3d 85 d8 3a bf
       0.40510964 -2.1052926 0.06829243 -0.7298663
000070 30 41 33 3e 15 37 26 3e 66 59 e7 3d 23 ac 13 3f
       0.17505336 0.1623195 0.11296348 0.57684535

fc2.bias f4 [2]
000000 f2 4b 13 3f e7 df 1b 3f
       0.5753776 0.6088852
