models/DDQN.pth (torch, 2296 bytes, 4 tensors)

fc1.weight f4 [16, 4]
000000 02 f7 91 be e8 3d 10 be 87 d7 62 3e 87 ca 90 3e
       -0.28508765 -0.14086115 0.2215253 0.28279516
000010 e1 12 7b 3f 7f 33 3f 3e 0f 93 4a c0 05 ef df be
       0.9807568 0.18671988 -3.1652257 -0.43737045
000020 d4 a8 f2 be 89 3a ae be 4e d1 6b 3f e3 23 79 3e
       -0.4739443 -0.34029034 0.9211625 0.24330096
000030 e2 a0 28 3e 39 f2 4c 3e 91 51 8d bf 55 69 a6 3e
       0.16467622 0.20014276 -1.1040517 0.32502237
000040 2f 4e 16 3f ca 6d 83 bb 30 19 55 3e 33 c5 60 3e
       0.5871305 -0.0040108906 0.2081039 0.21950226
000050 0d 36 9f 3e 87 cb db bd 28 1b 9c 3e 41 a5 b4 bd
       0.31095925 -0.10732179 0.3048947 -0.08820582
000060 23 63 9c 3e 2a c7 8e 3d 42 f2 1e 3f 04 df 63 3e
       0.30544385 0.06971581 0.62088406 0.22253042
000070 8e 90 61 bf 4f b5 16 3f da fa 7a 3e 67 58 bb 3d
       -0.881112 0.58870405 0.24509755 0.09147721
000080 16 3e 71 3e b4 bf a5 bd 28 fc 2e 3f be 83 21 bd
       0.2355884 -0.08093205 0.6835351 -0.03943228
000090 38 e6 2a bf 5d 60 a1 be 40 67 33 3f 0e c7 f7 bd
       -0.66757536 -0.31518832 0.7007942 -0.120985135
0000a0 32 d4 32 be e7 b7 68 3e d2 6c c2 bc eb fa 06 3e
       -0.17463759 0.22726403 -0.02373353 0.13181655
0000b0 47 14 83 be 6c 70 96 3e 08 a4 fe 3f 52 c7 2a bf
       -0.25601408 0.29382646 1.9893808 -0.6671039
0000c0 9c 51 d8 3e 84 83 ae 3e 3c ca af 3f a9 d0 67 be
       0.42249763 0.34084713 1.3733592 -0.22638191
0000d0 52 dc 90 3e 11 08 9c 3e fc 08 3a 3f 5a 04 7b 3d
       0.2829309 0.30474904 0.7266996 0.061283447
0000e0 ef 00 4f 3f e1 75 a5 bd 03 e9 1a c0 5b 7b ff bd
       0.808608 -0.08079124 -2.420472 -0.124747
0000f0 a9 40 46 bf 49 7e e2 3e 8f c2 d6 3f 75 92 14 be
       -0.77442414 0.44236973 1.6778125 -0.14508994

fc1.bias f4 [16]
000000 14 3d d2 3e 0c f9 76 bf 05 38 e3 be f4 42 be 3e
       0.41062224 -0.96473765 -0.44378677 0.37160456
000010 b0 e1 6f 3f a5 71 9d bd b0 f9 83 3f 5f 81 8f 3f
       0.93703747 -0.076876916 1.0310574 1.1211356
000020 1e 9b 2a 3f 9d 22 1d 3f 78 c7 3f be e9 e2 33 3f
       0.6664294 0.6138094 -0.18728435 0.7026811
000030 b1 b2 0b bd 82 a4 60 3f c5 02 3f be 69 52 ba 3e
       -0.03410596 0.8775102 -0.186534 0.36391

fc2.weight f4 [2, 16]
000000 4c 45 39 3f e1 87 14 c0 65 07 6a bf 79 eb 74 3f
       0.72371364 -2.3207934 -0.91417533 0.956718
000010 27 b6 8b 3f 84 69 eb 3d 75 4e 7f 3f 30 69 ee 3c
       1.0914963 0.11494735 0.9972909 0.029102892
000020 da 5f 3b 3f 87 b2 87 bd 6e 08 47 be b9 98 eb 3e
       0.7319313 -0.06625848 -0.1943681 0.46014956
000030 eb 40 a8 3f 74 28 dc 3e c8 d1 12 c0 e4 9f 09 3f
       1.3144811 0.42999613 -2.294054 0.537596
000040 e8 ac 80 3f 23 47 3c c0 d9 98 f7 be ab 2a e0 3e
       1.0052767 -2.9418418 -0.483588 0.43782553
000050 d4 0d 1b 3f ae b3 8e bd 6f e7 6e 3f 81 5f 0e 3f
       0.60567975 -0.06967865 0.9332189 0.5561448
000060 50 8d 0f 3f 0d e6 e2 3e c8 e9 6f 3e d4 e6 c3 3e
       0.56075 0.4431614 0.23429024 0.38262045
000070 f4 c4 5b 3b 17 40 1c 3f dc 6e 36 c0 01 04 c8 3e
       0.0033534141 0.61035293 -2.8505163 0.39065555

fc2.bias f4 [2]
000000 8b fc c2 3e 10 35 17 3f
       0.380833 0.5906534
