models/DDQN.pth (torch, 2104 bytes, 3 tensors)

fc1.weight f4 [16, 2]
0.46631628 -0.2765285 0.4823634 -0.0359028 0.1502734 0.5333898 -0.31695482 -0.2438188
0.18649605 0.45666793 0.33788818 -0.5738338 0.61013544 0.56300104 -0.5983117 0.07967162
0.18676114 0.559583 -0.06218883 0.6155763 0.62768 0.38365144 0.3202167 0.3259892
0.19478343 -0.18627718 -0.660069 -0.23753853 0.61377424 -0.07858962 0.52989644 -0.085795045
00000000: 02c1 ee3e 2595 8dbe 56f8 f63e d00e 13bd
00000010: 45e1 193e 3c8c 083f e747 a2be a3ab 79be
00000020: d2f8 3e3e 61d0 e93e aeff ac3e c6e6 12bf
00000030: d631 1c3f d620 103f f52a 19bf e02a a33d
00000040: 503e 3f3e d540 0f3f b7b9 7ebd 6996 1d3f
00000050: a3af 203f f66d c43e 71f3 a33e 0ee8 a63e
00000060: 4f75 473e 72bf 3ebe 48fa 28bf 4d3d 73be
00000070: 4f20 1d3f 98f3 a0bd 4ba7 073f 50b5 afbd

fc1.bias f4 [16]
-0.5060483 -0.072377086 0.60514253 -0.05572613 0.33220965 0.29509634 0.60765725 -0.16797216
-0.6742491 0.44993588 -0.04010272 0.28781474 0.47715154 -0.6046198 -0.546319 -0.6457027
00000000: 628c 01bf 703a 94bd 9fea 1a3f 1541 64bd
00000010: 6217 aa3e de16 973e 6d8f 1b3f e500 2cbe
00000020: 979b 2cbf ff5d e63e c042 24bd 745c 933e
00000030: 354d f43e 5dc8 1abf 90db 0bbf c64c 25bf

fc2.weight f4 [1, 16]
0.09203005 -0.23192042 -0.21026117 -0.2094945 -0.15183552 -0.07057634 0.12610207 -0.015678205
-0.058003634 0.036229804 -0.12243992 -0.04261256 -0.016683951 -0.14134835 0.0689843 -0.21358451
00000000: 407a bc3d 8c7c 6dbe b44e 57be ba85 56be
00000010: c57a 1bbe 548a 90bd e720 013e 946f 80bc
00000020: 3895 6dbd b465 143d c8c1 fabd 828a 2ebd
00000030: c8ac 88bc 9fbd 10be a447 8d3d e6b5 5abe
