models/DQN.pth (torch, 2288 bytes, 4 tensors)

fc1.weight f4 [16, 4]
1.6463912 -0.61543894 -4.385258 -0.08728543 -1.0636634 -0.28452548 -2.3220334 -0.78019154
3.6902628 0.86599094 -4.155511 -0.39768142 -1.3231549 -0.41838273 1.4131151 0.45540977
0.06957725 0.012685177 0.07828302 -0.1955291 1.1952168 -0.5393565 -7.928929 -0.66073716
-0.30863214 0.021744134 7.356387 -0.26910692 1.3158932 -1.2823708 -6.718799 -1.6299479
0.057617206 0.15046042 -0.15107304 0.16736403 -0.16760126 0.2034067 9.628639 0.2153998
-0.13284555 -0.31214157 0.51675886 0.00425614 -0.06887557 -0.17695954 10.925609 0.7036218
-1.4952382 0.13307971 1.5092822 0.8064059 -0.29337472 0.3370362 7.837956 1.1332818
0.018571075 0.07537737 -0.8759899 0.11924959 0.30266017 -0.11836227 -0.30152756 -0.03492018
00000000: f2bc d23f 688d 1dbf 0954 8cc0 b4c2 b2bd
00000010: 1f26 88bf 53ad 91be 329c 14c0 a2ba 47bf
00000020: 442d 6c40 95b1 5d3f f2f9 84c0 e69c cbbe
00000030: 245d a9bf 4336 d6be f5e0 b43f 782b e93e
00000040: 847e 8e3d 7dd5 4f3c d952 a03d c838 48be
00000050: ddfc 983f 4513 0abf c9b9 fdc0 1226 29bf
00000060: 0805 9ebe c120 b23c 8667 eb40 62c8 89be
00000070: 306f a83f ba24 a4bf 6700 d7c0 22a2 d0bf
00000080: 0500 6c3d 4c12 1a3e e4b2 1abe 7a61 2b3e
00000090: aa9f 2bbe d949 503e e80e 1a41 c491 5c3e
000000a0: aa08 08be 05d1 9fbe 4f4a 043f 1777 8b3b
000000b0: a30e 8dbd e234 35be 4bcf 2e41 8f20 343f
000000c0: f763 bfbf 0c46 083e 2930 c13f 9e70 4e3f
000000d0: 3635 96be 0290 ac3e 89d0 fa40 610f 913f
000000e0: 5e22 983c 735f 9a3d e040 60bf 2139 f43d
000000f0: 46f6 9a3e eb67 f2bd d261 9abe 7608 0fbd

fc1.bias f4 [16]
-0.9778741 -2.124422 -2.1461408 0.3655741 -1.0807652 -2.725314 -2.2464037 -1.1698984
-0.97525525 -2.6950321 -0.9475018 -2.3715863 0.7471511 -1.7352298 3.35831 -0.6359422
00000000: f555 7abf 88f6 07c0 5f5a 09c0 872c bb3e
00000010: 8456 8abf 8b6b 2ec0 14c5 0fc0 3bbf 95bf
00000020: 54aa 79bf 687b 2cc0 7a8f 72bf 12c8 17c0
00000030: 4b45 3f3f 031c debf 8dee 5640 1ccd 22bf

fc2.weight f4 [2, 16]
2.2762299 -1.5690536 -1.242049 0.061978947 0.43504113 -0.2896274 -4.753353 -3.6953847
0.079368 -10.200077 -0.24952708 -20.804255 -0.5404825 -8.51394 1.8158897 0.094191305
0.56905264 0.58243847 -1.1768266 -0.6129448 0.030700685 3.936672 -11.636484 -3.1483192
0.1332222 -15.839347 0.1548421 -9.224355 0.33138222 -1.8763554 1.743658 -0.1302794
00000000: c0ad 1140 c0d6 c8bf 76fb 9ebf a3dd 7d3d
00000010: b6bd de3e 0b4a 94be 781b 98c0 2f81 6cc0
00000020: b18b a23d 8433 23c1 0784 7fbe 1d6f a6c1
00000030: 105d 0abf 1939 08c1 136f e83f 5fe7 c03d
00000040: 6fad 113f b01a 153f 41a2 96bf f3e9 1cbf
00000050: 0180 fb3c 6ff2 7b40 0a2f 3ac1 107e 49c0
00000060: 676b 083e f76d 7dc1 ed8e 1e3e f596 13c1
00000070: eeaa a93e 6a2c f0bf 2f30 df3f f767 05be

fc2.bias f4 [2]
4.4219174 4.2593117
00000000: 5980 8d40 484c 8840
