models/DQN.pth (torch, 2288 bytes, 4 tensors)

fc1.weight f4 [16, 4]
000000 a0 96 ca bd 00 5b a1 bb cc 9a ad be 18 37 98 be
       -0.09892011 -0.004924178 -0.33907163 -0.29729533
000010 b2 13 ee be a6 38 c0 be 6a 53 89 3e c4 c8 9d be
       -0.464994 -0.3754322 0.26821452 -0.30817235
000020 54 d6 6a 3e 0c a1 a1 be 0c 8a 7d 3e 00 c0 3c 3b
       0.22933322 -0.31568182 0.24759692 0.0028800964
000030 52 c1 dd be 48 f0 ef 3e 60 ca 95 3c c8 25 8c 3d
       -0.43311554 0.46863008 0.018284976 0.06843144
000040 f8 fc ef 3e 38 8b 1b be c0 db 0d bd b4 2a 4d be
       0.46872687 -0.15189826 -0.034633398 -0.20035821
000050 48 4d bc be a8 3e c2 bd cc 31 b7 be 20 ed 83 bc
       -0.3677771 -0.09484607 -0.3578018 -0.016104281
000060 9a 49 8f 3e 20 06 a4 bd 20 25 ef 3e 32 ce b8 be
       0.2798584 -0.08008981 0.46708012 -0.36094815
000070 90 0d 6c 3d 98 26 fe 3d 9a 32 b2 be 90 a4 5b bd
       0.05763012 0.12409705 -0.3480423 -0.053623736
000080 30 eb 46 be 5a 9d a0 be b0 f3 e4 3e b8 d6 80 bd
       -0.19425654 -0.3137005 0.4471717 -0.06290954
000090 fa f6 e3 3e 88 a4 f0 3e 64 36 ed be b0 3d bd 3d
       0.44524366 0.47000527 -0.4633056 0.092402816
0000a0 2c b8 09 be 56 cc c2 3e be 7b cc 3e 66 ca fc 3e
       -0.13449162 0.3804652 0.39938158 0.49373168
0000b0 48 34 2b be 62 f0 99 be a0 51 82 3e ca 9f fe 3e
       -0.16719162 -0.3006621 0.254529 0.49731284
0000c0 ac a4 3c be 46 75 cc 3e a2 56 a9 3e 98 ca 6d 3e
       -0.18422192 0.39933223 0.33073908 0.23221815
0000d0 08 91 d9 3d fa be d4 3e 18 df 0a 3e 44 04 e2 be
       0.10623366 0.41551954 0.13561666 -0.4414388
0000e0 94 ef b4 be 16 69 82 be de a1 c5 be 98 0c 0d 3e
       -0.35339034 -0.254708 -0.38600057 0.13774335
0000f0 c6 8d e2 3e 28 3b fe bd f4 96 14 3e 28 90 36 be
       0.4424879 -0.12413627 0.14510709 -0.17828429

fc1.bias f4 [16]
000000 84 0a dc 3e f8 1b 70 be 8a 74 e9 3e f8 22 d8 3d
       0.42976773 -0.23448169 0.45596725 0.10553545
000010 30 c5 fc be 7e e7 e5 be 78 97 6d be a0 98 61 be
       -0.49369192 -0.44903177 -0.23202312 -0.22030878
000020 74 48 5e be 60 1d ca 3d f6 1b d5 3e b8 72 4b be
       -0.21707326 0.09868884 0.41622895 -0.1986798
000030 40 7c 5d 3c 88 61 d6 3d f4 0c e3 be 48 dc 8b bd
       0.013518393 0.10467821 -0.4434582 -0.06829125

fc2.weight f4 [2, 16]
000000 c0 e1 b3 3c 6c bf 7e 3e 0c eb 20 be c2 85 4c be
       0.021958232 0.24877709 -0.15714663 -0.199729
000010 6c 16 b2 bd 48 d1 c5 bd 70 d8 d4 3d 60 8b 2e 3e
       -0.08695683 -0.09659058 0.10392845 0.17045355
000020 80 0f ce bb 80 c6 fb bc f8 d0 f6 bd 54 df e8 bd
       -0.006288469 -0.0307343 -0.120515764 -0.113707215
000030 f4 09 8d bd 34 d5 5d be 10 db 4b bd d8 3f f7 3d
       -0.06886664 -0.21663362 -0.04976946 0.12072724
000040 d8 ab 63 3e fa ad 46 be ae cf 29 be a8 f4 64 be
       0.22233522 -0.19402304 -0.1658313 -0.22358954
000050 2c 80 f1 3d 80 3a c8 bc 62 a1 16 3e 8e 2b 7b be
       0.11792025 -0.024441957 0.1471 -0.24528334
000060 ce 92 72 3e 08 95 00 be b4 ae e3 bd c0 af 13 bd
       0.23688814 -0.12556851 -0.11117306 -0.03605628
000070 6e 69 0d be 80 17 49 be 8c 5e 7a 3e ba 8a 22 be
       -0.1380975 -0.19637871 0.2445013 -0.15873232

fc2.bias f4 [2]
000000 4a 56 2c 3e fc 8f 4b be
       0.16829792 -0.19879144
