models/DQN.pth (torch, 2288 bytes, 4 tensors)

fc1.weight f4 [16, 4]
000000 d3 ce db bd 50 b2 38 3e 13 de 9d be c2 ae b0 3e
       -0.10732808 0.18036771 -0.30833492 0.3450833
000010 12 7f e6 3a 6d 63 a4 be 05 2f fe c0 d7 6c 22 bf
       0.0017585477 -0.32107106 -7.9432397 -0.63447326
000020 eb b8 54 3e 98 0d 0a bd 92 65 3a 3f f6 87 ef 3d
       0.20773666 -0.03370437 0.72811234 0.11695854
000030 7d c3 3d 3c 8b 57 84 3e b5 49 ac 3e f5 6a 94 bd
       0.011582253 0.2584804 0.33649984 -0.07246963
000040 11 a4 e5 bc 31 c5 69 be e4 ef 61 3e 1f 15 66 be
       -0.028032335 -0.22829129 0.22064167 -0.22468995
000050 ab af 08 bd 16 56 88 be 19 e2 72 c0 f2 e0 d9 be
       -0.033370655 -0.26628178 -3.79505 -0.42554432
000060 c7 a6 d7 3e 1c 0b 73 be a0 e5 a8 c0 17 25 a2 3c
       0.4211943 -0.23734707 -5.2780304 0.019793076
000070 f7 4d 91 bd 20 30 01 be c9 72 91 c0 8a af 19 bd
       -0.07094949 -0.12616014 -4.545262 -0.037520923
000080 f5 ce 03 bf 9f 12 97 3e 33 04 58 c0 19 4c d9 3e
       -0.51487666 0.29506394 -3.3752563 0.4244087
000090 16 84 43 bc 2f 00 83 3e c0 5d 70 be 2a 11 66 3e
       -0.011933347 0.25586078 -0.23473263 0.22467485
0000a0 e6 23 57 be 20 b6 8f be 5c 7d 86 c0 1e cd d0 be
       -0.21009788 -0.28068638 -4.2028027 -0.40781492
0000b0 12 b4 0d 3e 56 6a b8 be 2a 52 1b c1 33 26 9f bf
       0.13838223 -0.36018628 -9.70756 -1.2433532
0000c0 84 57 12 3c d1 64 13 be fe fd 84 c0 8a 71 90 be
       0.008931998 -0.14393927 -4.156005 -0.28211623
0000d0 f1 db 69 bd d5 59 0a be 40 9f e8 bd 9a ca 4f be
       -0.057094518 -0.1351083 -0.113584995 -0.2029213
0000e0 8c be f3 3b 73 54 13 bd 31 58 6e c0 1d ca c1 3d
       0.0074384864 -0.03596921 -3.7241328 0.09462378
0000f0 11 62 31 be 01 0f 08 3f f2 3d 26 bf 2f 33 f6 3e
       -0.17322566 0.53147894 -0.6493827 0.48085925

fc1.bias f4 [16]
000000 9b 8b 76 bf e7 8b 6e 3f be 9a 4b bf 6f b1 a7 bf
       -0.9630677 0.93182224 -0.7953299 -1.3101023
000010 75 83 d3 bf 61 a3 be 3f a1 40 fa bf 5d 18 06 c0
       -1.6524493 1.4893609 -1.9550973 -2.095237
000020 86 1c f3 bf 74 c4 48 bf 2f 3c f9 bf f4 e5 b2 bf
       -1.899308 -0.78424764 -1.9471492 -1.3976426
000030 52 10 ba 3f 7d 9a 80 bf 88 fe af bf d6 c0 b1 bf
       1.453623 -1.0047146 -1.3749552 -1.3886974

fc2.weight f4 [2, 16]
000000 7c 31 63 be 46 17 23 bf 9e 40 8d bd b2 f7 1b be
       -0.22186846 -0.6370739 -0.068970904 -0.15231207
000010 c8 96 0f 3d 9f e0 3c 3f 7a 9f 8d c0 2a ab 12 c0
       0.035055906 0.73780245 -4.4257174 -2.291697
000020 8b 70 cb bf b1 b7 0d be 0a ae 57 bf e9 f7 2e bf
       -1.589372 -0.13839604 -0.8424994 -0.6834703
000030 e7 39 14 3f bc ca d0 3c 82 89 17 c0 ca 69 37 be
       0.5790085 0.025487296 -2.3677678 -0.17911449
000040 43 6f cd 3e 92 ab 1b bf 3c df 48 be ff 7b 38 be
       0.40123948 -0.6080867 -0.19616407 -0.18016051
000050 78 3c 11 3e aa 72 1d 3f c5 f7 4d 3f 06 06 43 bf
       0.14183223 0.6150309 0.8045619 -0.76181066
000060 e5 12 c7 3e 44 b4 6f bd 9b ba 83 bf 8b d9 f5 be
       0.38881603 -0.058521524 -1.0291322 -0.48017535
000070 6a d0 17 3f 86 07 8e 3d f3 55 80 be 9e 87 25 be
       0.5930239 0.06935029 -0.25065574 -0.16165015

fc2.bias f4 [2]
000000 67 bb 93 3f 3b 5e a6 3f
       1.1541566 1.2997507
