models/DQNPER.pth (torch, 2312 bytes, 4 tensors)

fc1.weight f4 [16, 4]
00000000: 1600 ecbe 4338 ad3e 2be6 a040 2f7e 3b3f
00000010: ada2 c13d dfc7 a4bb a9cd fcc0 487b 89be
00000020: e6aa 2f3e ccf8 92be 33c0 bebc 3d5f 86be
00000030: 39b7 923f ed5c f53d fef1 9a3f cda9 483c
00000040: f674 05bf 3d12 063f 7cde 0540 bbfa 213e
00000050: 22a9 c2bf 8e5c 223f 30e4 5c40 a957 0f3f
00000060: 78ee 7a3d 9210 de3d cb1b 1ebf 5c89 763e
00000070: 11e1 723f efb2 29bf 00f5 dac1 ade7 c1bf
00000080: a2a3 353e d2b2 113c e186 9041 35bb 2b3f
00000090: 6b65 433e 1319 f5be 796d 61c0 a7ad c9bd
000000a0: 36fd f73e b90a 4c3e 4a90 13bf 18ff 143e
000000b0: 0a72 7cbd 52a4 4a3e 7fd1 3e40 0dc1 80be
000000c0: d976 82be d198 cc3e 016b b0be cc6e 943d
000000d0: fdaf 2cc0 17aa 833d a12b 6bc0 22fe 633e
000000e0: 8b70 86bf cb41 733f bca9 8641 33ec e43f
000000f0: de6b 02b9 5f60 d33b 2a88 eb40 d338 b8bd
-0.46093816 0.33831987 5.0280967 0.73239416 0.09454856 -0.0050287093 -7.900105 -0.2685187
0.17155036 -0.28705442 -0.023285007 -0.26244536 1.1462165 0.11980615 1.21051 0.012247515
-0.52131593 0.5237158 2.0917044 0.15818302 -1.5207865 0.6342248 3.4514275 0.55993134
0.061262578 0.10843004 -0.6176116 0.24075836 0.94874674 -0.66288656 -27.369629 -1.5148827
0.17738202 0.008892732 18.065859 0.6708253 0.19081657 -0.47870693 -3.5223067 -0.09847575
0.48435372 0.19925965 -0.5764204 0.14550436 -0.061632194 0.19789246 2.9815366 -0.25147286
-0.254813 0.3996034 -0.34456638 0.07247695 -2.6982415 0.064289264 -3.674538 0.22264913
-1.0503095 0.9502227 16.832878 1.7884582 -0.0001243795 0.0064506973 7.3603716 -0.08995213

fc1.bias f4 [16]
00000000: bcfd b340 585c 61c0 bb01 83bf 7f76 87c0
00000010: d086 2dc0 826c 86c0 5478 9fbf 0144 adc0
00000020: abcf 72c0 8ba5 dbbf 78bd e8bf d38a a0bf
00000030: bb22 76bf 262b bfc0 5159 1940 874e f1bf
5.6247234 -3.5212612 -1.0234903 -4.233215 -2.7113533 -4.2007456 -1.2458596 -5.4145513
-3.793925 -1.7159895 -1.8182821 -1.2542366 -0.96146744 -5.974017 2.3960764 -1.885209

fc2.weight f4 [2, 16]
00000000: 8e59 2340 c1e8 b7c0 8174 833e 0adf b5c0
00000010: 7fa0 8dbf d87e a6c0 a9c1 503e d080 d5c0
00000020: d1e1 60c1 cc31 963c ee8a 12be b305 31bd
00000030: 9639 35be cc28 dcc1 dd57 d9bf 9445 92c0
00000040: 9103 4640 3cb3 d4c1 5b61 a5bd d61e 2dc0
00000050: 7b0d 5f3e 7d26 21c0 902e 303f 1a07 3ec1
00000060: 283b 2bc1 464c c2bf 0c2a 613d 759f 0dbf
00000070: 8c01 113e b1e5 10c1 9dcf c6bf fa3d cfc0
2.552341 -5.7471623 0.25674823 -5.6834764 -1.1064605 -5.202984 0.20386375 -6.671974
-14.055131 0.018334292 -0.1431081 -0.043218326 -0.17697749 -27.51992 -1.6979939 -4.5709934
3.0939677 -26.587517 -0.0807521 -2.705007 0.21782486 -2.5179741 0.6882105 -11.876734
-10.701942 -1.5179527 0.05497174 -0.5532144 0.14160746 -9.056077 -1.5532109 -6.4763155

fc2.bias f4 [2]
00000000: c787 2041 2e7d e740
10.033149 7.2340307
