models/DuelingDQN.pth (torch, 6180 bytes, 7 tensors)

fc1.weight f4 [32, 4]
-0.12744702 -0.18377347 0.014097621 -0.31294873 0.5412789 0.59346765 0.093215115 -0.21193203
0.507549 -0.33480474 -1.9339633 -0.46488157 0.015375435 -0.14929211 -1.4190364 -0.04303625
-0.1274904 -0.10902827 1.4083605 -0.2771728 0.015444109 0.0045007677 -0.3980209 0.18018417
-0.6515738 -0.22860576 1.6423166 -0.05753651 0.05005937 0.10589547 -0.93525404 -0.08916983
-0.0128540145 -0.43971634 -0.21571423 0.45585883 -0.4998764 0.40162355 0.31624088 0.21205929
0.13436414 -0.16510624 -0.62816733 0.23829694 -0.22446795 -0.134419 -1.1239578 0.28855628
0.1957194 0.22256628 0.99855334 0.03836761 0.13893412 -0.21077481 0.77547544 -0.2752543
-0.25126708 0.16547617 1.4011548 0.45204395 0.06752481 -0.322987 -0.4394307 -0.1941244
0.10241664 -0.11971057 -2.0027697 -0.17197599 -0.2939969 0.33578458 -0.27051508 0.28983343
-0.4962729 -0.5276793 0.14233771 -0.4010927 -0.0020439075 -0.102024674 0.89597476 0.29305148
0.07783066 -0.10942825 -1.2677863 -0.2072577 0.1773388 -0.44814864 0.23826534 -0.30199802
0.48066542 0.2496558 0.71200514 0.3177448 0.18489677 0.05362708 -1.5977643 -0.47158653
0.1524048 0.40545362 0.23161371 0.13312829 -0.08012734 -0.36684358 1.2176205 0.44598627
-0.10001577 0.55780905 -0.14628148 0.3535888 -0.14136896 0.2599593 -1.0531168 -0.3571766
-0.24171537 -0.07335489 1.8754532 0.09056685 0.8685645 -0.19268675 -1.3377249 -0.29545194
-0.40404475 -0.3153302 1.0159752 0.23276408 -0.23748815 -0.43968317 -0.25229916 -0.1522612
00000000: 7981 02be 1d2f 3cbe b5f9 663c d13a a0be
00000010: 4191 0a3f 7fed 173f 91e7 be3d b604 59be
00000020: bbee 013f 876b abbe 1c8c f7bf f504 eebe
00000030: 40e9 7b3c 08e0 18be fca2 b5bf c746 30bd
00000040: d88c 02be 374a dfbd 2845 b43f 98e9 8dbe
00000050: 4a09 7d3c 2d7b 933b 65c9 cbbe 3382 383e
00000060: 8acd 26bf a117 6abe 6e37 d23f 67ab 6bbd
00000070: 0e0b 4d3d b9df d83d cf6c 6fbf ac9e b6bd
00000080: a599 52bc 8022 e1be 31e4 5cbe 5466 e93e
00000090: cdef ffbe 9aa1 cd3e 53ea a13e 1226 593e
000000a0: c196 093e 9c11 29be 93cf 20bf 1d04 743e
000000b0: edda 65be 22a5 09be d9dd 8fbf a6bd 933e
000000c0: ab6a 483e 6ae8 633e 31a1 7f3f 5b27 1d3d
000000d0: bf44 0e3e 5ad5 57be 8f85 463f 22ee 8cbe
000000e0: 14a6 80be 9672 293e 0a59 b33f 4e72 e73e
000000f0: 734a 8a3d 8d5e a5be 10fd e0be 8cc8 46be
00000100: d1bf d13d d12a f5bd 612d 00c0 791a 30be
00000110: c386 96be f5eb ab3e f480 8abe 0c65 943e
00000120: 7b17 febe fe15 07bf fac0 113e 065c cdbe
00000130: 14f3 05bb 50f2 d0bd 9a5e 653f d80a 963e
00000140: ae65 9f3d eb1b e0bd d246 a2bf 5d3b 54be
00000150: 4d98 353e bd73 e5be d4fb 733e 7c9f 9abe
00000160: c719 f63e c5a5 7f3e f845 363f 72af a23e
00000170: 9455 3d3e 12a8 5b3d 8a83 ccbf ca73 f1be
00000180: 0110 1c3e 9e97 cf3e 252c 6d3e c852 083e
00000190: ce19 a4bd ecd2 bbbe fdda 9b3f 5058 e43e
000001a0: 11d5 ccbd 93cc 0e3f d0ca 15be 9709 b53e
000001b0: 06c3 10be 6319 853e 88cc 86bf dadf b6be
000001c0: 3c84 77be 173b 96bd da0e f03f 1d7b b93d
000001d0: 3e5a 5e3f ad4f 45be 923a abbf 7a45 97be
000001e0: f4de cebe f672 a1be 7a0b 823f b559 6e3e
000001f0: 1830 73be 271e e1be 5b2d 81be 5cea 1bbe

fc1.bias f4 [32]
0.6570192 0.3523921 -0.5719224 0.29204035 0.47209367 0.5666558 -0.3569849 0.5234228
0.5254384 0.3890013 -0.066687554 0.047909126 0.5346328 0.35714886 -0.3593518 0.4763454
-0.31611338 0.53092676 0.25964695 0.37627986 0.44825545 -0.17134026 0.46472672 -0.47327077
-0.285196 -0.08464846 0.43262076 -0.16860361 -0.3206169 -0.3823623 -0.13934377 -0.267273
00000000: 6932 283f bd6c b43e 8269 12bf 5086 953e
00000010: 43b6 f13e 5b10 113f bac6 b6be 09ff 053f
00000020: 2283 063f 2e2b c73e 7c93 88bd 5c3c 443d
00000030: b2dd 083f 37dc b63e f6fc b7be 8be3 f33e
00000040: 9dd9 a1be d1ea 073f 72f0 843e c1a7 c03e
00000050: bd81 e53e d273 2fbe a9f0 ed3e 8c50 f2be
00000060: 3605 92be 2c5c adbd 7880 dd3e 6da6 2cbe
00000070: e627 a4be fec4 c3be 22b0 0ebe 02d8 88be

fc2.weight f4 [16, 32]
-0.16699961 0.112887874 -0.041755006 -0.1623002 -0.07565051 -0.10123413 0.08621578 -0.05731313
0.10756336 0.05419606 0.115079686 -0.14869714 -0.03187184 -0.025405211 -0.03976443 -0.19586633
0.06959292 -0.082624614 -0.11815022 -0.115948044 -0.06894074 0.04535526 0.11104259 0.10353787
-0.15720834 0.050234348 -0.11631489 -0.108248934 -0.18927628 -0.07399026 -0.05779237 0.030709729
-0.23058875 -0.057227347 0.0681406 0.022961518 -0.23952526 0.047285847 -0.08259896 -0.00473788
0.118104294 -0.2636689 0.0890447 -0.1841755 0.10735226 -0.1844248 -0.21297245 -0.21440627
-0.27589643 0.041844446 -0.17055959 0.048019294 0.12641048 -0.0783831 0.10163857 -0.31020918
0.08562963 -0.09030265 -0.12927294 -0.11093909 -0.18247461 -0.00030332297 -0.3558405 -0.3373608
0.056610525 -0.13283178 -0.055587478 0.05025828 -0.05278623 -0.16729397 -0.046479777 -0.06713989
-0.058904268 -0.13924384 0.09243108 -0.021353811 0.04205413 0.12613948 -0.15736333 -0.1107855
-0.13268818 -0.020997629 -0.15638265 -0.0039663315 0.05666329 -0.13553587 0.13221668 -0.075052515
0.0031401515 0.07216415 -0.15758222 -0.034488276 -0.15109076 0.14222918 0.11784504 -0.10908955
0.17502753 -0.35336998 0.3652644 0.681032 -0.2878295 -0.02466396 0.2080485 0.025702914
0.12750897 -0.3141908 0.17581251 0.119547516 -0.10448842 -0.21062876 -0.14373624 0.2556066
-0.38336176 -0.042917438 0.11149051 0.121496804 0.44191906 0.0561858 -0.015419441 -0.029440003
0.7258577 0.056205172 0.05777084 -0.10612417 -0.2854646 0.41370994 0.034075517 0.0054843635
0.45629913 0.2247496 -1.0227507 0.4257713 0.19661537 0.20523584 -0.12415578 0.47290808
0.11907439 0.14156257 0.11755294 0.3247192 0.20932712 0.19847028 -0.37731922 0.32771742
-1.3164002 0.20620675 0.21611907 -0.046401583 0.41980544 -0.03353462 0.23069519 -0.15918046
-0.28028476 -0.07918408 0.35238552 0.27318823 -0.906089 -0.12586115 -0.05656413 -0.11878158
-0.003190305 -0.12639096 0.13041884 -0.052939076 0.045032814 -0.10086414 -0.09286455 -0.10543149
0.11806612 0.124651074 0.06304373 0.03450573 -0.12154624 -0.11236672 0.03443517 0.04820602
0.07736138 -0.11588942 0.013541528 0.12873685 -0.020729529 0.046238735 -0.14601699 0.050432038
0.093462095 -0.15398988 0.004136431 0.021643825 0.055411946 0.0764222 -0.11769412 0.04081066
0.3718047 0.05452518 -1.2007118 0.11736704 0.36066368 0.34061435 -0.3374043 0.31948274
0.15309565 0.28564492 0.15657027 0.0040975735 0.29210767 0.10392541 -0.41051078 0.25286528
-1.3580494 0.09941419 0.284173 0.09533301 0.2789852 0.028530573 0.2832896 -0.506612
-0.062828235 -0.18899308 0.37664056 -0.020110048 -0.84691405 -0.14944667 -0.10752367 -0.23712982
0.051417425 -0.1819803 -0.13461418 -2.2145216 0.123065025 -0.1577829 0.43958715 -0.22332974
0.15909287 0.100411706 -0.12966207 -0.15993094 0.4182723 0.22184843 0.50073135 -0.20664693
-0.18221785 0.05057247 0.061510876 0.173824 -1.3801934 -0.124415986 0.23561735 -0.09945186
-0.0009931442 0.27168104 0.061158907 0.35002744 0.9672192 0.11732132 0.0023397063 -0.12234393
00000000: f201 2bbe c231 e73d 4c07 2bbd 0632 26be
00000010: a8ee 9abd d753 cfbd e691 b03d 2cc1 6abd
00000020: 2e4a dc3d b0fc 5d3d e6ae eb3d 1044 18be
00000030: 0c8c 02bd 971e d0bc 07e0 22bd 2f91 48be
00000040: bc86 8e3d 1837 a9bd bef8 f1bd 2b76 edbd
00000050: cd30 8dbd 70c6 393d 4c6a e33d aa0b d43d
00000060: 39fb 20be 88c2 4d3d 8036 eebd 9eb1 ddbd
00000070: a4d1 41be 3588 97bd b1b7 6cbd f892 fb3c
00000080: 751f 6cbe 3967 6abd 4d8d 8b3d cb19 bc3c
00000090: 1c46 75be ceae 413d a529 a9bd 3840 9bbb
000000a0: aae0 f13d 9cff 86be 115d b63d 8198 3cbe
000000b0: 80db db3d dbd9 3cbe 7315 5abe 518d 5bbe
000000c0: 4c42 8dbe 1565 2b3d 2ca7 2ebe e1af 443d
000000d0: c071 013e 5287 a0bd e227 d03d bdd3 9ebe
000000e0: 965e af3d 99f0 b8bd 2060 04be 0934 e3bd
000000f0: a0da 3abe 5207 9fb9 ba30 b6be 8eba acbe
00000100: 70e0 673d 0e05 08be b2af 63bd a0db 4d3d
00000110: 6036 58bd 1c4f 2bbe 9461 3ebd a380 89bd
00000120: 9a45 71bd f095 0ebe 824c bd3d 30ee aebc
00000130: f440 2c3d b52a 013e da23 21be 82e3 e2bd
00000140: 69df 07be 3803 acbc c622 20be 00f8 81bb
00000150: c417 683d eac9 0abe cf63 073e 22b5 99bd
00000160: 00cb 4d3b ccca 933d 3c5d 21be 9443 0dbd
00000170: 89b7 1abe 87a4 113e be58 f13d 586a dfbd
00000180: 6b3a 333e e9ec b4be ef03 bb3e 1d58 2e3f
00000190: 635e 93be 130c cabc aa0a 553e eb8e d23c
000001a0: b691 023e 9edd a0be 3208 343e 54d5 f43d
000001b0: 06fe d5bd 11af 57be 982f 13be dede 823e
000001c0: fe47 c4be 32ca 2fbd 2355 e43d 51d3 f83d
000001d0: 3743 e23e 1523 663d d3a1 7cbc 292c f1bc
000001e0: cfd1 393f 6537 663d 1ea1 6c3d a157 d9bd
000001f0: 6b28 92be cad1 d33e c592 0b3d 2db6 b33b
00000200: 0aa0 e93e c224 663e 7fe9 82bf b2fe d93e
00000210: 8a55 493e 5829 523e 6345 febd 0221 f23e
00000220: 46dd f33d c7f5 103e 99bf f03d 9841 a63e
00000230: d959 563e cb3b 4b3e fc2f c1be 94ca a73e
00000240: cd7f a8bf dd27 533e 514e 5d3e 960f 3ebd
00000250: bdf0 d63e 995b 09bd 5c3b 6c3e 3400 23be
00000260: 7c81 8fbe 432b a2bd e06b b43e 54df 8b3e
00000270: 73f5 67bf bfe1 00be caaf 67bd c243 f3bd
00000280: 7014 51bb a26c 01be 848c 053e a5d6 58bd
00000290: 5474 383d dc91 cebd c52f bebd 77ec d7bd
000002a0: a6cc f13d 1049 ff3d 121d 813d e155 0d3d
000002b0: 3ced f8bd 8620 e6bd e50b 0d3d ad73 453d
000002c0: a56f 9e3d 6f57 edbd 49dd 5d3c 98d3 033e
000002d0: f9d0 a9bc d464 3d3d 7a85 15be d391 4e3d
000002e0: 0e69 bf3d 86af 1dbe e68a 873b 644e b13c
000002f0: a3f7 623d 3e83 9c3d 9d09 f1bd 1429 273d
00000300: 305d be3e cc55 5f3d edb0 99bf 215e f03d
00000310: e9a8 b83e 0165 ae3e 42c0 acbe 3e93 a33e
00000320: 1bc5 1c3e 0d40 923e f553 203e f044 863b
00000330: 238f 953e d8d6 d43d 782e d2be 8f77 813e
00000340: 90d4 adbf ab99 cb3d 207f 913e f43d c33d
00000350: 26d7 8e3e f3b8 e93c 560b 913e 53b1 01bf
00000360: 17ac 80bd 6787 41be 08d7 c03e d4bd a4bc
00000370: 5ccf 58bf 8c08 19be 5f35 dcbd 29d2 72be
00000380: 149b 523d 0b59 3abe 4dd8 09be b9ba 0dc0
00000390: 8409 fc3d d791 21be 9111 e13e 8db0 64be
000003a0: 3ee9 223e a7a4 cd3d 22c6 04be f0c4 23be
000003b0: c927 d63e 3c2c 633e ee2f 003f 419b 53be
000003c0: 5197 3abe 1425 4f3d d4f2 7b3d ebfe 313e
000003d0: 2daa b0bf cfcd febd ad45 713e 6bad cbbd
000003e0: 642c 82ba c719 8b3e c381 7a3d cc36 b33e
000003f0: ad9b 773f 2946 f03d c255 193b 748f fabd

fc2.bias f4 [16]
-0.04918191 0.007137346 -0.11527913 -0.022126654 0.3759539 0.038887143 0.33545548 -0.11467324
0.34614107 0.016239738 -0.18436736 -0.054619446 -0.04965937 0.36961293 0.18697535 0.2485516
00000000: f872 49bd 66e0 e93b 7717 ecbd f542 b5bc
00000010: 087d c03e 2048 1f3d d2c0 ab3e ced9 eabd
00000020: 6739 b13e 3309 853c ccca 3cbe a4b8 5fbd
00000030: a067 4bbd e83d bd3e 7776 3f3e 5084 7e3e

advantage.weight f4 [2, 16]
-0.10853835 -0.084842265 -0.070458144 0.34899616 0.0505488 -0.05470437 -0.14914851 -0.39318252
0.13296577 -0.054029185 -0.18693937 1.1017431 0.70082897 -0.23509245 0.1218978 -0.28862038
-0.12355605 -0.34744024 -0.040958226 -0.26656476 -0.3149578 0.0026160453 -0.13955079 0.23405209
0.24448267 0.025252229 0.04204389 -0.9773167 -0.4555771 0.27314067 -0.22388788 -0.05983574
00000000: 5b49 debd c8c1 adbd 5c4c 90bd a0af b23e
00000010: 420c 4f3d b111 60bd 63ba 18be 384f c9be
00000020: 2e28 083e b54d 5dbd 096d 3fbe eb05 8d3f
00000030: 8769 333f 13bc 70be 8ea5 f93d 0dc6 93be
00000040: f40a fdbd b0e3 b1be d0c3 27bd 2d7b 88be
00000050: 2642 a1be f571 2b3b 67e6 0ebe 5aab 6f3e
00000060: aa59 7a3e c3dd ce3c 3736 2c3d 6d31 7abf
00000070: 6741 e9be 18d9 8b3e dd42 65be 5216 75bd

advantage.bias f4 [2]
-0.06876716 0.13309114
00000000: ccd5 8cbd 0b49 083e

value.weight f4 [1, 16]
0.07032329 -0.11307494 0.07639295 0.12718882 0.31541836 -0.20056598 0.36787042 -1.1451743
0.3409972 -0.19046886 -0.11486494 -1.257017 -1.2259414 0.3835107 0.40747422 0.54019254
00000000: a805 903d d693 e7bd e873 9c3d c93d 023e
00000010: 847e a13e 2b61 4dbe 8359 bc3e 1295 92bf
00000020: 2f97 ae3e 450a 43be 4f3e ebbd efe5 a0bf
00000030: a6eb 9cbf 845b c43e 76a0 d03e 0f4a 0a3f
