models/PPO_actor.pth (torch, 2528 bytes, 4 tensors)

fc1.weight f4 [16, 4]
000000 a9 3b 1b 3d ad 2f 29 bf 0a 30 1f c0 94 a3 4e bf
       0.037898693 -0.6608837 -2.487307 -0.8071835
000010 14 74 cc 3e d0 07 b6 3e e5 21 03 3f ec 32 86 3e
       0.3993231 0.35552835 0.51223594 0.26210725
000020 49 a5 44 bc a7 02 b6 3f f3 78 7a 3f 5b ac 47 bf
       -0.012002298 1.421956 0.97840804 -0.7799737
000030 08 8f e8 3e 8c c5 45 3f 04 26 0a be 73 d8 44 bf
       0.45421624 0.7725456 -0.13491064 -0.76892775
000040 b1 3f c7 be 9f 03 dc bd 7b e7 0e c0 1d 2d e0 bf
       -0.3891578 -0.10742878 -2.2328784 -1.7513767
000050 07 7a f1 3d f3 5c 3b bf 6a c8 ea bf dc 3c 51 bf
       0.11790853 -0.73188704 -1.8342412 -0.8173349
000060 30 66 a8 bd b1 41 c4 be 79 46 a4 bf 96 e2 8d bf
       -0.08222616 -0.3833137 -1.2834007 -1.1084774
000070 4e eb b3 3e 5a 7c 67 3d 26 a6 92 3f 31 29 76 bc
       0.3514046 0.056515075 1.1456954 -0.015024469
000080 8c 63 80 3e bf 3d 0c 3f 19 4f ba be dc 73 70 3e
       0.25075948 0.5478172 -0.36388472 0.23481697
000090 22 5b 33 3f d4 1b 1d bd b2 8a 90 3f 01 3b 9d 3e
       0.7006093 -0.038356617 1.1292326 0.3070908
0000a0 5e c0 b9 3e cf c8 e9 3e 2a e6 aa 3f 09 31 c8 3e
       0.36279577 0.45661017 1.335149 0.3909991
0000b0 86 50 b7 3e eb 48 03 3f 0e 2c 00 40 a0 c3 44 3f
       0.35803622 0.5128314 2.002689 0.76861
0000c0 d6 1d 0e 3e 10 fa 18 3f 75 0c cf be 0d d7 83 3e
       0.13878569 0.59756565 -0.4043919 0.25750008
0000d0 c3 19 f8 be 9c 12 7c 3d 33 63 9d bf f7 16 d4 bf
       -0.48457155 0.061541185 -1.2295898 -1.6569508
0000e0 1b 78 6f 3e af 8d 10 3f 2b 4a 30 3f 1b 7b 22 3f
       0.2338566 0.5646619 0.6886317 0.63469094
0000f0 6a 37 8b 3e c9 4b 4e 3f cc 8f fd 3f be af 96 3f
       0.27190715 0.8058439 1.9809508 1.1772382

fc1.bias f4 [16]
000000 34 9f 89 3f b1 f3 65 3f 7b 2d 45 3f 46 12 2a be
       1.075171 0.8982497 0.7702252 -0.16608533
000010 3c 48 15 3f 63 f6 7f 3f 49 dc 27 3f c2 2a 04 3f
       0.58313346 0.9998533 0.65570503 0.51627743
000020 c7 49 fa be 93 b9 33 3f 67 32 08 3f c0 d5 4a be
       -0.48884413 0.7020504 0.5320191 -0.19808102
000030 9e 0c 25 3f 48 6f c8 3e c1 1d 99 3e 5f 3d a5 3c
       0.6447238 0.391474 0.29905513 0.020170866

fc2.weight f4 [2, 16]
000000 97 d8 ad 3e 98 40 27 bf b6 b6 84 3f 22 64 0f 3f
       0.33954307 -0.6533294 1.0368259 0.56012166
000010 80 bc f2 3e 7c 9a 1f 3f f7 66 8b 3f 5d ed 59 be
       0.4740944 0.623451 1.0890797 -0.21281953
000020 69 d3 b5 be 0e e7 18 3e 04 d8 dd be 2d 4b 0e bf
       -0.35512856 0.1493189 -0.4332887 -0.5558346
000030 78 12 8c bf a2 f5 e5 3e f6 96 34 bf 1a 04 64 be
       -1.0943136 0.44913965 -0.7054285 -0.2226719
000040 7d 58 d0 be 35 9b 1b 3f 94 01 6e bf 1c 13 f9 be
       -0.4069251 0.607837 -0.9297116 -0.48647392
000050 78 08 12 bf dd a1 24 bf 3a 5a 9c bf 22 ec 80 3e
       -0.5704417 -0.64309484 -1.2215035 0.25180155
000060 0f 98 0b 3f 89 25 85 be b2 81 16 3f f5 4b 89 3d
       0.545289 -0.260052 0.5879165 0.06703941
000070 26 8a 66 3f e6 10 39 bf 8f 33 3d 3f 48 f2 e9 3e
       0.9005455 -0.7229141 0.739068 0.45692658

fc2.bias f4 [2]
000000 77 30 22 3e d5 72 28 3d
       0.158388 0.041125137
