models/PPO_critic.pth (torch, 2472 bytes, 3 tensors)

fc1.weight f4 [16, 4]
000000 c0 84 bb 3f 39 46 ab 3e f5 55 4a 3f ec 65 15 3e
       1.4649887 0.33452013 0.7903741 0.14589661
000010 f9 c4 72 bf b4 44 85 bf b9 99 74 bf 8e 8f 36 bf
       -0.94831806 -1.0411592 -0.9554706 -0.713128
000020 8f d6 2c be 36 90 9b be d5 61 3b 3f 2f 48 7e bd
       -0.16878723 -0.30383462 0.73196155 -0.06208056
000030 a5 73 bd be ae bb 1b bd 7e a5 84 be 2f 6a 24 3e
       -0.37002292 -0.038020782 -0.2590751 0.16056131
000040 5a 6b cb be 8b ee 30 be 32 bc 50 3e a1 fc b9 3e
       -0.3973034 -0.17278497 0.20384291 0.36325553
000050 0d dd d6 be 5b 62 02 3f 54 42 79 3d 14 c7 07 3e
       -0.41965523 0.5093133 0.06085427 0.13259536
000060 25 72 0b bf 92 32 58 3d 1e e2 26 3f d4 f2 b1 3e
       -0.54471046 0.052782603 0.6518878 0.34755576
000070 19 e3 05 bf 89 47 08 3f 5a fc b4 3e fe b2 f0 bd
       -0.5229965 0.53234154 0.3534878 -0.1175289
000080 c4 ae 65 3e b1 9e 55 be c4 16 21 3f 50 3f 06 bf
       0.22429949 -0.20861317 0.6292536 -0.5244036
000090 d8 80 61 3f da 43 66 3d b0 f2 9f 3f db bf 42 3e
       0.88087225 0.056217052 1.2495937 0.190185
0000a0 67 bc 93 bf 7d 04 87 3e 72 53 73 3f ab b7 92 3e
       -1.1541871 0.26370612 0.950492 0.28655753
0000b0 bc 0f 0f 3f 57 9e 13 3f 53 9b 1d 40 f4 82 0a 3f
       0.55883384 0.5766348 2.4626052 0.5410607
0000c0 b0 dc 56 be 02 39 b4 be df b8 96 3e 92 e2 93 be
       -0.20982623 -0.35199744 0.2943792 -0.28883797
0000d0 85 d4 c8 bf d2 f3 a2 be 14 c3 0b 3e a6 db cb bd
       -1.5689856 -0.31826645 0.13648635 -0.09954004
0000e0 af ea 23 bf 7f a2 46 3e 78 50 2e bd bd 75 b9 be
       -0.64029974 0.19397925 -0.04255721 -0.3622264
0000f0 97 72 b3 3d 71 5d 7a be 18 65 1f 3f a1 9b 98 bd
       0.08762091 -0.24449708 0.6226363 -0.07451559

fc1.bias f4 [16]
000000 0b d5 5f c0 cf a2 f1 bf f5 f5 bd 3f 8a 00 bb 3f
       -3.497378 -1.887781 1.4840685 1.460954
000010 33 5d f9 3f d2 42 d8 3f d7 9c cf 3f fa dc 3b 3f
       1.9481567 1.6895392 1.6219739 0.7338406
000020 9c 58 a3 3f f8 1c 59 3f e7 5d fa 3f 0e 5a 03 c0
       1.2761416 0.8480983 1.9559907 -2.0523715
000030 dc 3c ac 3f c7 68 37 c0 91 6e df 3f d5 7f b5 3f
       1.3456073 -2.86577 1.7455617 1.4179636

fc2.weight f4 [1, 16]
000000 fb 62 bf c0 1f 74 26 c0 02 20 b6 3f d9 8d af 3f
       -5.9808326 -2.6008375 1.4228518 1.3715163
000010 98 00 8c 3f 91 a7 96 3f 83 f4 a6 3f 51 46 4f 3f
       1.0937681 1.1769887 1.3043369 0.8096667
000020 fd c3 88 3f ee b7 75 bf a7 0c f5 bf eb 4e 63 c0
       1.0684811 -0.9598378 -1.9144486 -3.5516918
000030 b0 f6 a6 bf 30 8f 87 c0 48 76 4e 3f 19 a4 54 3f
       -1.3044033 -4.236229 0.8064923 0.83062893
