models/PPO_actor.pth (torch, 2528 bytes, 4 tensors)

fc1.weight f4 [16, 4]
00000000: fa24 a13e 3dfb d13e 668c 893e d323 753d
00000010: 993e 863d 5b7e cf3e 856e bdbe b143 79be
00000020: 4e83 a5be bac0 acbe 63ec 4ebf 927c 4abf
00000030: 2d2f 75be 8a1c 8dbe 0aa7 343f 72e3 3f3f
00000040: 1647 133d 0e03 85be 55ed 9abd aa29 2dbf
00000050: ed19 d5be ec0d 8ebd 88e0 783e cf7b 8a3f
00000060: 6079 083d da78 833e 8071 6dbc 50df cd3d
00000070: b8e5 6b3e de32 a63e e016 a4be 0d1e dabe
00000080: 5782 d0be f376 723e 120e 773e 3d42 61be
00000090: c42d 633e 728a 973e 0401 18be fb96 06bf
000000a0: a7e0 d83d 9132 f23e c93f 683e 38f5 94be
000000b0: dd0b cebe 7879 a23e 9692 55bf 54bd f1be
000000c0: ccdc 863e 4388 583e 7358 633e 6123 d5be
000000d0: b56c 03bf 2884 06bf 0fa7 253e 951b 293f
000000e0: 8476 a7bc a6ce 58bf bd36 353f b5c1 1a3f
000000f0: d570 51be cb5a 603e eede 0dbf a599 43bf
0.31473523 0.41011992 0.26864928 0.059848618 0.06554908 0.4052609 -0.36998382 -0.24342228
-0.3232674 -0.3374079 -0.8082945 -0.7909633 -0.23943777 -0.27560836 0.7056738 0.7495643
0.035956465 -0.25978893 -0.07564799 -0.676417 -0.41621342 -0.06936249 0.24304402 1.0819033
0.033318877 0.2567814 -0.014492393 0.10052359 0.2303685 0.32460684 -0.32048702 -0.42601052
-0.4072444 0.23678188 0.24126461 -0.21997924 0.22185427 0.29597813 -0.14844137 -0.5257413
0.10589724 0.47304204 0.22680582 -0.29093337 -0.40243426 0.31733298 -0.834268 -0.47214758
0.2634033 0.2114573 0.2220171 -0.41628554 -0.5133775 -0.52545404 0.16177009 0.6605771
-0.020442255 -0.8469032 0.7078665 0.60451823 -0.20453198 0.21909635 -0.5541829 -0.7640632

fc1.bias f4 [16]
00000000: 262e 99be 95fd d4be 24df ce3e f079 da3e
00000010: 0893 ad3e b0cc ae3e 68c7 bfbe 7198 bc3e
00000020: fb9e 86be b9fd e13e 8d34 b9be c03f c93e
00000030: 0f69 93be 8b3d 063f 5176 863e 2865 853e
-0.2991802 -0.41599718 0.40404618 0.42671156 0.33901238 0.3414054 -0.37456822 0.36835054
-0.26293167 0.44138888 -0.36172906 0.3930645 -0.2879109 0.5243766 0.26262143 0.2605374

fc2.weight f4 [2, 16]
00000000: 8764 c73d cf80 7abe f048 9b3e b6ef 82be
00000010: 2265 d33e 12e8 1cbf 10b6 66be bddd a63e
00000020: 3fcf 4fbe 76a9 b23e 7e28 30be 305e 9f3e
00000030: ddfc 343e a9d4 78bc ff5f 1ebf cec4 b53e
00000040: 840e 8a3e f8fd 5cbd e2c0 55be 48ee a83e
00000050: 324f 8ebe 0d65 143f e4d0 85bd 9b16 40be
00000060: 0019 213e 35cb 9fbd 2e20 8b3e 68b7 7abe
00000070: 4040 7e3e 026f f03e dc0a 293f 6967 80be
0.09735971 -0.24463199 0.30329084 -0.2557351 0.41288096 -0.6129161 -0.22530389 0.32591048
-0.20293902 0.34894913 -0.17202947 0.31126547 0.17674585 -0.015187421 -0.6186523 0.35501713
0.269642 -0.05395314 -0.2087436 0.32994294 -0.27794796 0.5796669 -0.06533983 -0.18758623
0.15732193 -0.078024305 0.2717299 -0.24484026 0.24829197 0.46959692 0.66032195 -0.25078896

fc2.bias f4 [2]
00000000: 09c3 c83d 37c7 bb3d
0.09802825 0.091688566
