models/PPOactor.pth (torch, 2520 bytes, 4 tensors)

fc1.weight f4 [16, 4]
00000000: fc95 27bf 1aaf 1dbf c056 d0be 164f c0be
00000010: a1c7 57be 012c ca3e 7ef9 d63f 3694 6f3f
00000020: fe18 d4bc b416 a43e aa83 ed3f 72b9 c93e
00000030: f8e7 f9be 4de6 a6be 633a 9dbe 2830 963e
00000040: ed71 a5bd 4b39 af3e 671f bd3f f627 6b3e
00000050: 8cc4 13be 04f5 173e 2f6c e53e a88d af3e
00000060: 2a75 033d 8ed9 43be 6751 213e 2050 c1be
00000070: 38f9 0cbf 8057 93bf c634 2ec0 0290 37bf
00000080: b010 0abd 6cae 7cbf ddd9 2ac0 75e1 9dbf
00000090: 3908 be3e 7f12 f7be c211 a9bf 0ac9 a83e
000000a0: e669 3ebe 23f4 f13e de3b b33f 95b6 243f
000000b0: 3a93 5d3e 275f f5be 50ec 15c0 c6d8 96be
000000c0: 99e2 453e 86a5 893e 1e2d 0e40 d396 873f
000000d0: e39c a7be 8b3c 413d 8836 1cbe c55a a93e
000000e0: fc2c 84be e751 5dbc 19e6 b6be 2572 0fbe
000000f0: adf9 15bf 2328 8fbe 8b42 59bf 6ea5 49be
-0.65463233 -0.6159531 -0.40691185 -0.37560338 -0.21072246 0.39486697 1.6794889 0.93585527
-0.025890823 0.3204857 1.8555806 0.39399296 -0.4880979 -0.3259758 -0.30708608 0.29333615
-0.0807837 0.342234 1.4775208 0.22964463 -0.14430445 0.1483956 0.448091 0.34287763
0.03209416 -0.1912596 0.15753709 -0.37756443 -0.5506778 -1.1511078 -2.721971 -0.71704113
-0.03370732 -0.98703647 -2.6695473 -1.2334429 0.37115648 -0.482563 -1.3208544 0.3296588
-0.18595085 0.47256574 1.4002645 0.643411 0.21638194 -0.47924158 -2.3425484 -0.2946226
0.19324721 0.26884097 2.2215037 1.0592903 -0.32736883 0.04717688 -0.15255177 0.33077064
-0.2581557 -0.013508297 -0.35722426 -0.14008386 -0.585841 -0.2796031 -0.8486716 -0.19692013

fc1.bias f4 [16]
00000000: 37d6 323f 8b89 9a3e a0a2 1f3f 0b90 4ebf
00000010: 601f b13e 274a f7be c423 cbbe a4fd 463f
00000020: 5d8b 063f 420e 4f3f 7380 1f3f 7098 333f
00000030: a3d3 e33e b7ae f2be 9716 ebbe 983d 3cbf
0.69858116 0.30183062 0.6235752 -0.8068854 0.3459425 -0.4829876 -0.39675725 0.77730775
0.525564 0.8088113 0.6230537 0.70154476 0.44497404 -0.47398922 -0.45915672 -0.73531485

fc2.weight f4 [2, 16]
00000000: 6e38 a93e e03d e8be cc3d fcbe 3e46 b93d
00000010: 3a49 43bf 64d5 673e 3a87 243e e98a 243f
00000020: ffa0 9a3f 3021 8f3e 5523 82be ea78 883e
00000030: d8f9 7ebf 3a1f 143e c09b 7d3e 952b 133f
00000040: f6d2 86be e64f 3b3f 9c76 bb3e 47e5 22be
00000050: 4844 703f 9075 a4bd 411f 593e 1eb2 26bf
00000060: 7232 88bf aa87 d6be a8f7 103f ab61 19bf
00000070: cef9 903f 6afa 0f3d 8960 12be 6036 b0be
0.33050865 -0.45359707 -0.49265897 0.09046601 -0.7628361 0.22639996 0.1606721 0.6427446
1.2080382 0.27955008 -0.2541758 0.2665475 -0.9959998 0.14465037 0.24766445 0.57488376
-0.26332825 0.7316879 0.3661393 -0.15907775 0.9385419 -0.08030236 0.21203329 -0.65115535
-1.0640395 -0.41900378 0.56627893 -0.59914654 1.1326234 0.035150923 -0.14294638 -0.34416485

fc2.bias f4 [2]
00000000: 6b29 aebd aaf8 293e
-0.085039936 0.16598764
