models/PPOClip_critic.pth (torch, 2568 bytes, 3 tensors)

fc1.weight f4 [16, 4]
00000000: 23cb cfbd f5d0 8cbe f831 e2be e21c 94be
00000010: 9207 6e3d 85f7 153f 90b5 9e3d c632 b9be
00000020: 00c8 013f 0b3a 9bbf d155 8bbf 049b 3b3f
00000030: 8cf7 173e 9380 a93d 5dab 18be 3d6c 8dbe
00000040: fd31 963e f0a7 3ebf 128f ffbe b216 f93e
00000050: 853b d33e d330 29bd a747 083f ab13 21be
00000060: d7f9 093d b6a6 583e 3061 39bf 061d c9be
00000070: 22ed 98be 6b6e 2b3f 399c 1abf 24a1 b5be
00000080: 713b f43d bae5 9a3e 2036 a33e dd25 de3e
00000090: 40af a83e 340d 86bd bb41 46be 57e5 0abf
000000a0: e59c 943e 3d7f f13d 714f 293e baa6 cc3e
000000b0: 46e0 b03e 677c ce3e a352 febe 4636 293e
000000c0: 58a2 bdbd e035 c5bc 90dd 6dbd 807b 56bd
000000d0: 6aae 203c 6359 95be f648 ebbe b2d3 0ebb
000000e0: 9acc 3bbe d015 75be 8c39 3cbf 3cb2 c6be
000000f0: 28b1 983e f909 4fbf 721d 39bf 0c4b 543e
-0.10146167 -0.27503172 -0.44178748 -0.28928286 0.05811269 0.5858081 0.07749474 -0.3617155
0.506958 -1.2127088 -1.0885564 0.7328341 0.14840525 0.08276477 -0.1490912 -0.27621642
0.29335013 -0.74475 -0.4991384 0.48650128 0.41256347 -0.041306328 0.5323433 -0.15730159
0.03368553 0.21157345 -0.7241392 -0.39279956 -0.29868418 0.6696536 -0.60394627 -0.35474503
0.119254 0.30253392 0.31877232 0.43388262 0.32946205 -0.06545487 -0.19361012 -0.54256195
0.2902595 0.11791847 0.1653421 0.39970952 0.34546107 0.40329286 -0.49672422 0.1652461
-0.0925948 -0.024073541 -0.058072627 -0.052363873 0.009807209 -0.2916976 -0.45954102 -0.002179366
-0.18339768 -0.23934102 -0.7352531 -0.38807857 0.2982266 -0.8087459 -0.72310555 0.20731753

fc1.bias f4 [16]
00000000: ef96 0640 d73b a63f bda3 d03f 5929 d13f
00000010: cec4 d63f 3397 85be f38c d73f 124c b43f
00000020: 44cc e2be 51ac a73f 776b 99be 2c19 0640
00000030: d854 f0be 2924 f53f 5b98 dc3f 9244 b63f
2.1029623 1.2987012 1.6299969 1.6340743 1.677881 -0.26091918 1.6839889 1.4085715
-0.44296467 1.3099462 -0.29964802 2.0952864 -0.4693973 1.915166 1.7233995 1.4239676

fc2.weight f4 [1, 16]
00000000: cc59 be3f 72a7 c13f e83a da3f 5640 d33f
00000010: 34fe ab3f 951a a5be f5f7 be3f c356 c03f
00000020: ae97 9bbe 7a74 e13f 61bf e1be aae9 b73f
00000030: 4cbb acbd 131b d93f 71bd d53f 12b1 c63f
1.4871154 1.5129225 1.7049227 1.6504009 1.3436952 -0.32246843 1.491942 1.5026478
-0.3038916 1.7613671 -0.44091323 1.4368184 -0.084341615 1.6961387 1.6698438 1.5522788
