models/PPOContinuous_critic.pth (torch, 170844 bytes, 7 tensors)

fc1.0.weight f4 [64, 3]
000000 0c 48 bf be b1 af 01 3c 3f 3d ee 3e b2 a7 e7 3d
       -0.37359655 0.007915423 0.46531102 0.11311282
000010 f3 00 21 bf 7d 46 f5 be cd 12 1a bf 94 4f 37 3e
       -0.62892073 -0.4790534 -0.6018494 0.1790145
000020 f0 69 d7 be 23 2a ba be 73 23 45 be a1 03 ab bc
       -0.4207301 -0.36360273 -0.19251804 -0.020875754
000030 a9 f5 ee 3e f8 60 74 be 80 44 a9 bc f6 cb ab 3e
       0.466718 -0.23865116 -0.020662546 0.33554047
000040 27 c5 b3 be 10 9a aa 3e cb 3b ec bd 60 c0 2a 3e
       -0.35111353 0.33320665 -0.11534842 0.16674948
000050 99 e0 c3 bd e9 3b 01 bf b5 c9 c0 3e 77 4d eb 3d
       -0.09564323 -0.5048204 0.3765389 0.114893846
000060 7b 15 1a 3d 5c cd 03 3e 57 0d 35 3d c1 ba 07 3e
       0.03761814 0.12871307 0.044202175 0.13254835
000070 14 f7 79 bd 59 86 1d 3f fb fa 04 3d 83 62 5b bd
       -0.061026648 0.61533123 0.032465916 -0.053560745
000080 ff ca bb 3d 1c ab 7d 3e 88 7d c9 be dd 6a 05 3f
       0.09169578 0.24772304 -0.39353585 0.52116185
000090 6d d4 17 bf e1 a1 df 3d d5 70 39 be 78 a7 5f 3e
       -0.5930851 0.10919548 -0.18109448 0.21841228
0000a0 25 6a 19 3f c8 08 e6 3e dc fb 05 3f 84 4f 30 3f
       0.5992759 0.44928575 0.5233743 0.6887133
0000b0 0c 56 09 3d ce f5 82 be c7 83 42 3e dc 88 e1 3d
       0.033529326 -0.2557816 0.18995582 0.11012432
0000c0 1f 9c 0b 3d 43 6a 4b 3e 56 a3 c3 3e a5 d8 9d 3d
       0.034084436 0.19864754 0.38210553 0.07707337
0000d0 42 00 9d be 9b a0 91 3d 60 00 11 3f a9 d1 35 3f
       -0.3066426 0.07110711 0.566412 0.7102304
0000e0 8e 84 7e 3d fe 8e a5 be 6a 34 d1 be df 11 f1 3e
       0.062138133 -0.32335657 -0.408603 0.47083947
0000f0 e6 20 0b 3e 04 d5 d2 3e c6 77 e0 be 30 63 0e bf
       0.13586769 0.41178143 -0.4384138 -0.556201
000100 72 b2 b5 bd 12 f8 07 3f b8 22 84 bd 1f 74 c5 3e
       -0.08871926 0.531129 -0.064519346 0.38565156
000110 0a 7b d1 3e d0 eb 03 3e 27 19 9e 3d 48 74 04 3f
       0.40914184 0.12882924 0.07719641 0.5173993
000120 ba e3 8d be 6e 84 15 bf 3b 16 fa be 63 f8 88 ba
       -0.27712804 -0.58405197 -0.48845086 -0.0010450002
000130 e9 4d b2 bd 67 fe ea bc 96 bb af bd 8d 7d cd 3e
       -0.087062664 -0.028685762 -0.08580701 0.4013485
000140 76 b2 15 bf d0 0b ef 3e 10 7e 0f bf 1f 92 98 be
       -0.58475435 0.466887 -0.5605173 -0.29798982
000150 f5 6d 7c be 1e 86 1f 3e 28 9b 7f be 27 91 de be
       -0.2465132 0.15578505 -0.24961531 -0.43470117
000160 5f 13 25 3e 2a 8e ba be 65 6f 55 be 07 8b 49 3c
       0.1612067 -0.36436588 -0.20843275 0.012301213
000170 2f 84 8d 3e 15 33 e1 3e b5 0f fe be ab a2 0c bc
       0.2763991 0.43984285 -0.4962136 -0.008583705
000180 64 f5 39 be 49 b1 27 3e 39 b5 69 3d 2f da 24 3f
       -0.18160015 0.16376223 0.057057593 0.6439542
000190 0d 5a 24 bf 58 d4 b3 bd b4 e5 1e 3e c5 13 03 3e
       -0.64199907 -0.08780736 0.15517312 0.1280051
0001a0 61 8b 10 bf c7 50 62 be 94 a1 37 bf 52 0a fd be
       -0.56462675 -0.22101127 -0.71730924 -0.49421936
0001b0 75 99 04 3f 91 07 04 3f 0a 08 2b 3e 11 6e 96 be
       0.51796657 0.51574045 0.16702285 -0.2938085
0001c0 f2 42 0f bf 2b 3b e1 bd 65 50 1c bf 88 9d 8f 3e
       -0.55961525 -0.109976135 -0.6106017 0.28049874
0001d0 83 59 10 3e ed 04 34 3e 51 f7 86 be eb a3 28 3f
       0.14096646 0.17580004 -0.26360562 0.6587512
0001e0 57 8f 24 bf 61 78 ae bd 70 74 08 3e 2b 95 cd be
       -0.6428122 -0.08519054 0.13325667 -0.4015287
0001f0 d3 9f 44 bf 49 23 d3 be 1a 21 1d 3f f6 e0 b5 3e
       -0.7680637 -0.41237858 0.61378634 0.35523194
000200 37 a9 ac 3e 3e 8d 19 bf bd 16 90 3e b6 07 8f be
       0.3372285 -0.59981143 0.28142348 -0.2793557
000210 07 6d 24 3f c3 7d ed 3c 9a f4 b0 3d 8e a6 16 be
       0.6422886 0.028990632 0.08640404 -0.14711973
000220 76 18 85 bd a9 79 0c bf 2e 7f 2a bf b1 92 70 3e
       -0.06498806 -0.5487314 -0.6660031 0.23493458
000230 e5 fd 56 3e 36 71 b0 3a 16 6d 5b 3e 7e 99 4b bc
       0.2099529 0.0013461474 0.21428332 -0.012426732
000240 c2 b4 b7 be a2 dd 9b 3e 48 3e 01 bf 45 2a 9c bd
       -0.35880095 0.3044253 -0.5048566 -0.0762525
000250 83 47 ef 3e 36 53 78 bd cc 0b 0b bc 3a 6f 28 bf
       0.46734247 -0.06062623 -0.008486699 -0.6579472
000260 25 a8 f4 be 86 e8 9b be f9 44 0b 3f c1 15 03 3f
       -0.47784534 -0.3045084 0.5440212 0.5120507
000270 bb fd ab 3e 77 62 63 3e 83 21 24 bf 33 87 bc bd
       0.33592018 0.2220553 -0.64113635 -0.09205475
000280 3c 5d ae 3e 0a 2d 26 bf bb a6 d9 be a0 49 06 3f
       0.34055507 -0.64912474 -0.42510018 0.5245609
000290 b6 55 db 3e ef 25 04 3f 8a 2e 15 3f 7c 3d b9 3e
       0.4283883 0.5162038 0.5827414 0.3617972
0002a0 1c a1 2b 3f 4c 23 71 be 5c 1d 61 3c 07 3f d6 3e
       0.6704271 -0.23548621 0.01373991 0.4184496
0002b0 6f 4e 38 bf 8b e8 c2 bd 7d 61 18 bf 3c 36 f0 3e
       -0.7199468 -0.0951701 -0.59523755 0.46916378
0002c0 b0 23 3b 3e f2 b0 7d be df f9 08 3f 0e 75 1c 3e
       0.18275332 -0.2477453 0.53506273 0.15279028
0002d0 f8 52 25 bf 75 d3 e7 3e 37 61 2b bc d0 e2 20 3f
       -0.64579725 0.45278516 -0.01046019 0.6284609
0002e0 5a 56 15 3f b9 f0 06 3b 7b 24 3b bf 90 2b d8 be
       0.5833489 0.002059026 -0.7310254 -0.42220736
0002f0 83 f1 0d 3f 12 bc 21 bf ed b9 bc be ca 6f c8 be
       0.5544664 -0.631776 -0.368606 -0.39147788

fc1.0.bias f4 [64]
000000 3b 19 12 3f 70 13 4d 3e 01 08 eb 3e d9 e3 ac bc
       0.5706975 0.20026946 0.45904544 -0.02110474
000010 3a c7 a5 3d 27 ea f0 be 5d f0 5c 3f 45 4f e0 be
       0.0809464 -0.47053644 0.86304265 -0.43810478
000020 cd 3b f2 3e 11 b4 e5 be 21 56 48 3f 91 7c d4 3e
       0.4731125 -0.44863942 0.7825642 0.41501287
000030 c0 1c 45 3f 48 bd 07 be 9c 1f 2b be 09 3a 15 3f
       0.76996994 -0.13255799 -0.16711277 0.5829168
000040 c3 06 a9 3e 69 eb 5a 3e f7 98 6e 3d 99 56 16 3f
       0.3301297 0.21378864 0.058251347 0.5872589
000050 48 f8 1d 3f 83 c2 13 bd ea a1 e1 3e 0d d5 b5 3e
       0.6170697 -0.036074173 0.44068843 0.35514107
000060 04 19 59 3d e2 f4 9e 3e 3f 0b e5 3e 91 98 11 3f
       0.053002372 0.31046206 0.44735143 0.5687342
000070 2f 07 bf 3d 7d 58 da be 4d 06 50 bd 5a bb 80 be
       0.09327542 -0.42645636 -0.05078726 -0.25142938
000080 12 de 25 3e 09 0b ad be e5 0c 13 be 52 93 7c be
       0.16197994 -0.33797482 -0.14360388 -0.24665573
000090 04 e8 98 be dd 82 e1 3e 57 12 e4 3e 45 3b 64 3e
       -0.29864514 0.44045153 0.44545242 0.22288235
0000a0 5a 67 2d 3f 14 22 80 be d9 b3 d0 3e 27 ba 86 3e
       0.67735827 -0.25026 0.40762213 0.26313898
0000b0 77 2d d2 bd 13 f5 9d 3d 1c 89 76 3e 65 a2 22 3f
       -0.10262578 0.0771276 0.2407574 0.63529044
0000c0 36 e3 d1 3d 8f fc 0f 3f e0 e6 1c 3f 83 a9 f6 be
       0.10248415 0.5624475 0.6128979 -0.48176202
0000d0 b6 fb 69 3e a1 ca 5f be a3 c9 e0 3e 0a 97 85 be
       0.22849926 -0.2185464 0.43903837 -0.26091796
0000e0 b5 1f ce 3c 0e 8b 3d 3f c6 6f 18 3f 40 aa e2 be
       0.025161603 0.74040306 0.5954555 -0.44270515
0000f0 dc 5a 87 bd 0b ff b6 3e 6f a1 12 be 7a e7 52 3e
       -0.06609127 0.35741457 -0.14319395 0.20596114

fc1.2.weight f4 [128, 64]
000000 bf 84 ee 3d 69 fc e1 3c e7 09 88 bd 01 35 05 3e
       0.11646413 0.027586179 -0.06642514 0.130085
000010 12 99 bb 3d ce eb 03 be 96 a5 20 3e 5c 11 51 bd
       0.09160055 -0.12882921 0.15688166 -0.051041946
000020 59 ed cf 3d c6 ca 93 3d fb 5d 35 3e e1 b6 ee 3d
       0.10152692 0.0721641 0.17711632 0.11655975
000030 23 86 03 3e ec 67 e0 bd 1f 7a 63 3e 31 f2 69 3e
       0.12844138 -0.109573215 0.22214554 0.22846295
000040 3d 5f b8 bd 4d 5e 37 3c 58 76 4b 3e 00 db 33 3e
       -0.0900254 0.011191917 0.19869363 0.1756401
000050 a7 05 50 3d e7 db 48 bc 95 16 38 bd 9a d2 d8 bc
       0.05078664 -0.01225946 -0.04494341 -0.02646761
000060 e5 67 31 bc bc c9 88 3d 03 0f 2f 3d 51 a1 6f bd
       -0.010827993 0.06679103 0.042738926 -0.058503453
000070 8b bb d1 bd 25 3c a6 bd db c4 d7 3d 33 da 87 3e
       -0.10240849 -0.081169404 0.10535594 0.2653366
000080 c1 be 91 3d ff 64 3d 3e 3c 55 a8 3d 4e 09 8e bc
       0.071164615 0.18495558 0.08219382 -0.017338421
000090 9c cc 06 3e 36 c9 4c 3e cd 66 53 3c ee 95 e6 bd
       0.1316399 0.19998631 0.012902928 -0.112590656
0000a0 1f ad cd 3d 66 09 1b bd 78 4a ea bc 1f 05 67 bd
       0.10042786 -0.03785076 -0.028599963 -0.05640137
0000b0 49 54 50 3e cf 25 73 3d 30 a2 c3 3d b4 16 3d 3e
       0.20344652 0.05936223 0.09552419 0.18465692
0000c0 89 ac ac bc 36 0a 97 bc 68 32 9a 3d 19 58 ee bd
       -0.021078365 -0.018437486 0.075291455 -0.11637897
0000d0 a1 dd 9f bc cd 88 b2 3d 6d 24 09 bd 73 5c 62 3c
       -0.01951486 0.08717499 -0.033482004 0.013815987
0000e0 66 8e 8c 3e 86 49 4c 3e ab 21 4b 3e 63 ca bd 3c
       0.2745239 0.19949922 0.19837062 0.023167795
0000f0 ab ab 94 bc 99 65 2e 3d 56 72 8e bd c1 73 c7 3d
       -0.018148264 0.04257736 -0.069554016 0.09738875
000100 a6 e7 8d 3d c3 35 1f 3c a4 1c ca 3d c3 a8 2f 3e
       0.06928949 0.009717408 0.09868744 0.17154221
000110 a6 89 5e 3d 78 61 05 bd 39 b7 e2 3c 45 17 4c bc
       0.05433049 -0.032563657 0.027675258 -0.01245672
000120 e7 79 54 3e e4 dc be bd ab e3 8e 3e 8a 0e 13 bd
       0.20749627 -0.09319475 0.27908072 -0.035902537
000130 0e 83 91 3d 19 a1 6d bc 2c e6 e7 3d c4 13 70 3e
       0.07105075 -0.014503741 0.11323199 0.2344504
000140 34 06 78 bd 82 aa 20 3d d3 97 98 3d b3 e3 35 3d
       -0.06055279 0.03922511 0.07450833 0.044406604
000150 8c 02 6f 3d 30 90 f3 bc a3 be d6 3b 96 63 de bc
       0.05835204 -0.02973184 0.0065534874 -0.027147096
000160 34 59 de 3d f3 ba 8e bc 7d 49 cf 3d 54 db 32 bc
       0.10856858 -0.017423129 0.10121439 -0.01091655
000170 70 d6 07 3d bc 52 eb bd bb 89 30 bd 61 4b ec 3d
       0.033163488 -0.1149039 -0.0431001 0.11537815
000180 f9 73 33 3e 4a 98 40 3e 49 ae c9 bd 9d a9 a8 bc
       0.17524709 0.18808094 -0.098476954 -0.02058869
000190 4c 95 4e 3e 3b 4e e6 3d ae 63 4b 3e e2 a1 5c 3c
       0.2017414 0.1124539 0.19862244 0.01346633
0001a0 42 25 74 3e 15 70 e1 bd 8c f9 40 be 40 d9 4a bd
       0.23842338 -0.11007706 -0.18845195 -0.049523592
0001b0 f1 5f 07 3e 07 c5 a6 3c d0 78 62 3d ea 23 31 3e
       0.13220192 0.020357622 0.055290997 0.17298856
0001c0 51 68 51 bd b9 a6 13 3e 3b f6 24 3e 46 00 81 3c
       -0.051124875 0.14419068 0.16109554 0.0157472
0001d0 4c 42 c3 bd 43 5e b8 bb 6c 0f 0a 3e 30 ce 48 bb
       -0.095341295 -0.0056264712 0.13482445 -0.0030640475
0001e0 85 6e 5a 3e 97 fd 12 3e bf 10 05 3d 0c ca 58 3c
       0.21331222 0.1435455 0.032486673 0.0132317655
0001f0 2a 78 7f bd 78 ef 4e 3d 56 73 e5 3d 05 5e 09 3e
       -0.062370457 0.050521344 0.11203639 0.13414772
000200 59 dc 19 3e 30 af 78 bc 9e 37 8e 3d a6 c2 0c bd
       0.15025462 -0.015178487 0.06944202 -0.03436532
000210 d6 2f f8 3d c2 f7 ed bd 64 c0 9f 3d 9b 10 5e be
       0.12118499 -0.11619522 0.078003675 -0.21686022
000220 40 f8 d5 3d 98 d9 01 be 01 6e e8 3d cc c6 b8 3d
       0.104477406 -0.12680662 0.113491066 0.090222925
000230 83 b5 27 3e 5c 6d 04 be 48 25 1e 3e c8 8e c8 3c
       0.16377835 -0.12932342 0.15443909 0.024482146
000240 39 d5 48 3d 6f 23 57 3e d7 13 2c 3e 3c 20 64 bc
       0.04903147 0.2100961 0.16804443 -0.013923701
000250 93 b2 85 3d 10 5b b8 3d 71 af 2a 3d 43 f1 cc 3c
       0.06528201 0.09001744 0.04167122 0.025017386
000260 61 55 8c 3c 39 05 08 3e c3 c5 ea 3d 0c 4d 9d 3a
       0.017130556 0.13283242 0.11463501 0.0012001111
000270 ee cc 78 3c 83 f2 71 3d 68 d3 00 be cd 44 f1 3d
       0.015185578 0.059069168 -0.12580645 0.11780701
000280 ad bb db 3d a0 5e 19 3e 7f 5f e3 3b a8 19 4b bd
       0.10729156 0.14977503 0.0069388743 -0.049585015
000290 fa 3f 97 3d 16 55 48 3d c7 92 cd 3c fc b4 84 bd
       0.073852494 0.04890927 0.025094403 -0.064798325
0002a0 af 86 1b 3d d6 15 e0 bd fb c5 27 be fe 56 12 3e
       0.03797024 -0.10941665 -0.16384117 0.14290997
0002b0 fc 72 b0 3d 93 b1 07 be c2 92 55 3d 59 d5 a8 3d
       0.086156815 -0.13251333 0.052141912 0.08243818
0002c0 98 f7 03 be e0 7c 06 3e 7a b5 dd 3d 15 c7 12 be
       -0.12887418 0.13133574 0.108256295 -0.14333756
0002d0 63 6a 77 3d 4e 6c 2b 3d 90 f2 1f 3d 0c f5 92 3d
       0.060404193 0.041851334 0.039049685 0.07175645
0002e0 8e b7 89 3d b9 82 53 3d 13 49 ec 3c a5 d3 40 be
       0.067244634 0.05163834 0.028843438 -0.18830736
0002f0 3f dc 3a 3d 92 00 78 3e 80 e9 81 3d a3 4c 31 3c
       0.0456202 0.24218968 0.06343365 0.010821494
000300 cb 85 9b 3d 75 33 d7 3d 83 58 0c 3e b4 ce 71 bc
       0.07593878 0.105078615 0.1370564 -0.0147587545
000310 38 62 09 3a 5a 41 53 3c 4e 09 2e 3e 09 af 57 bd
       0.0005240771 0.012893999 0.16995737 -0.05265716
000320 b2 90 8e 3e 37 5d b1 bd 14 2a 2f 3e 0a ba 20 3e
       0.2784477 -0.086603574 0.17105895 0.15695968
000330 d2 2a 96 3c f5 ab 29 be b1 2b 02 3e 31 61 dc 3d
       0.018330965 -0.16569503 0.1271198 0.10760725
000340 e0 54 bf bb 78 38 c2 3c d6 71 16 3e a3 7c f5 3d
       -0.0058389753 0.023708567 0.14691862 0.11986663
000350 13 0c 57 bb ca a3 da bd 88 e9 e9 3c 2e a1 fe bc
       -0.0032813593 -0.106757715 0.02855374 -0.031082716
000360 55 71 ea 3c 44 d8 5e 3d 51 15 1f bd 0b b1 19 3e
       0.028618494 0.054405466 -0.03883869 0.15008943
000370 7f 6a a1 bd 97 52 c4 bd 07 a3 c3 bd 51 97 71 3e
       -0.07881641 -0.09586065 -0.095525794 0.23592879
000380 83 c2 97 3d c6 5e 36 3e 25 9d 95 bc 4b 91 53 3d
       0.07410147 0.1780959 -0.018263409 0.051652234
000390 80 06 85 3c 21 fe a3 3d 73 73 5d 3e 12 2e 97 3d
       0.016238451 0.080074556 0.21626072 0.07381834
0003a0 b7 5f 25 3e 4a fc 04 3e 02 e7 bc bd 0e 5e 8a 3c
       0.16149794 0.12986866 -0.09223749 0.016890552
0003b0 6b 16 12 3d 90 a4 24 3c c8 73 88 bc 24 b4 bb 3d
       0.03566591 0.010049 -0.016656771 0.091652185
0003c0 73 a3 09 be 44 92 5f 3b 36 ce 63 bd bd 4a 96 bc
       -0.13441257 0.003411428 -0.05561658 -0.018346185
0003d0 99 69 63 3c 39 87 8a 3d 4f a0 01 3d 3a 3b 26 3d
       0.013880157 0.06764073 0.031647023 0.040583827
0003e0 45 19 98 3e 63 24 4a 3e 23 31 58 3e ef 0a 46 bb
       0.2970678 0.19740443 0.21112494 -0.003021892
0003f0 bc 2d f2 3d 27 bd a1 3d 21 bc 87 bd 69 01 62 3d
       0.118251294 0.07897406 -0.066276796 0.055177126

fc1.2.bias f4 [128]
000000 92 ce 85 3e 16 cd b9 3e 65 92 6d 3e e6 d7 03 3e
       0.26134163 0.3628928 0.23200376 0.12875327
000010 32 d0 46 3e bc 7a 86 3e c6 56 96 3e 71 f2 18 3e
       0.19415358 0.26265514 0.29363078 0.14936234
000020 52 10 a9 3e 37 3c 37 3e 5f 5f aa 3e 15 c2 9d 3e
       0.33020264 0.17894064 0.33275887 0.30812135
000030 e0 f6 6c 3e e6 b4 d4 bd 81 a9 88 3e e5 61 01 3e
       0.2314105 -0.10386066 0.2669182 0.12635
000040 f8 15 83 3e 81 7a 26 3e bb ae 02 3e 94 40 aa 3e
       0.25602698 0.16257669 0.12761967 0.33252394
000050 be af 1f 3e 5f 71 df 3d e9 3d 2e 3e f4 af b7 3e
       0.15594384 0.10910296 0.17015804 0.3587643
000060 a6 ff a1 3e 14 72 bc 3e fe 81 4e 3e c3 5c 9a 3e
       0.31640357 0.36805785 0.20166776 0.30148897
000070 e0 bd ba 3e bb cb 9a 3e f4 e3 33 3e c9 4a 8e 3e
       0.36472988 0.3023356 0.17567426 0.27791432
000080 a3 fe 43 3e 75 a5 7f 3e 68 59 a8 3e 51 ff 43 3e
       0.19140105 0.2496546 0.32880712 0.19140364
000090 cb 0b 5f 3e a9 60 49 3e 46 8f e1 bd 09 a8 84 3e
       0.21781842 0.19665779 -0.11013655 0.2590945
0000a0 f8 67 b5 3e 9f fd 7b 3e c7 6a 94 3e 06 63 bb 3e
       0.35430884 0.24608468 0.28987715 0.36598986
0000b0 d9 75 68 3e 2c c8 a1 3e 97 6f 30 3e 1c a3 8a 3e
       0.22701205 0.31598032 0.17230068 0.27077568
0000c0 b6 e1 57 3e 03 0e 2d 3e 65 79 b5 3e 76 d6 60 3e
       0.21082196 0.16899876 0.3544418 0.2195681
0000d0 ae 8e b2 3e 47 7a 80 3e 50 92 11 bd 67 f2 3a 3e
       0.3487448 0.2509329 -0.035539925 0.18256532
0000e0 97 24 2f 3e 73 d0 15 3e d7 4b b1 3e d0 f6 41 3e
       0.17103802 0.14630298 0.34628174 0.18941808
0000f0 03 67 4f 3e a0 64 79 3e 15 15 1e 3e 8d aa 3e 3e
       0.2025414 0.24354792 0.1543773 0.18619747
000100 af 6b 25 3e 49 57 0b 3e 22 bb 88 3e 2c 29 4e 3e
       0.1615436 0.13607515 0.2670527 0.20132893
000110 c0 c9 51 bc 12 25 31 3e 54 b1 93 3e fd e8 71 3e
       -0.012804449 0.17299297 0.28846228 0.23624034
000120 88 de 5c 3e e5 6d 80 3e ad ea 98 3e ca 2c a7 3e
       0.21569264 0.25083843 0.29866543 0.3265136
000130 b3 9a a5 3e 41 52 1c 3e 70 13 36 3e ae a5 7d 3e
       0.3234459 0.15265752 0.17780852 0.24770233
000140 d4 e0 70 3e 8c b9 99 3d cf 24 03 3e 82 2a 51 3e
       0.23523265 0.075060934 0.1280701 0.20426372
000150 81 2a 70 3e 0c 45 2c 3e e0 ed 87 3e e0 b4 a6 3e
       0.23453714 0.16823214 0.26548672 0.32559872
000160 40 58 30 3e a5 8f 32 3e fc 58 60 3e cc 33 a2 3e
       0.17221165 0.17437609 0.21908945 0.31680143
000170 81 4e b2 3e 7a b1 f5 bd a2 89 05 3e 6b 98 09 3e
       0.3482552 -0.119967416 0.13040784 0.13437049
000180 59 8a b4 3e af 49 0c 3e 55 ac 65 3e 38 a1 95 3e
       0.352618 0.13699983 0.2242902 0.29224563
000190 eb fe f7 3d 00 b2 8f 3e bb bf 80 3e 91 a2 a5 3e
       0.121091686 0.2806549 0.2514628 0.3235059
0001a0 06 eb 73 3e f2 d4 bb 3d e8 bc 80 3e 43 36 b2 3e
       0.23820123 0.091714755 0.25144124 0.34807023
0001b0 c8 93 73 3e b7 24 53 3e c4 d6 4b 3e 03 06 95 3e
       0.23786843 0.20619474 0.19906145 0.2910615
0001c0 8e f6 48 3e 0e 45 b2 3e 13 e0 33 3e 11 19 9b 3e
       0.19625303 0.3481831 0.17565946 0.30292562
0001d0 03 26 8a 3e c0 d3 94 3e c8 d5 57 3e 19 ec a3 3e
       0.26982126 0.29067802 0.21077645 0.32016066
0001e0 01 8a 8b 3e 85 72 f3 3d 98 6f 9f 3e b8 62 d3 bc
       0.27253726 0.11887077 0.31139827 -0.025803909
0001f0 f1 ad a0 3e a4 1f 6a 3e 94 dc ba 3e 1a ec 1a 3e
       0.31382707 0.22863632 0.36496413 0.15129128

fc1.4.weight f4 [256, 128]
000000 04 c4 2c 3e 7b dc f6 3b 4e 62 62 3e 6b df 00 3d
       0.16871649 0.0075336075 0.22107813 0.031463068
000010 84 80 3f 3d bc 9e 1f 3e a5 02 0f 3e 4d 41 0e 3d
       0.04675342 0.15587896 0.13965853 0.034730244
000020 a0 fe 55 3e a6 dc 3a 3e 34 be 34 3d b9 a4 d0 3d
       0.20897913 0.18248233 0.044126704 0.10187668
000030 88 4c 28 3d c9 6b 29 bd 76 c3 cf 3d 77 43 9b 3d
       0.04108861 -0.041362558 0.10144703 0.07581227
000040 0a e1 5b 3d 36 a6 4f 3d e1 cd 52 3d da 98 3a 3d
       0.05368141 0.05069562 0.051465873 0.045555927
000050 8a 72 49 3e 3c 38 57 3e 73 03 84 3e 6c 16 de 3d
       0.196726 0.21017545 0.25783882 0.108441204
000060 8a ac eb 3c c5 7e 0d 3e 7d e5 2a 3e a6 3e 72 3e
       0.028768796 0.1381789 0.16689105 0.23656711
000070 b7 67 1a 3e ce 3a 03 3e 69 c8 1c 3e 2d c1 5e 3e
       0.15078627 0.12815401 0.15310825 0.21753378
000080 1c d9 10 3e f8 84 11 3e 00 a0 aa 3d 5f d6 00 3d
       0.1414532 0.1421088 0.08331299 0.03145444
000090 88 7e 53 3e cd 34 56 3d 64 84 96 bc 98 50 14 3e
       0.20653737 0.05229645 -0.018373676 0.14483869
0000a0 4e 52 3b 3e 09 15 87 3e d9 8d 23 3e ad b2 99 3d
       0.18293115 0.26383236 0.1597208 0.07504783
0000b0 4e 17 fa 3d 15 11 27 3e bc 95 47 3e 0d ec 22 3e
       0.12211476 0.1631511 0.19490713 0.15910359
0000c0 e8 6c cc 3d 28 af 06 3e 38 70 33 3d 20 28 44 3e
       0.0998171 0.13152754 0.043808192 0.19155931
0000d0 3c b3 ac 3d 23 c3 10 3e 19 c4 87 3d a7 8d d2 3d
       0.08432624 0.14136939 0.066291995 0.10280924
0000e0 dc 41 6c 3e ff f3 68 3e 20 5f 46 3e 5f c3 26 3e
       0.23071998 0.22749327 0.19372225 0.16285466
0000f0 dd c0 09 3e ef 68 33 3e 66 fe d6 3d 86 c4 8c 3d
       0.13452478 0.17520498 0.104977414 0.06873421
000100 68 80 1f 3e 81 a1 03 3e b6 07 4a 3e 56 03 ce 3d
       0.15576327 0.12854578 0.19729504 0.1005923
000110 5a 00 e0 bc e4 82 db 3d a1 b4 ae 3d d9 aa b4 3e
       -0.027343918 0.10718325 0.08530546 0.35286596
000120 e4 73 26 3e 18 49 1c 3d fa 6d 45 3e e9 6b 03 3e
       0.16255146 0.038155645 0.19280234 0.12834133
000130 2e dd 8a 3d af cb a0 3d b9 f4 ec bb 8d 14 7d 3d
       0.06780468 0.078513496 -0.0072313217 0.061787177
000140 71 17 36 3e 10 1c 93 3c 8b 6b 58 3e 04 4e 2a 3e
       0.1778238 0.017957717 0.21134774 0.16631323
000150 8d 4e 7b 3d a9 fb 40 3e cf c9 82 3d 4e 12 60 3e
       0.06135421 0.18846 0.06386148 0.21881983
000160 1c 40 5b 3e c5 3b 0c 3e 80 31 75 3d 4d ef 49 3d
       0.21411175 0.13694675 0.05986166 0.04930048
000170 aa 3e 88 3d 50 f1 f6 bc dd 6a ee 3d b6 59 86 3d
       0.06652577 -0.030144364 0.11641476 0.0656008
000180 62 c7 b8 3d d6 94 fd 3d c0 de 98 3c df 72 b9 3d
       0.09022404 0.12381904 0.018660903 0.09055113
000190 fc db ed 3c ba 70 a1 3d 33 e5 dd 3d 7e d0 45 3e
       0.02903556 0.07882829 0.10834732 0.19317815
0001a0 40 14 fe 3d 50 78 ff 3c 51 38 6a 3d 9d de ec 3d
       0.12406206 0.0311853 0.057182614 0.115658976
0001b0 a1 35 dd 3d 26 af 09 3e 8d 69 1b 3e 21 73 7f 3e
       0.108012445 0.1344572 0.15176983 0.24946262
0001c0 62 7d 37 3d d2 61 19 3e 88 6e ca 3d 41 85 9a 3c
       0.04479731 0.14978722 0.098843634 0.018862369
0001d0 ba 94 6b 3e fe 24 2d 3e 3a 5e 87 3e 50 6f 00 3e
       0.23005953 0.16908643 0.26439077 0.12542462
0001e0 72 b1 1e 3e 34 3d 8c 3c df 61 24 3e e0 34 03 3d
       0.15497378 0.017119028 0.1605296 0.032032847
0001f0 6d 48 67 3d c2 42 81 3e 2f f7 2b 3e fc 94 f7 3d
       0.056465555 0.25246245 0.16793512 0.120889634
000200 45 88 56 3e 2d a0 19 3e da 4e 61 3e 80 28 90 3d
       0.2095042 0.15002508 0.22002736 0.07038975
000210 31 d5 bd 3d 06 df e2 3d 88 c1 e6 3d 4e a9 36 3d
       0.09269179 0.110776946 0.11267382 0.044595055
000220 32 f3 7b 3e 4b 41 12 3e f5 3a ae 3d 04 bd ac 3b
       0.2460449 0.1428272 0.08507339 0.005271556
000230 30 e8 c1 3d 78 62 0c bd cc ca 6d 3e ec d2 3c 3e
       0.094681144 -0.034273595 0.23221892 0.18439835
000240 90 94 db 3d 8b db 01 3e c3 b6 e9 3d b6 8e 32 3e
       0.107216954 0.12681405 0.11411812 0.17437252
000250 d2 96 20 3e 18 3c 8a 3e ea 34 d0 3d 80 51 67 3d
       0.15682533 0.26998973 0.101663426 0.05647421
000260 27 8a 12 3e 94 64 56 3e c1 a0 85 3b 31 4f 17 3e
       0.14310513 0.20936805 0.0040780012 0.14776303
000270 24 a6 34 3e 5a 79 76 3d 9b 39 5b 3e a4 3e 3f 3e
       0.17641503 0.060174324 0.21408693 0.18676239
000280 0d 72 35 3e a6 06 14 3e 39 57 b7 3d 89 60 b3 3d
       0.17719288 0.14455661 0.08952183 0.08758647
000290 82 f5 2c 3e 96 83 9f 3d 88 bf b2 bc 7c 08 7b 3e
       0.16890529 0.0778877 -0.021819845 0.24514955
0002a0 7a d8 9e 3d 46 19 50 3e 08 30 16 3e 38 6f cf 3d
       0.077561334 0.20322141 0.1466676 0.10128635
0002b0 19 e7 0e 3e 60 90 e7 3d 73 df 2f 3e 9b c9 b5 3d
       0.13955344 0.11306834 0.17175083 0.08876344
0002c0 0e 96 1b 3c ea 7e ec 3d 7e c5 6d 3d 2a 2c 76 3e
       0.009496225 0.115476444 0.05804967 0.24040285
0002d0 4a ac eb 3d 56 8b e9 3d 2e d6 0e bd 93 73 18 3e
       0.11507471 0.11403529 -0.034872226 0.14887838
0002e0 69 f8 9a 3d 4b 75 b0 3d 6f 80 d8 3d 79 a4 1b 3e
       0.07566912 0.08616122 0.10571372 0.1519946
0002f0 8b f6 a6 3d 74 2f 62 3e c2 fc fd 3d 1b ac 56 3e
       0.08152493 0.22088414 0.12401725 0.2096409
000300 cf c7 14 3d fe fb e2 3d 1f 3d 2a 3e d5 27 05 3e
       0.036323365 0.1108322 0.16624878 0.13003476
000310 aa 29 70 3d 77 bb b5 3d 96 c5 02 3e 69 f7 67 3e
       0.058633484 0.08873647 0.12770686 0.22652973
000320 0e d9 08 3e 96 c8 a7 3d ee 7d 04 3e 54 fb 48 3e
       0.1336405 0.081925556 0.12938663 0.19627124
000330 81 7f 6e 3e 67 c0 2e 3e a3 05 e7 3d 85 08 36 3e
       0.23290826 0.17065583 0.11280372 0.17776687
000340 41 8c b2 3d ad 1a 62 bd dd ff 4f 3e e9 3e ef 3d
       0.087181576 -0.05520122 0.20312448 0.11681921
000350 e5 f2 2c 3e 11 a1 04 3e 69 76 e5 3d 8a 1a 07 3e
       0.16889532 0.12952067 0.112042256 0.13193718
000360 58 f4 03 3e 53 27 55 3e fb 6e 2d 3e 39 c4 1b 3e
       0.12886178 0.20815782 0.16936867 0.15211572
000370 d6 51 0f 3e d3 22 42 bd 7b 76 1c 3d 7b 08 03 3e
       0.13996062 -0.047396492 0.03819893 0.12796204
000380 ee 80 47 3d 13 c8 36 3e 3d 8d fe 3d d1 b0 ac 3c
       0.04870694 0.1784976 0.12429283 0.021080406
000390 be 89 b3 3d 04 8a 36 3e 9b 83 24 3e 49 62 9e 3d
       0.087665066 0.17826086 0.16065829 0.0773359
0003a0 28 6f bc 3d bf dc 0e bd 1a e0 5d 3d c9 08 89 3e
       0.09200889 -0.03487849 0.054168798 0.26764515
0003b0 bb 92 28 3d 4a a1 42 3e a7 15 eb 3d 71 dd 28 3e
       0.041155558 0.1900684 0.11478739 0.16490723
0003c0 60 ca 3f 3e 2d 76 c7 3d e9 2c bd 3d 8f 07 16 bc
       0.18729544 0.09739337 0.092370816 -0.009157076
0003d0 c5 20 00 3e 09 33 41 3e c3 b9 13 3e de 2a 3c 3e
       0.125125 0.18867125 0.14426331 0.18375728
0003e0 5f ba 1f 3e c3 af 03 3e 2e a2 63 3e 0d 8a 96 3d
       0.15598439 0.12860017 0.22229835 0.0735055
0003f0 cf d7 db 3d 3c b7 31 3e a1 78 05 3e 18 83 91 3d
       0.107345216 0.17355055 0.13034298 0.07105082

fc1.4.bias f4 [256]
000000 44 85 67 3e 74 6a 97 3e e5 31 80 3e 0f e4 86 bd
       0.2260943 0.29573405 0.25038067 -0.065864675
000010 fc 52 28 3e a8 7f 0c 3d 68 e0 3b bc 31 99 61 3d
       0.16437906 0.03430143 -0.011467077 0.055077735
000020 a0 fa 3c 3e 15 fd 9e 3d e9 f6 30 3e 8b 5f 60 bd
       0.18454981 0.07763115 0.17281689 -0.054778617
000030 f9 db 9a 3c 51 d1 36 3d 43 b5 91 3e d3 fc d5 3b
       0.01890372 0.044633213 0.28458604 0.006530383
000040 85 d4 39 3d 9d a7 0b 3e c7 37 e7 bd c2 3f 90 3d
       0.04536869 0.13638158 -0.112899356 0.07043411
000050 c8 11 32 3e fd 76 2f 3d 01 44 16 3e c5 35 1f 3e
       0.17389596 0.042838085 0.14674379 0.15547855
000060 49 95 5f bd d3 ff a8 bd 92 1e 92 3e a7 0d b7 3b
       -0.05458573 -0.082519196 0.28538948 0.0055863443
000070 57 80 64 3e 5b 27 bd bb e9 8a 81 bd 15 ec 75 3e
       0.22314583 -0.005772514 -0.06325323 0.2401584
000080 24 1d 29 bc 99 64 5b 3e be 59 97 3e 3a 25 f4 bc
       -0.010321889 0.21425094 0.29560655 -0.029802907
000090 8d c3 1f 3e e3 2d 18 bc 94 34 84 3e df f0 a8 bd
       0.1560194 -0.009288284 0.25821364 -0.082490675
0000a0 bd 3e ad bd a7 02 86 3e 29 51 cb 3c 14 53 5a 3d
       -0.08459232 0.261739 0.024818974 0.053301886
0000b0 c7 b2 64 3e c4 10 99 3e 37 b9 cc 3c 1e f4 09 3d
       0.22333823 0.29895604 0.024990661 0.033680074
0000c0 2c f0 08 3e 6f 4b 35 3d 7f 8e 3b 3d d5 31 be bd
       0.13372868 0.044261392 0.04579019 -0.092868485
0000d0 a4 7e 52 bc 46 a8 ae 3a b3 9f af 3c 40 57 20 bd
       -0.012847576 0.0013325296 0.021438455 -0.039145708
0000e0 1d 7f b9 bd 38 6c bb bd 7d 14 01 be 23 13 43 3d
       -0.09057448 -0.091515005 -0.12605472 0.047625672
0000f0 5e 5a 04 3e 09 25 54 3e d8 1b ac bd 84 48 93 3e
       0.12925097 0.20717253 -0.08403748 0.28766263
000100 43 49 06 3d 7a 92 84 3e 79 95 b9 bd 63 2a 88 3c
       0.03278471 0.25893003 -0.09061713 0.016621774
000110 49 d1 9d 3e d1 f0 8f 3e d5 fc 89 3e 29 d0 90 bd
       0.30823734 0.28113416 0.26950708 -0.070709534
000120 6d 62 dd 37 59 f7 c2 bd 35 f4 93 bc fb 1d 9c bd
       2.6391086e-05 -0.09519834 -0.018060783 -0.07622906
000130 50 c3 28 3d d4 42 a2 bd 23 75 cc bb 89 8e 6a 3e
       0.04120189 -0.07922903 -0.0062395497 0.22905935
000140 9f 72 be bd f2 34 9d 3e ed 63 38 bd ef 62 4c bd
       -0.09299206 0.30704457 -0.04501717 -0.049899038
000150 c2 09 97 3d 40 64 d8 3b 7b d5 63 bd e4 d7 90 3e
       0.07374908 0.0066037476 -0.055623513 0.2828971
000160 b0 05 05 bd 31 ff 93 3e 14 17 ad bb 93 2d 9b bd
       -0.032476127 0.28905633 -0.005282292 -0.07577052
000170 33 c6 ee 3c 84 bd 93 3d 7f d2 07 3e 7e 81 62 3d
       0.029147243 0.072138816 0.13263892 0.055299275
000180 85 20 65 bc 3f 4e 9a 3e c7 e3 36 3e 25 e3 8d 3e
       -0.013984804 0.30137822 0.17860328 0.2771236
000190 c0 b9 15 3b 74 d2 aa 3d 14 d7 8d bd be 85 93 3e
       0.0022846311 0.08340922 -0.069257885 0.28812975
0001a0 65 5a b0 bd 10 fe c7 bb 2b 03 68 3d 2d ba a2 3c
       -0.086109914 -0.0061032847 0.056643646 0.019864166
0001b0 c6 ab 93 3e 2a 23 73 3e ca db 56 3e 22 69 91 3e
       0.2884199 0.23743883 0.2098228 0.28400522
0001c0 1c 3d 7f 3e 93 f2 83 3e 7d 4e 19 be 0f aa 66 3e
       0.24925655 0.25771007 -0.14971347 0.2252581
0001d0 fe ac 90 3e 0a c5 39 bd c4 d1 8d bd f5 bd 9f 3c
       0.28256983 -0.045353927 -0.06924775 0.019499758
0001e0 82 29 2e 3e e6 b3 3a 3e 9e 45 85 3e 5e 8b 83 3e
       0.17008021 0.18232688 0.26029676 0.25692266
0001f0 00 ba 1c 3c 5e 69 61 bc db 8c 55 3e 81 99 95 bd
       0.00956583 -0.013758032 0.20854513 -0.07304669
000200 25 88 2f 3d ae 0d 27 be 85 63 24 3d 23 c0 0e 3e
       0.042854447 -0.16313812 0.04013397 0.13940482
000210 0f 5c 83 3e 6f 73 4f 3e f7 2b 82 3e 87 f8 4f 3e
       0.25656173 0.20258878 0.25424168 0.2030965
000220 7a a6 cb bc fd fa 67 bd 2d 72 95 3e 2a 02 7d 3d
       -0.024859656 -0.056635845 0.29188672 0.061769642
000230 ee a5 8b 3e 7f 1f ab 3d d5 cb 6c bd 4c 96 e5 bc
       0.27275032 0.08355617 -0.057811577 -0.028025769
000240 a0 94 7b bc a5 2f 9a 3e ac 72 a1 3c 89 a6 81 bd
       -0.015355259 0.30114475 0.019708 -0.06330592
000250 38 44 b1 bd f5 d7 49 3e 92 a1 03 be 16 a3 8e 3d
       -0.0865559 0.19711287 -0.12854603 0.069647
000260 4b da 85 3d ba e4 55 3e 63 af 1c 3e de 12 37 3d
       0.06535777 0.20888034 0.1530128 0.044695728
000270 12 bc 91 3e ac 82 9c 3c 62 a6 98 3e 56 bd 94 3e
       0.284638 0.019105278 0.2981444 0.29050702
000280 6f f8 38 3d d4 cd af bd e2 71 4d 3e 70 49 45 3e
       0.0451588 -0.085841805 0.20062974 0.19266295
000290 a5 c8 88 3e 50 94 87 3e d8 bf 62 3e e9 9b 20 bc
       0.2671558 0.2648034 0.22143495 -0.009802797
0002a0 db f9 76 3e 2c 85 86 bd d7 b0 94 3a 0f e4 63 3d
       0.2411875 -0.06568369 0.0011344206 0.055637415
0002b0 26 75 27 3d ba d5 44 bd 5c 2d 4b bc 47 e5 79 bd
       0.040883206 -0.048055388 -0.012400951 -0.06100967
0002c0 17 d2 22 3e d1 04 44 3e 20 39 85 3e 04 e8 1b 3e
       0.15900455 0.19142462 0.26020145 0.15225226
0002d0 06 29 8a 3e b0 3f 94 3e 8f 94 86 3e db 65 2f 3e
       0.26984423 0.2895484 0.26285216 0.17128699
0002e0 7f c6 49 3e a5 c3 2a 3e ca 9c 20 3e 73 f8 88 3e
       0.19704627 0.16676195 0.1568481 0.26752052
0002f0 14 55 bc 3c b7 2b 8f 3e c4 a7 2d 3e f8 46 93 3d
       0.022989787 0.2796304 0.16958529 0.071912706
000300 de b6 83 bc bb 61 11 3d f2 00 3a ba d7 ef 0a 3e
       -0.016078409 0.035493594 -0.0007095478 0.13568054
000310 eb 48 2f bc b2 d4 7e 3e 7c 63 30 3e 39 f1 16 3d
       -0.010698537 0.24885824 0.1722545 0.03685114
000320 25 ac 86 3e 60 8c 8e 3e 42 8e 22 3e 45 46 92 bd
       0.2630321 0.27841473 0.1587458 -0.07142309
000330 ef cd 8a 3d c7 47 8f 3e a5 84 f5 bc c4 1c 40 3d
       0.0677756 0.2798445 -0.029970476 0.046902433
000340 71 49 0f bd 76 b0 36 bd a7 e5 8c bc 7a 7a 86 3e
       -0.03498215 -0.04460188 -0.01719935 0.26265317
000350 a8 b9 01 bd 1b 54 93 3e 61 98 2b 3e c4 8f af bd
       -0.031671196 0.28775105 0.16757347 -0.08572343
000360 a4 e7 ca 3b b1 04 94 3e b6 f3 4f 3e 36 07 29 bb
       0.0061921645 0.2890983 0.20307812 -0.0025791652
000370 d1 53 86 3e 6d 6a 58 3e 00 ac 6e 3e 93 11 6b 3e
       0.26235822 0.21134348 0.233078 0.22955923
000380 28 0c af bc 84 76 8d 3e 8e e1 5f 3d 59 de 7c 3e
       -0.021368101 0.27629483 0.054658465 0.24694194
000390 70 b4 20 3e 35 9b 39 3e 11 92 6e 3e 0a fc 90 bc
       0.15693831 0.18125613 0.23297907 -0.017698307
0003a0 88 0d 14 3d 44 99 b4 3c 14 e0 b4 bd 7d b6 36 3c
       0.036145717 0.022045739 -0.08831802 0.011151907
0003b0 5d ca 7c 3d e4 e5 6b 3e b8 d5 7e 3e b5 ac 61 3e
       0.061716426 0.23036915 0.24886215 0.22038539
0003c0 7c d1 41 bd 7b 77 e9 bd 80 60 c1 3c 77 d9 04 3e
       -0.04731892 -0.11399742 0.023605585 0.12973581
0003d0 22 76 68 3e 7e b4 51 3c 27 f1 63 3e 29 05 39 3e
       0.22701314 0.01279938 0.22259961 0.18068375
0003e0 b3 d8 6a 3e 8f 66 9c bd c8 9c 57 bd cc 3f 97 3e
       0.22934227 -0.07636749 -0.052639753 0.2954086
0003f0 2d 90 88 3e 6c bf 30 3c c2 55 9a bd b7 dd c8 bc
       0.26672497 0.010787826 -0.07535888 -0.024519784

fc1.6.weight f4 [1, 256]
000000 f0 85 3d be d7 eb 20 be f7 47 2a be 88 4e 76 3d
       -0.18508124 -0.15714966 -0.16629015 0.060133487
000010 35 89 33 be 35 c3 22 3d 7a 34 13 3d a6 79 4c 3c
       -0.17532809 0.039736945 0.035938717 0.012480175
000020 c2 17 4e be ff 08 64 3d 36 e1 44 be cd ef 43 3d
       -0.2012625 0.05567264 -0.19226536 0.047836114
000030 1a 1b a1 3c de 89 0f 3d 49 40 22 be 81 7e 1c 3c
       0.019666243 0.03504359 -0.15844835 0.009551645
000040 9a d3 1b 3d a0 b2 0b be b2 d3 2b 3e 30 7e 67 3d
       0.038043596 -0.13642359 0.16779974 0.056516826
000050 c0 c4 39 be 3e dc 48 3d 2c 71 1b be 9b 6f 46 be
       -0.1814146 0.049038164 -0.1517989 -0.19378512
000060 fa 82 91 3b 94 05 fd 3d 19 0f 12 be b0 94 38 3d
       0.0044406625 0.123545796 -0.14263572 0.045063674
000070 35 72 45 be 48 9c 1e 3d e0 26 58 3d 1a cf 3f be
       -0.19281848 0.03872326 0.05277145 -0.18731347
000080 9c b6 c3 3c f3 56 3c be 27 e6 27 be 79 7f 06 3b
       0.023890786 -0.18392543 -0.1639639 0.0020522757
000090 84 e1 4b be d3 82 15 3d b2 af 18 be a8 f9 43 bc
       -0.19910246 0.036501717 -0.14910772 -0.011961378
0000a0 ab 46 13 3e d4 d9 39 be d9 9f 24 3d 32 74 30 3d
       0.14382426 -0.18149501 0.040191505 0.043079562
0000b0 fb b6 38 be ab 06 39 be ce c1 77 3d 71 a5 73 3c
       -0.18038552 -0.1806895 0.06048756 0.014870987
0000c0 a2 5c 28 be ce 36 03 3d 56 7b 0e 3d 8d ce 06 3d
       -0.16441587 0.032034688 0.03478559 0.032911826
0000d0 b4 74 01 3c 1f 36 15 3d 20 93 73 3d 04 4d 63 3c
       0.007901359 0.036428567 0.05946648 0.013873342
0000e0 27 64 31 3d fc 0b 90 3e 42 95 d8 3d 21 16 af 3b
       0.043308403 0.28134143 0.10575344 0.005343214
0000f0 f3 cd 3a be 09 40 1d be c5 9d 9c 3b b2 96 4d be
       -0.18242626 -0.15356459 0.00477955 -0.20077017
000100 25 36 54 3d 40 ae 3c be 48 81 b2 3d 5e c1 15 3c
       0.05180945 -0.18425846 0.08716065 0.009140341
000110 8f ac 2f be be 37 10 be 33 f8 13 be 61 7c 96 3a
       -0.1715567 -0.14083764 -0.14450149 0.001148116
000120 4c 74 12 bc 3e ab 87 3c 41 65 e2 3c c9 09 14 3c
       -0.00893886 0.016561147 0.027636172 0.009035536
000130 8b a0 d2 3b 6a a4 c7 3c f7 d9 4c 3e f5 80 45 be
       0.0064278296 0.02437039 0.20005022 -0.19287474
000140 dc bb 82 3e 64 a4 17 be 92 03 b7 3c 23 c5 80 3e
       0.2553395 -0.14808804 0.02234057 0.25150403
000150 7e 3f 11 3c 76 c2 30 bd 14 b9 3a 3e 78 10 1a be
       0.008865235 -0.043154202 0.18234664 -0.15045345
000160 21 ef 10 3c 8a 89 15 be 7e 5a a4 3c e0 e4 2a bc
       0.008846075 -0.14603248 0.020062681 -0.010430545
000170 ec 51 0a 3e 83 b7 e4 3c c6 48 30 be aa 9b 41 3c
       0.13507813 0.027919536 -0.17215261 0.011816898
000180 89 bb 07 3d 3e dc 3d be 35 6b 40 be 5d 05 4b be
       0.03313783 -0.18541047 -0.18790896 -0.19826265
000190 06 e6 6b 3d 21 b6 44 3d b7 4a 51 3d 38 83 16 be
       0.057592414 0.048025254 0.051096644 -0.14698493
0001a0 e0 01 51 3d ec a6 34 bd fb 2a 2e 3d 65 26 42 3c
       0.05102718 -0.0441045 0.042521458 0.011849974
0001b0 8b 5b 3d be ec 8f 39 be 55 a5 4b be 86 fc 2c be
       -0.18491952 -0.18121308 -0.19887288 -0.16893205
0001c0 59 09 3a be 5e 60 5e be ee 96 7c 3e c3 94 20 be
       -0.18167628 -0.21716449 0.2466695 -0.15681748
0001d0 25 2d 0e be fa 80 c4 3c aa 56 71 bd 85 59 11 3c
       -0.13884409 0.023987282 -0.05892054 0.008871441
0001e0 b2 fd 41 be b6 92 10 be 11 0e 3b be 76 7d 46 be
       -0.18944433 -0.14118466 -0.18267085 -0.19383797
0001f0 da 3f 09 bd 91 80 04 3d 42 e8 50 be 32 cc 46 bd
       -0.03350816 0.032349173 -0.204011 -0.04853458
000200 66 df 59 3d 19 9b b2 3e ad 5d 05 3d 5f 33 41 be
       0.053191565 0.34883955 0.03256004 -0.18867253
000210 fb 10 40 be 1b 29 43 be 9c 1b 4c be dd 64 14 be
       -0.18756478 -0.19058649 -0.19932407 -0.14491601
000220 f1 11 52 3d 6c 76 ee 3c 3c 9d 0b be 78 9f 0b 3d
       0.05128664 0.029109202 -0.13634199 0.034087628
000230 f8 63 12 be 2c 40 0b 3d 3c 1d 59 bd 81 ff 55 3d
       -0.14295948 0.033996746 -0.053006396 0.05224562
000240 5a f8 24 3d e9 6b 0e be 27 fc f4 3c 94 e5 8a bc
       0.04027591 -0.13908352 0.029905392 -0.016955175
000250 8a 92 15 3d 35 9a 42 be 0e 38 44 3e 13 ba 55 3d
       0.036516704 -0.19004138 0.19162008 0.052179407
000260 58 00 df 3c 33 2f 1e be e2 26 34 be 6e 69 13 3d
       0.027221844 -0.15447693 -0.17592958 0.035989217
000270 1b 28 0b be 7b 83 51 3d cd 8b 2b be 9a 84 20 be
       -0.13589518 0.05115078 -0.16752549 -0.15675583
000280 de 01 35 3d 20 ee c0 bc de c2 41 be 0c 36 1f be
       0.044191234 -0.023551047 -0.18921992 -0.15547961
000290 41 f9 1b be 19 ff 40 be ea 55 15 be 45 ec 76 3c
       -0.15231802 -0.18847312 -0.14583555 0.0150709795
0002a0 15 2b 42 be 11 e5 45 3e c6 ae 5a 3d 2c fc 2b 3d
       -0.18961747 0.19325663 0.053389333 0.041988537
0002b0 02 70 1b bd 50 cb 18 3d 51 36 40 3d 01 ee f0 3b
       -0.037948616 0.03730327 0.0469268 0.007352591
0002c0 c6 f1 24 be 2b 62 0a be c2 c1 37 be 9a ce 44 be
       -0.16107854 -0.1351401 -0.17945006 -0.19219437
0002d0 ec 6f 2e be de e8 2a be 2c eb 33 be de 49 3d be
       -0.17034882 -0.16690394 -0.1757018 -0.1848521
0002e0 03 57 1b be b1 00 0b be 16 fc 2d be f0 93 45 be
       -0.15169911 -0.13574483 -0.16990694 -0.19294715
0002f0 b0 9d 46 3c e5 24 46 be 8f a6 59 be f6 92 6f 3d
       0.012122557 -0.19350012 -0.21254943 0.058489762
000300 d1 e7 08 3d bd da 3f 3b ba 2b 13 3c f1 98 21 be
       0.033424202 0.0029274665 0.008982593 -0.15780999
000310 1f aa 2e 3e d4 f1 4a be 87 58 3f be 1a 5e 09 3d
       0.17057084 -0.19818813 -0.18686114 0.033537008
000320 11 ea 2d be 71 0f 5b be b7 e4 53 be 0b 37 31 3d
       -0.1698382 -0.21392609 -0.20692717 0.043265384
000330 a7 53 f7 3c 8f 64 0d be ae a3 02 3d 2b b9 74 3d
       0.030191256 -0.13807891 0.03189438 0.059746902
000340 04 ef 96 bc b4 a7 06 3d 46 e8 76 3d cc c2 45 be
       -0.018424518 0.032874778 0.060280107 -0.1931259
000350 d8 c4 4a 3d ba 35 34 be 0a 5f 21 be b0 f6 ac bb
       0.04950413 -0.1759862 -0.15758911 -0.005278431
000360 73 51 97 3c 38 bd 11 be 05 31 1e be 95 42 0a 3d
       0.018471455 -0.14232337 -0.15448387 0.033754904
000370 c9 fd 2a be 4b dd 21 be b2 38 4b be 4a 01 1f be
       -0.16698374 -0.15807073 -0.19845846 -0.15527835
000380 3e 48 73 bd 70 c4 0b be 3d 64 0a 3d 3a c7 09 be
       -0.059395067 -0.13649154 0.033787 -0.13454905
000390 a0 19 56 be 3c 4b 3c be 41 f3 38 be a5 cc 67 3d
       -0.20908213 -0.18388075 -0.18061544 0.05659165
0003a0 e6 d9 18 3d ba 1a ac 3b 09 a4 b3 3c 38 ae c9 3c
       0.03731718 0.0052522095 0.021928804 0.024619207
0003b0 1b 89 24 3d 86 ba 15 be 43 f5 31 be f7 29 2e be
       0.040169816 -0.14621934 -0.17378716 -0.17008196
0003c0 9c d8 ca 3c 91 dc 0f 3e da 79 59 3c 26 d3 26 be
       0.02476149 0.14048983 0.013273681 -0.16291484
0003d0 5a 58 34 be ee e0 51 3d 3b b1 2e be cb 2f 1d be
       -0.17611828 0.0512399 -0.17059796 -0.15350263
0003e0 1e 20 39 be 84 e9 e5 3c 0a be 20 3e 25 70 1b be
       -0.18078658 0.02806545 0.15697494 -0.15179498
0003f0 4b 82 3d be d7 42 1b 3c 92 dc 6d 3d 20 2a 0b 3d
       -0.18506734 0.009476385 0.05807168 0.03397572
