models/PPOClipcritic.pth (torch, 2368 bytes, 3 tensors)

fc1.weight f4 [16, 2]
000000 5b a9 e6 be 12 8b d6 bd c9 ca 9b 3e 08 00 c9 be
       -0.45051083 -0.10475744 0.3042815 -0.39257836
000010 fe b5 d2 3e 39 1f bb be f6 38 b1 3e 00 91 0a bc
       0.41154474 -0.36547258 0.3461377 -0.008457422
000020 51 9d 14 3f 20 3a d3 bd e4 1d 5b 3e 1e 7d f2 3e
       0.58052546 -0.10313821 0.21398121 0.47361082
000030 da e5 b4 3e a0 f4 1e bf f5 ff 2e 3f 7e f4 99 3e
       0.35331613 -0.6209202 0.6835931 0.30069345
000040 2b 4e 22 3f be 0d 24 be f0 1d 43 3e 8c 87 36 3f
       0.63400525 -0.16020867 0.19054389 0.7130058
000050 80 72 14 3d d0 a5 22 be 4c c1 fd be d1 0f 97 be
       0.03624201 -0.15883565 -0.49561536 -0.29504254
000060 39 bd 24 bf 84 38 26 bd ce 03 c3 be 92 5c 6a be
       -0.6435123 -0.04058124 -0.3808884 -0.22886875
000070 cb dc 0f bf 3b eb 49 3d f6 8a a3 3e 18 85 09 3e
       -0.5619628 0.0492966 0.31941956 0.13429677

fc1.bias f4 [16]
000000 fd b9 a9 3e d0 d4 1b 3e 70 bc 2d be 60 00 3f 3d
       0.3314971 0.152179 -0.16966414 0.046631217
000010 f6 3a b6 be 30 73 20 bd 00 70 96 ba c0 b2 45 bd
       -0.3559186 -0.03917235 -0.001147747 -0.048266172
000020 7f 5f ca 3e 22 30 dd 3d 11 9a 22 bf ef 5c e3 bd
       0.39525983 0.10800196 -0.63516337 -0.1110171
000030 da d6 cf be fe fe 2e bf 4b 26 0a 3f 00 69 28 bf
       -0.40593606 -0.6835784 0.5396468 -0.6578522

fc2.weight f4 [1, 16]
000000 36 71 09 3e 5d df 67 be 30 54 bb bd b0 9c fc 3d
       0.13422093 -0.226438 -0.09146917 0.12334573
000010 60 93 2f be 00 74 c4 b9 f0 55 e5 bc ae b2 09 3e
       -0.17146063 -0.0003747046 -0.02799508 0.13447067
000020 75 a3 35 bd b6 d1 31 bd e6 f5 1e be c3 b3 94 3d
       -0.044345338 -0.043412887 -0.1552349 0.07260849
000030 cd 12 cc 3c 88 71 20 be 87 e0 44 3e f0 e3 26 3e
       0.024911309 -0.15668309 0.19226275 0.16297889
