models/PPOClip_actor.pth (torch, 2560 bytes, 4 tensors)

fc1.weight f4 [16, 4]
0	0x3ecf64de	0.40506643
1	0x3e7f5a69	0.24936832
2	0xbea25f0f	-0.3171315
3	0xbf260bfc	-0.64862037
4	0xbe515a9f	-0.20444725
5	0x3ddcdc94	0.107842594
6	0x3f2d6c28	0.6774316
7	0x3ed60251	0.41798642
8	0xbed603e2	-0.41799837
9	0xbe5fb302	-0.2184563
10	0xbd92d799	-0.07170028
11	0x3d929f7a	0.07159324
12	0xbd571848	-0.05251339
13	0xbecf4c33	-0.40487823
14	0x3d203a4e	0.039118104
15	0x3e8ccf2d	0.27501813
16	0xbe489666	-0.19588622
17	0xbeca2739	-0.3948305
18	0x3e6c0ef2	0.23052576
19	0x3e21ff3a	0.15820017
20	0xbea40dfc	-0.3204192
21	0xbe575894	-0.21029884
22	0x3e212548	0.15736878
23	0xbdc01e90	-0.09380829
24	0xbdb9138c	-0.090369314
25	0xbf07932a	-0.5295893
26	0xbe172cf4	-0.14763242
27	0x3dad38c0	0.0845809
28	0x3e6ba6df	0.23012875
29	0x3ed1d221	0.40980628
30	0x3e54f7bd	0.2079763
31	0x3df77077	0.12081998
32	0x3ee5ca72	0.44881016
33	0xbe973a99	-0.29536894
34	0xbe9ccbcb	-0.30624232
35	0xbf02b16e	-0.51051986
36	0x3ebdcfc5	0.37072578
37	0xbeed8545	-0.4639074
38	0xbe453fc3	-0.19262604
39	0xbd43664e	-0.047704987
40	0x3ee76993	0.45197734
41	0x3e8a3faf	0.27001712
42	0xbf021d8c	-0.50826335
43	0xbef3cfbf	-0.47619435
44	0x3e017f07	0.12646113
45	0x3ec7411e	0.38916868
46	0x3f41f2f6	0.75761354
47	0x3f015459	0.5051933
48	0xbec95730	-0.3932433
49	0x3ede214f	0.43384787
50	0x3e8eec27	0.27914545
51	0xbe738c3e	-0.23783967
52	0x3dbd158d	0.09232626
53	0x3e950f6d	0.2911333
54	0xbe46d589	-0.19417395
55	0x3e5aca76	0.21366295
56	0x3dc5377b	0.09629723
57	0xbf0ef96d	-0.55849344
58	0x3f09ccdb	0.5382821
59	0x3e9d07ca	0.30670005
60	0x3e062b97	0.13102566
61	0x3eb7e285	0.35915008
62	0x3ef0045f	0.46878335
63	0x3f02b92b	0.51063794

fc1.bias f4 [16]
0	0x3ebfe1f0	0.37477064
1	0x3e106d7e	0.14104268
2	0xbde40575	-0.11133853
3	0x3ebd9cf4	0.37033808
4	0x3e872a60	0.26399517
5	0xbebeafde	-0.3724355
6	0xbe9a18d7	-0.30097076
7	0xbe9f8f35	-0.31163946
8	0xbe38b291	-0.18036868
9	0x3e6837ca	0.22677532
10	0x3d752e3d	0.05985855
11	0x3de9d68b	0.11417874
12	0xbcb7def1	-0.022445174
13	0x3e876b05	0.26448837
14	0xbc0ba086	-0.0085221585
15	0x3e53551f	0.2063794

fc2.weight f4 [2, 16]
0	0x3c6f338f	0.014599695
1	0xbea14699	-0.31499174
2	0x3df7b763	0.12095525
3	0xbe7214ae	-0.23640701
4	0xbe86e903	-0.2634965
5	0x3e460c64	0.19340664
6	0xbe4f45a7	-0.20241414
7	0xbde5f1e9	-0.11227781
8	0x3d8c985a	0.06864996
9	0xbde78e3f	-0.11306428
10	0x3dd33b18	0.103140056
11	0xbed12a0b	-0.4085239
12	0x3e161ce2	0.14659455
13	0x3e2cadd3	0.16863184
14	0xbe195ea0	-0.14977503
15	0xbe9f904a	-0.3116477
16	0xbec9fa1e	-0.39448637
17	0x3e9f42cb	0.31105646
18	0xbc9feaef	-0.019521205
19	0xbded4df9	-0.11587138
20	0x3d873c4c	0.066032976
21	0xbe383eea	-0.1799275
22	0x3e5765ad	0.2103488
23	0xbcb6bccf	-0.022306828
24	0xbdd2c536	-0.10291521
25	0xbe53c762	-0.20681527
26	0xbea9ea6b	-0.3318666
27	0xbc80db2c	-0.01572951
28	0xbc27b845	-0.010236804
29	0x3e0427c8	0.129058
30	0x3ea89359	0.32924917
31	0x3eb83544	0.35978138

fc2.bias f4 [2]
0	0x3dd6d209	0.1048928
1	0xbd804841	-0.06263781
