models/PPOContinuous_critic.pth (torch, 170908 bytes, 7 tensors)

fc1.0.weight f4 [64, 3]
0.5068059 0.56481713 0.105473466 -0.15965323 0.27793893 -0.2855865 -0.57063025 -0.16495569
-0.6345348 -0.3398747 -0.4991057 0.10476116 -0.07727056 0.19147794 0.2577279 -0.21564712
0.38287634 0.5672453 -0.11471562 0.4597437 0.48114696 0.2543388 -0.5455754 0.55466366
-0.16061448 0.41648182 0.47561547 -0.39577428 0.6455091 0.5383783 0.17694362 0.44148257
0.33403993 -0.42560124 0.10613991 -0.51121557 -0.029100055 0.62618273 0.3047153 -0.15266997
-0.52579594 -0.29712343 0.2983796 0.284286 -0.41298392 -0.062727034 0.539884 0.4937107
0.38050035 -0.33039936 0.5969413 0.36604235 -0.61789757 0.09277309 -0.35518408 0.372194
-0.045240305 0.5090086 -0.24543595 0.32616097 -0.29795966 -0.10510003 0.1139719 0.38504976
-0.039207924 -0.443237 -0.59517366 0.18555602 -0.016297843 -0.42339617 0.46354374 0.19783905
0.21166992 0.29262137 0.53925073 0.23695871 0.23711301 0.1400176 -0.27344927 -0.138273
-0.20482926 -0.06558425 0.17020604 0.30412737 -0.2678734 -0.1481608 0.28252077 -0.21013695
0.47396106 -0.04642301 0.32527208 -0.3522265 -0.08369518 -0.469224 0.5395576 -0.412553
0.48033372 -0.10706333 -0.05208614 0.3060671 0.5806021 0.07589971 0.36006045 0.46190542
0.39151317 0.15421349 0.01037089 0.32511625 -0.5527437 -0.4548533 -0.4189737 -0.31450483
0.6322882 0.11056917 -0.24254598 -0.19343556 -0.40443 0.41423 0.29788667 -0.4130106
0.5261832 0.26835468 0.09806094 -0.6278078 0.17116731 0.61300755 -0.41972807 0.058390025
-0.23433715 -0.22576919 -0.44512594 0.105043076 0.18976982 0.008944728 0.2543452 0.4699951
0.15738134 0.40337083 0.03920426 -0.014781803 0.13518447 -0.060589787 0.27030647 -0.5931782
-0.12221002 -0.5889948 -0.37927085 -0.57612205 -0.22723156 -0.63172364 0.011143092 0.107138745
0.4849721 0.4629292 -0.35470584 -0.00393311 0.06617086 0.63781875 0.21781631 -0.3520014
0.16181079 0.3897469 -0.2971215 0.01726128 -0.3212444 0.3770737 0.3963971 -0.60931563
0.12903066 -0.3352055 -0.5608977 -0.045909595 0.42773598 -0.007471628 -0.06145116 -0.28443074
-0.07282177 0.046882704 -0.5798915 -0.60732543 -0.33393186 0.003386665 0.530904 0.13594359
0.6237084 0.5400967 -0.39293477 0.5694559 0.08942769 -0.06137258 -0.16356735 -0.18569472
00000000: 08be 013f db97 103f 7902 d83d 237c 23be
00000010: 034e 8e3e 6538 92be d314 12bf 25ea 28be
00000020: df70 22bf 0f04 aebe c88a ffbe 058d d63d
00000030: 0740 9ebd cb12 443e e9f4 833e 99d2 5cbe
00000040: 5e08 c43e fd36 113f 06f0 eabd 8763 eb3e
00000050: e558 f63e b238 823e d4aa 0bbf 70fe 0d3f
00000060: 1f78 24be 1b3d d53e df83 f33e eda2 cabe
00000070: 1640 253f 29d3 093f b530 353e 010a e23e
00000080: 4807 ab3e 68e8 d9be e25f d93d 06df 02bf
00000090: 3d63 eebc 834d 203f a503 9c3e 8455 1cbe
000000a0: 909a 06bf 9020 98be 36c5 983e ef8d 913e
000000b0: a172 d3be 0877 80bd d635 0a3f a6c7 fc3e
000000c0: f1d0 c23e 1b2a a9be 25d1 183f e769 bb3e
000000d0: 892e 1ebf d1ff bd3d b0da b5be 3690 be3e
000000e0: e64d 39bd 634e 023f 9053 7bbe 92fe a63e
000000f0: 2b8e 98be af3e d7bd 196a e93d 3e25 c53e
00000100: 7d98 20bd f6ef e2be 4d5d 18bf 6602 3e3e
00000110: 0e83 85bc 62c7 d8be 9b55 ed3e 5296 4a3e
00000120: 00c0 583e 78d2 953e 560c 0a3f 4ea5 723e
00000130: c1cd 723e c660 0f3e 8b01 8cbe 7097 0dbe
00000140: c3be 51be 0951 86bd 7e4a 2e3e 95b6 9b3e
00000150: b426 89be 77b7 17be 90a6 903e 242e 57be
00000160: 06ab f23e 0e26 3ebd 108a a63e 0857 b4be
00000170: 6168 abbd 213e f0be 7220 0a3f 263a d3be
00000180: 4dee f53e 0544 dbbd 4758 55bd d4b4 9c3e
00000190: 57a2 143f 4f71 9b3d d859 b83e de7e ec3e
000001a0: 6a74 c83e 24ea 1d3e aaea 293c a375 a63e
000001b0: 9c80 0dbf 88e2 e8be b983 d6be c706 a1be
000001c0: a4dd 213f 1772 e23d f95d 78be f913 46be
000001d0: 7311 cfbe f415 d43e 9a84 983e 2076 d3be
000001e0: f1b3 063f c965 893e 2dd4 c83d 03b8 20bf
000001f0: 7c46 2f3e 10ee 1c3f 99e6 d6be 612a 6f3d
00000200: 14f6 6fbe 0a30 67be 8ce7 e3be d320 d73d
00000210: 0553 423e e98c 123c 8939 823e 33a3 f03e
00000220: 9328 213e 9f86 ce3e a594 203d 602f 72bc
00000230: cc6d 0a3e ff2c 78bd 9c65 8a3e 87da 17bf
00000240: 3f49 fabd 5dc8 16bf ca2f c2be bc7c 13bf
00000250: 64af 68be a4b8 21bf 8491 363c 8f6b db3d
00000260: 434e f83e 0e05 ed3e 019c b5be 51e1 80bb
00000270: 9684 873d 1748 233f 3d0b 5f3e 8739 b4be
00000280: bab1 253e e88c c73e 4f20 98be 8767 8d3c
00000290: 257a a4be ce0f c13e 90f4 ca3e 1cfc 1bbf
000002a0: 9d20 043e 0ea0 abbe fe96 0fbf b30b 3cbd
000002b0: 3600 db3e 8fd4 f4bb 36b4 7bbd e8a0 91be
000002c0: 9523 95bd 1408 403d c573 14bf ae79 1bbf
000002d0: 1ef9 aabe cff2 5d3b 53e9 073f cc34 0b3e
000002e0: 5bab 1f3f c743 0a3f bf2e c9be ddc7 113f
000002f0: dd25 b73d d061 7bbd 337e 27be c226 3ebe

fc1.0.bias f4 [64]
-0.26021636 -0.38641164 0.18954524 0.06416835 -0.16538006 -0.46103793 -0.22687222 0.27566862
0.55133814 -0.19323707 0.64519435 -0.032076165 0.015399865 -0.38473776 0.12198576 0.59522986
0.0013642809 0.25936767 0.4092473 0.571328 -0.4401931 0.5531495 0.596096 -0.4688456
0.45458525 -0.51327807 0.20977935 -0.27439544 -0.3843692 0.48411852 0.39349103 0.6069574
-0.27402323 0.046409328 0.50910676 -0.22973277 -0.3821198 -0.3348807 0.28528383 0.4720868
-0.11940385 0.0596273 -0.1467602 0.64609104 -0.4055457 -0.17978993 0.06620114 0.094986826
0.57826877 0.50580215 0.44372803 -0.5928168 0.55124736 -0.44418815 0.40265763 0.22600058
0.021631222 0.41510904 -0.25210992 0.21217728 0.5536189 0.3568777 0.20909043 -0.26181105
00000000: 143b 85be bfd7 c5be 2618 423e b26a 833d
00000010: 6459 29be 2a0d ecbe 3151 68be 7024 8d3e
00000020: 7f24 0d3f f0df 45be 752b 253f 4c62 03bd
00000030: b74f 7c3c 59fc c4be acd3 f93d fc60 183f
00000040: acd1 b23a d7cb 843e dd88 d13e 8d42 123f
00000050: fd60 e1be 359b 0d3f bf99 183f 880c f0be
00000060: 66bf e83e 3166 03bf 66d0 563e 8f7d 8cbe
00000070: 0acc c4be 62de f73e a877 c93e 8f61 1b3f
00000080: c64c 8cbe b517 3e3d d254 023f 113f 6bbe
00000090: 35a5 c3be 7c75 abbe b910 923e 5cb5 f13e
000000a0: 018a f4bd c13b 743d 4e48 16be 3966 253f
000000b0: b0a3 cfbe da1a 38be 7794 873d 7488 c23d
000000c0: 6c09 143f 407c 013f 5230 e33e d8c2 17bf
000000d0: 8c1e 0d3f a16c e3be 2429 ce3e b26c 673e
000000e0: f633 b13c 2c89 d43e 8d14 81be 0045 593e
000000f0: f8b9 0d3f adb8 b63e cd1b 563e 190c 86be

fc1.2.weight f4 [128, 64]
-0.009962576 0.15166938 0.014575523 -0.015998501 0.022401758 0.079354435 0.07839899 0.08369611
0.13375641 0.049771003 0.032960307 -0.04944792 0.16054271 0.18158369 0.14376834 0.11311266
-0.01535173 -0.017811192 0.15260702 -0.017907681 -0.064908944 -0.00114235 0.11955302 0.13174945
0.08426518 -0.0558369 0.1330521 -0.0071832915 -0.08847886 0.054967415 0.19023316 0.07652938
-0.028333785 0.037220843 0.12253463 0.15297821 0.14378294 0.13926293 0.05430287 -0.01501051
0.008926342 -0.0022543026 0.18251148 0.008970319 0.012229421 0.15182826 -0.04040912 -0.035304084
-0.028788015 -0.0081511615 0.15088712 -0.090054534 0.12641257 0.06855279 0.15509664 0.06516063
-0.05538247 0.12986372 0.031997185 0.14617169 0.17530514 -0.022750242 0.035461932 0.06561202
0.06833613 0.0066875517 -0.091569334 0.042310297 -0.12236062 -0.027110636 0.078703046 -0.07132125
-0.03540936 0.00015056133 0.111448094 0.090042874 0.0027380735 0.028296709 0.10835858 -0.09696603
-0.097729966 -0.12159683 -0.09068163 -0.011080295 0.027065948 0.0132237375 0.08558443 -0.11876634
-0.006823793 0.041275725 -0.07386069 -0.055690274 0.10159534 0.059288174 0.014550626 -0.1004488
-0.012862161 -0.08859187 0.092336744 0.049347952 -0.04650089 0.118086696 -0.09231208 0.03849499
-0.115844116 -0.00029179454 0.04528278 0.12206228 -0.01647298 0.0037612766 0.018717647 -0.10922851
-0.07251865 -0.09402442 0.039843872 0.05925098 -0.11842328 -0.06722695 -0.080949396 -0.11492944
0.02661331 -0.10944313 0.024780229 -0.06900108 -0.078104764 0.019875199 0.06855093 0.04813823
0.10195202 0.021966541 -0.050155647 0.09920306 0.09910755 0.0038839327 -0.01598703 -0.0007685644
0.16921888 0.12465751 0.046012405 -0.0030537222 0.106589325 0.107050546 0.15535463 0.043610845
0.078153074 0.11426576 0.08393697 0.15085883 -0.040772785 0.12818335 -0.05019213 0.047060505
0.021274434 0.16111426 0.05928409 0.055026956 0.11082166 0.06936511 0.07456472 0.004635397
-0.049498774 -0.044389967 0.1444053 0.085768834 0.1921417 0.15257315 0.109752625 -0.0384271
0.03800658 0.07384282 0.03673419 0.08420035 -0.029337551 0.14496742 0.15497015 -0.044941675
0.07093524 0.031393606 0.0754572 -0.06798483 0.03889021 0.011240783 0.1467898 0.009466538
0.08194637 0.13997898 -2.6485308e-05 0.09727176 0.074036926 0.12253418 -0.049422532 -0.016270222
-0.018430108 -0.074228205 0.004591772 -0.03885934 0.033613216 0.13923827 0.12070635 0.09115006
0.15473075 0.034936402 0.12650676 0.113681495 0.15654191 0.012291149 0.113093674 -0.030432869
0.14832711 0.11543026 0.13162306 0.053947173 0.08640528 -0.036540475 0.10966603 -0.0011964525
0.053930882 -0.04589501 0.12078746 0.009792875 -0.008087792 0.043538194 -0.003333156 -0.023886697
0.083994955 0.08381912 -0.0066981106 0.10297708 0.09224922 0.093161106 -0.032731153 -0.03160478
0.010573191 0.0055810506 -0.053835437 0.10093277 -0.06726438 0.0818194 0.11505515 0.039086156
0.123822466 -0.005351237 0.06345388 0.122534946 -0.0049289437 0.13077027 -0.0026182719 0.10192348
0.033176538 0.0072891866 -0.040775582 0.17214952 0.046923906 0.108346276 0.009034851 0.14466202
00000000: 133a 23bc 384f 1b3e 2dce 6e3c 4a0f 83bc
00000010: e483 b73c 9484 a23d a68f a03d de68 ab3d
00000020: 71f7 083e aedc 4b3d 6301 073d e789 4abd
00000030: 4f65 243e 13f1 393e 0238 133e 9ca7 e73d
00000040: d385 7bbc c7e8 91bc 0445 1c3e 21b3 92bc
00000050: fbee 84bd e8ba 95ba 37d8 f43d 54e9 063e
00000060: 3993 ac3d 3cb5 64bd cf3e 083e d161 ebbb
00000070: 6834 b5bd 8325 613d 7bcc 423e 70bb 9c3d
00000080: 411c e8bc e274 183d 70f3 fa3d 52a6 1c3e
00000090: d63b 133e f19a 0e3e b06c 5e3d a4ee 75bc
000000a0: cb3f 123c ecbc 13bb 4ae4 3a3e 3ff8 123c
000000b0: e95d 483c de78 1b3e 0984 25bd 049b 10bd
000000c0: d8d4 ebbc 738c 05bc 2782 1a3e 836e b8bd
000000d0: 4c72 013e 6865 8c3d a7d1 1e3e f072 853d
000000e0: bbd8 62bd fffa 043e 7b0f 033d 08ae 153e
000000f0: 3183 333e b75e babc 8840 113d 985f 863d
00000100: d0f3 8b3d 4023 db3b b488 bbbd 904d 2d3d
00000110: 3498 fabd 2017 debc 102f a13d e010 92bd
00000120: 6809 11bd 00e0 1d39 e63e e43d 6668 b83d
00000130: 4071 333b 80ce e73c 1aeb dd3d 2096 c6bd
00000140: a626 c8bd c207 f9bd 4ab7 b9bd 208a 35bc
00000150: 68b9 dd3c 60a8 583c e446 af3d c43b f3bd
00000160: 209a dfbb bc10 293d 4644 97bd 7c1b 64bd
00000170: 3811 d03d 28d8 723d c065 6e3c 1ab8 cdbd
00000180: d0bb 52bc a86f b5bd 0c1b bd3d 1421 4a3d
00000190: b877 3ebd 70d7 f13d 1e0e bdbd ecac 1d3d
000001a0: ae3f edbd 00fc 98b9 707a 393d cafb f93d
000001b0: 58f2 86bc c07f 763b c055 993c 32b3 dfbd
000001c0: a884 94bd e08f c0bd 5433 233d 28b1 723d
000001d0: e887 f2bd 48ae 89bd ccc8 a5bd 2060 ebbd
000001e0: 2804 da3c b823 e0bd e8ff ca3c 7050 8dbd
000001f0: 64f5 9fbd 50d1 a23c 6e64 8c3d 982c 453d
00000200: 38cc d03d 2df3 b33c 0270 4dbd f92a cb3d
00000210: e6f8 ca3d 9489 7e3b 3bf7 82bc 7c79 49ba
00000220: b747 2d3e 704c ff3d 8177 3c3d f520 48bb
00000230: 814b da3d 513d db3d 4915 1f3e 49a1 323d
00000240: b80e a03d 2b04 ea3d 25e7 ab3d bd7a 1a3e
00000250: 5d01 27bd 7f42 033e 4396 4dbd 84c2 403d
00000260: b947 ae3c 23fb 243e e0d3 723d f263 613d
00000270: 77f6 e23d 4b0f 8e3d 63b5 983d 87e4 973b
00000280: 3abf 4abd 41d2 35bd fcde 133e 92a7 af3d
00000290: cbc0 443e 233c 1c3e fcc5 e03d bc65 1dbd
000002a0: caac 1b3d e83a 973d 9776 163d 3c71 ac3d
000002b0: 4e55 f0bc 5772 143e 7fb0 1e3e c314 38bd
000002c0: 7f46 913d 9596 003d 4e89 9a3d a13b 8bbd
000002d0: 574b 1f3d 432b 383c 1150 163e 8a19 1b3c
000002e0: 80d3 a73d a656 0f3e c42c deb7 6b36 c73d
000002f0: aca0 973d 33f3 fa3d 486f 4abd 2149 85bc
00000300: bdfa 96bc f504 98bd 9376 963b f92a 1fbd
00000310: 03ae 093d 7a94 0e3e e434 f73d e2ac ba3d
00000320: bd71 1e3e 7919 0f3d fd8a 013e d8d1 e83d
00000330: 864c 203e d160 493c a89d e73d 5a4e f9bc
00000340: 10e3 173e b366 ec3d 32c8 063e b6f7 5c3d
00000350: 40f5 b03d 77ab 15bd 9598 e03d 49d2 9cba
00000360: a1e6 5c3d 68fc 3bbd 6a5f f73d 4b72 203c
00000370: a982 04bc 1b55 323d 1471 5abb 09ae c3bc
00000380: 8c05 ac3d 5ca9 ab3d d37b dbbb a6e5 d23d
00000390: 29ed bc3d 40cb be3d 1a11 06bd 0474 01bd
000003a0: 2d3b 2d3c 3fe1 b63b 8c82 5cbd d7b5 ce3d
000003b0: e8c1 89bd ee90 a73d 09a2 eb3d ce18 203d
000003c0: a296 fd3d 6e59 afbb 1cf4 813d 9af3 fa3d
000003d0: fa82 a1bb a4e8 053e 5097 2bbb 42bd d03d
000003e0: 1fe4 073d 21da ee3b 4c04 27bd f747 303e
000003f0: 4833 403d a7e4 dd3d e906 143c 4822 143e

fc1.2.bias f4 [128]
0.18727428 0.08447227 0.14581606 0.058509883 -0.11541988 0.054852013 0.05434657 -0.04881249
-0.067221634 0.17781009 0.009031545 0.15577263 -0.0012521227 0.10810134 0.16928658 0.09417031
0.12754202 0.011931355 -0.0066376776 0.14270957 0.06625004 0.16680095 0.027131831 0.12005575
0.18496294 0.16014573 -0.044938207 -0.014417712 -0.02649426 -0.016784493 0.06463283 0.10925701
0.112729914 -0.016616344 -0.055150267 0.051793154 0.15875745 0.15042816 0.079262644 0.15538423
0.06397515 0.0011025309 -0.033822715 -0.11396651 0.013721853 0.09377122 0.10984033 0.058206238
-0.015373293 0.02389601 0.112043515 0.13126345 -0.04177574 0.06091305 -0.012164548 0.08137905
0.16771461 0.13104533 0.025053158 -0.049955547 0.0707337 -0.08201578 0.073750794 -0.055772275
-0.031001063 -0.049973212 0.10784 0.1384303 0.0002856584 0.13615692 -0.05294267 0.10680276
0.08141349 -0.02524719 -0.006696003 0.010286244 0.09812907 0.1338488 -0.036308393 -0.0026723444
0.17988536 0.18780904 -0.010138892 0.14244102 0.07851394 0.04859264 0.04586405 0.14611235
0.045508355 0.006227437 0.14643282 0.10480004 -0.03167916 0.044499777 -0.07802975 0.020265646
0.06606363 0.14296599 0.14776918 0.1577446 -0.042354118 0.16910441 -0.01393146 0.18399276
0.00719799 0.05545285 0.117141105 0.011655033 -0.05061325 0.08633266 0.16331431 0.08081819
0.07019932 0.045556623 -0.057397127 0.14272298 0.024271037 -0.034238003 0.14793797 0.08015324
0.17910926 0.09452076 0.12189081 0.03609825 0.028617656 -0.022114182 0.020796098 0.0036205603
00000000: d4c4 3f3e ccff ac3d ce50 153e 0fa8 6f3d
00000010: 4261 ecbd 81ac 603d 829a 5e3d 9bef 47bd
00000020: 7fab 89bd d913 363e 0cf9 133c dc82 1f3e
00000030: 441e a4ba 3c64 dd3d 7659 2d3e 5ddc c03d
00000040: 609a 023e bb7b 433c e080 d9bb 7522 123e
00000050: 1aae 873d decd 2a3e 9343 de3c cadf f53d
00000060: ed66 3d3e 3efd 233e 2011 38bd 4438 6cbc
00000070: 7e0a d9bc a27f 89bc 385e 843d 24c2 df3d
00000080: f1de e63d 001f 88bc 3fe5 61bd 0f25 543d
00000090: 5091 223e d709 1a3e 7454 a23d 0b1d 1f3e
000000a0: 6705 833d cc82 903a b089 0abd 4667 e9bd
000000b0: 9fd1 603c 200b c03d f8f3 e03d aa69 6e3d
000000c0: 44e0 7bbc 91c1 c33c 1277 e53d ed69 063e
000000d0: 0a1d 2bbd f67f 793d d04d 47bc 0faa a63d
000000e0: 61bd 2b3e bf30 063e 483c cd3c 309e 4cbd
000000f0: d5dc 903d e4f7 a7bd a80a 973d 7871 64bd
00000100: f1f5 fdbc b6b0 4cbd 38db dc3d acc0 0d3e
00000110: 6cc4 9539 b86c 0b3e 6ada 58bd 68bb da3d
00000120: 1ebc a63d 32d3 cebc 256a dbbb a287 283c
00000130: e5f7 c83d a90f 093e 1cb8 14bd 8022 2fbb
00000140: de33 383e 0351 403e 981d 26bc 0fdc 113e
00000150: ebcb a03d 1309 473d f1db 3b3d 7a9e 153e
00000160: f866 3a3d 870f cc3b 7cf2 153e 67a1 d63d
00000170: 02c2 01bd 6645 363d 10ce 9fbd 2404 a63c
00000180: 5e4c 873d ad65 123e ce50 173e cd87 213e
00000190: 837b 2dbd b529 2d3e c740 64bc 9968 3c3e
000001a0: 1edd eb3b 8722 633d ade7 ef3d c0f4 3e3c
000001b0: d74f 4fbd 2dcf b03d de3b 273e 0284 a53d
000001c0: a9c4 8f3d 9599 3a3d 4019 6bbd f925 123e
000001d0: 0ed4 c63c 263d 0cbd 0d7d 173e 6227 a43d
000001e0: 6b68 373e 1a94 c13d e4a1 f93d c2db 133d
000001f0: 936f ea3c cd28 b5bc 945c aa3c ec46 6d3b

fc1.4.weight f4 [256, 128]
0.12162249 -0.03529261 0.017063674 0.12884025 0.03968232 0.014059332 0.05515595 0.042081933
0.092633665 0.052740496 0.010868107 0.12251814 0.04804035 0.056235533 0.118735686 -0.009775673
0.04517328 0.10539954 -0.03904896 0.086526155 0.13776246 0.059828743 0.11906755 -0.012601673
0.15837702 0.14699456 0.058818106 0.093178764 0.09158637 0.035134435 0.04634241 -0.061191764
-0.0004380913 -0.030295018 0.04356421 0.011291652 0.05091965 0.0260141 0.10103645 0.07241956
-0.013262836 0.06280503 0.06586272 0.05623158 0.087620206 0.13903025 0.039836403 0.12842038
0.04594855 0.080459304 0.07329068 0.06694843 0.109862804 0.12493723 0.08297103 0.12622485
0.05439327 0.025707563 -0.07796559 0.13492484 0.0967438 0.05755841 0.023500549 0.009848993
-0.013312253 0.040033787 0.13775992 0.045401018 0.05650454 0.06178425 0.08383633 0.030767957
0.047596626 0.078403875 0.022418093 0.13948072 0.10532432 0.1346789 0.13267775 -0.021813609
0.06389966 -0.0113719115 0.042506393 0.092374265 0.05683256 0.047881283 0.008803506 0.14952166
0.09477847 0.057164107 0.10042123 0.14544627 0.057063002 0.012588137 0.047080584 0.087300144
0.058800522 0.12632221 0.0726498 0.025710227 0.04143264 0.1036781 0.12103544 0.041058596
0.072648 0.006680372 0.058939695 0.0196618 0.0695195 0.13193859 -0.00854418 0.14529712
0.049700286 0.16040099 0.10112455 0.029627018 0.14748625 -0.0029992696 0.02127618 0.15280442
0.0063947383 0.090941325 -0.0013802246 0.093469344 0.044932712 -0.011842262 0.0806563 0.06685468
-0.02225012 -0.018804245 0.049820658 0.039399143 0.060067616 0.059199594 0.07913964 0.0631844
0.004512877 -0.057354625 -0.09338182 0.01011372 0.04696952 0.020935053 -0.0019819476 -0.06393339
-0.07981134 -0.03043304 -0.051976703 -0.06738452 -0.012192763 -0.0012060743 0.03124904 -0.061310433
-0.039955735 -0.060179546 0.07308016 -0.04547481 0.020751128 -0.025502231 -0.07549893 -0.06551374
0.034066387 0.082166664 -0.08887623 0.05592879 -0.024436265 0.059959892 -0.00088005513 0.021445466
-0.05067654 -0.060162473 0.0856088 0.024698488 0.028977111 -0.07089594 -0.029563118 0.014240444
0.07805233 -0.022379452 0.04980217 0.03529407 -0.0785303 -0.08226594 0.021723442 -0.003527903
0.077329904 0.052296396 0.0077225342 0.08503192 0.04854802 0.046648197 -0.0801317 -0.0063098143
-0.02595108 -0.06972343 -0.0843432 0.032994453 0.055903677 -0.06682107 0.018924242 -0.07145392
-0.00093835994 -0.084914126 0.08331342 0.030353768 -0.03759347 0.077276394 0.07315217 -0.026145596
0.033826873 -0.01855158 0.005660685 0.041454796 -0.010012128 0.079267986 0.07203892 -0.015014556
0.0717912 0.062825225 -0.010210933 -0.044111837 0.05779646 -0.05282342 -0.06372366 -0.013114922
-0.08511646 0.09377811 0.007125203 -0.002165898 -0.07839482 0.013971389 -0.05470282 -0.035031922
0.037756547 -0.04644401 -0.041322105 0.0058050677 -0.06906451 0.015866067 0.067678444 0.070189
0.072209716 -0.07627022 -0.0044470835 0.014263852 -0.016187806 -0.002092229 -0.04603848 -0.022604737
0.004392089 0.03874168 -0.08144334 -0.0036979446 0.050111767 0.049862526 0.055111352 -0.07291362
00000000: 3615 f93d fc8e 10bd 1ec9 8b3c b3ee 033e
00000010: ee89 223d 1d59 663c 35eb 613d 1b5e 2c3d
00000020: b8b6 bd3d 6b06 583d 2510 323c caea fa3d
00000030: f5c5 443d 3b57 663d b22b f33d 252a 20bc
00000040: 9e07 393d b7db d73d cdf1 1fbd a034 b13d
00000050: 9a11 0d3e fc0e 753d b0d9 f33d 3f77 4ebc
00000060: 962d 223e be85 163e 41eb 703d 82d4 be3d
00000070: a291 bb3d 20e9 0f3d 8ad1 3d3d 37a4 7abd
00000080: 9eaf e5b9 422d f8bc 6370 323d 9f00 393c
00000090: 1f91 503d 861b d53c 33ec ce3d b550 943d
000000a0: 5e4c 59bc ec9f 803d 09e3 863d 1653 663d
000000b0: 3972 b33d f25d 0e3e 7f2b 233d a280 033e
000000c0: 8c34 3c3d d9c7 a43d 6d19 963d 421c 893d
000000d0: c0ff e03d 17df ff3d b7ec a93d 1641 013e
000000e0: 7acb 5e3d ab98 d23c 6cac 9fbd bd29 0a3e
000000f0: 9d21 c63d 5ec2 6b3d 3984 c03c ac5d 213c
00000100: a31b 5abc 78fa 233d f010 0d3e 6bf6 393d
00000110: 4e71 673d 7b11 7d3d 62b2 ab3d 150d fc3c
00000120: aef4 423d 3692 a03d 26a6 b73c 09d4 0e3e
00000130: 47b4 d73d 44e9 093e addc 073e 74b2 b2bc
00000140: d3dd 823d 4151 3abc 2f1b 2e3d b82e bd3d
00000150: 42c9 683d 2a1f 443d 953c 103c 351c 193e
00000160: 371b c23d e924 6a3d a5a9 cd3d deef 143e
00000170: e5ba 693d 793e 4e3c 92d7 403d 6bca b23d
00000180: d1d8 703d 9c5a 013e 6bc9 943d 419e d23c
00000190: 46b5 293d 2f55 d43d 6ee1 f73d 0f2d 283d
000001a0: 7ac8 943d 06e7 da3b c06a 713d c811 a13c
000001b0: 3d60 8e3d e91a 073e e3fc 0bbc c5c8 143e
000001c0: 8792 4b3d 2840 243e 631a cf3d 5cb4 f23c
000001d0: a306 173e 658f 44bb 624b ae3c c378 1c3e
000001e0: f48a d13b 723f ba3d a7e8 b4ba db6c bf3d
000001f0: 5d0b 383d 0c06 42bc 212f a53d 1beb 883d
00000200: e245 b6bc 5c0b 9abc bf10 4c3d ff60 213d
00000210: 7609 763d 467b 723d f713 a23d d366 813d
00000220: c2e0 933b afec 6abd f83e bfbd 04b4 253c
00000230: 1d63 403d fd7f ab3c 90e3 01bb 82ef 82bd
00000240: 2174 a3bd b64e f9bc 86e5 54bd e500 8abd
00000250: 28c4 47bc 2315 9eba fdfd ff3c a620 7bbd
00000260: a0a8 23bd d47e 76bd 0dab 953d cb43 3abd
00000270: 45fe a93c 0eea d0bc 2f9f 9abd 112c 86bd
00000280: 3289 0b3d ff46 a83d be04 b6bd 9615 653d
00000290: 902e c8bc 8198 753d 80b3 66ba 67ae af3c
000002a0: 3492 4fbd ed6c 76bd ab53 af3d 7c54 ca3c
000002b0: 6861 ed3c e431 91bd 5a2e f2bc c050 693c
000002c0: e6d9 9f3d 1d55 b7bc 5cfd 4b3d 8490 103d
000002d0: 7ed4 a0bd 0c7b a8bd 5cf5 b13c 6434 67bb
000002e0: 245f 9e3d bf34 563d 500d fd3b 3725 ae3d
000002f0: 4ada 463d 2e12 3f3d 171c a4bd 8fc2 cebb
00000300: 5c97 d4bc 28cb 8ebd 21bc acbd 3125 073d
00000310: 41fb 643d 7cd9 88bd 0307 9b3c 6f56 92bd
00000320: 45fc 75ba 75e7 adbd 3aa0 aa3d 77a8 f83c
00000330: 9cfb 19bd 1643 9e3d ced0 953d 4a2f d6bc
00000340: 0c8e 0a3d 7cf9 97bc 447d b93b 81cc 293d
00000350: e909 24bc 4157 a23d 2489 933d 9dff 75bc
00000360: 4407 933d 83aa 803d c24b 27bc 9dae 34bd
00000370: fbbb 6c3d 5f5d 58bd 8d81 82bd f8df 56bc
00000380: 8a51 aebd bd0e c03d 897a e93b bdf1 0dbb
00000390: 778d a0bd 41e8 643c 1010 60bd a27d 0fbd
000003a0: 9ca6 1a3d 133c 3ebd 5e41 29bd 7038 be3b
000003b0: b271 8dbd 8ef9 813c ff9a 8a3d 40bf 8f3d
000003c0: b0e2 933d 9033 9cbd d7b8 91bb eeb2 693c
000003d0: 4a9c 84bc c71d 09bb d892 3cbd 922d b9bc
000003e0: 83eb 8f3b 99af 1e3d c4cb a6bd 3759 72bb
000003f0: ff41 4d3d a63c 4c3d 71bc 613d bc53 95bd

fc1.4.bias f4 [256]
0.134482 -0.007990916 -0.0062342808 0.07105321 -0.027140794 0.01536648 -0.005427301 -0.004967894
0.051738538 0.04876268 -0.04234756 0.038468678 0.06287275 0.047289852 0.07826596 0.02098352
-0.031646233 0.110712476 -0.019188266 0.058509585 0.06497532 0.01628787 0.058429252 0.0022995095
0.037072863 0.0051367795 0.018878207 -0.06622252 0.020673616 0.018117867 -0.010067341 0.018200502
0.0065173805 0.035148256 -0.015889168 0.024289688 0.10181861 -0.011679034 0.016495408 0.08224022
0.074518524 0.03583966 -0.02998106 0.018139662 -0.08679815 -0.014327691 -0.03459829 0.03160485
0.019674392 -0.06942522 -0.056260753 0.11879498 0.015001803 0.022629818 0.0098231295 0.014341779
0.006613193 0.031919364 0.0037326205 0.05301753 0.008960368 0.04395599 0.068923034 -0.04974232
0.020792302 0.044808462 0.06326446 -0.025835974 0.02782113 0.00091029704 -0.0004173421 0.08790498
-0.01590456 0.013308926 0.02526697 -0.047977876 0.05062073 0.08957988 -0.07091293 0.110888876
0.028912695 -0.013569004 0.073808335 0.11503197 -0.06412688 0.025906859 0.07325584 0.03446001
0.062362637 -0.02611309 -0.048717767 0.01730528 0.073179394 0.055837017 0.014162865 -0.043054976
0.039641585 0.06781684 0.0126682045 -0.080921985 0.14641435 0.13180009 -0.033110928 0.05546478
0.03623709 0.03425744 0.14567791 -0.07347013 0.05176206 -0.074759185 0.039536435 0.077701405
-0.037907574 0.028836945 0.05743396 -0.03566702 -0.07850077 -0.013979487 -0.0866656 -0.060421307
-0.069392264 0.009855461 0.13739288 -0.040679473 0.0794144 -0.029909162 -0.012459771 -0.024480334
0.045964047 -0.0817517 0.13248086 0.03742669 -0.02240863 0.061133575 0.02722298 0.0090849465
0.11189661 0.024623042 0.081504904 -0.07840142 0.055797536 0.022371057 0.044432025 -0.023889065
-0.035247974 0.12905006 -0.023137948 -0.06519209 0.056342613 0.12733914 0.021169057 0.05047273
0.0109669175 0.1305554 -0.06005378 0.07153598 -0.03400337 -0.07895837 0.0071446584 -0.03145676
-0.069284454 0.006583378 0.048321426 -0.00870376 -0.027590968 0.08607055 0.07920346 -0.08555516
-0.014938372 0.059442915 0.006183104 -0.037823208 -0.07418729 0.10886876 0.04050262 -0.0025831133
0.0124547 0.051972207 0.07661476 -0.02156728 0.11770985 0.013595141 0.09018486 0.06251894
-0.028689303 -0.011513066 0.07913031 0.056073144 0.09936752 0.060754314 0.026850384 0.13208245
0.095025524 -0.016806997 0.14576456 0.023472626 0.08116621 0.016136263 -0.04816883 -0.094276525
0.11876755 0.06836452 0.0833344 0.06033024 0.12180797 -0.024865648 0.068941966 0.03997016
-0.058095902 0.07831354 0.029084899 -0.034095913 0.10497574 0.10423138 -0.08285672 0.066957876
-0.010996588 -0.0010729114 0.09310295 -0.010917242 0.054566093 0.049940635 0.11923165 -0.06541488
0.08290716 0.13483684 -0.03361453 0.007890367 -0.009068862 0.05227454 0.052973073 0.014234474
0.0039647743 0.13430026 0.055762656 -0.07516854 -0.034813568 0.04723487 0.02333183 0.056952093
0.049904827 0.013292897 -0.027007762 0.056004666 -0.05732979 0.04018166 0.04437255 0.06094053
0.007848962 -0.038574353 0.06270468 0.059955638 -0.054408602 0.01668494 0.03019717 0.006948164
00000000: a6b5 093e 55ec 02bc f048 ccbb 5884 913d
00000010: 5f56 debc b0c3 7b3c 80d7 b1bb b7c9 a2bb
00000020: caeb 533d 60bb 473d a374 2dbd 5591 1d3d
00000030: 6ec3 803d 01b3 413d e749 a03d a2e5 ab3c
00000040: 7b9f 01bd 39bd e23d b630 9dbc bfa7 6f3d
00000050: c811 853d 246e 853c 8353 6f3d 5eb3 163b
00000060: b7d9 173d 6e52 a83b 78a6 9a3c ac9f 87bd
00000070: b75b a93c ec6b 943c 7df1 24bc 3819 953c
00000080: c08f d53b 9ef7 0f3d 002a 82bc 2bfb c63c
00000090: 4786 d03d 6b59 3fbc 6121 873c 8f6d a83d
000000a0: 2b9d 983d 9bcc 123d d79a f5bc a199 943c
000000b0: 3ac3 b1bd b1be 6abc f0b6 0dbd 1674 013d
000000c0: 312c a13c cf2e 8ebd ad71 66bd c84a f33d
000000d0: 1fca 753c 2b62 b93c 31f1 203c c8f9 6a3c
000000e0: 7cb3 d83b e1bd 023d fb9e 743b e928 593d
000000f0: 82ce 123c 320b 343d 8527 8d3d 9abe 4bbd
00000100: 9e54 aa3c 1489 373d cc90 813d f7a5 d3bc
00000110: 23e9 e33c 00a1 6e3a b5ce dab9 8707 b43d
00000120: 484a 82bc ae0d 5a3c adfc ce3c 7384 44bd
00000130: af57 4f3d a875 b73d cc3a 91bd b519 e33d
00000140: 51da ec3c 8750 5ebc d328 973d e295 eb3d
00000150: f454 83bd 9f3a d43c 2807 963d f025 0d3d
00000160: f76f 7f3d 1eeb d5bc 488c 47bd cdc3 8d3c
00000170: 14df 953d 5bb5 643d 5c0b 683c 6a5a 30bd
00000180: 375f 223d 8ee3 8a3d 4d8e 4f3c 6dba a5bd
00000190: a5ed 153e 9af6 063e 539f 07bd 0a2f 633d
000001a0: 586d 143d 8851 0c3d 972c 153e 8277 96bd
000001b0: 7404 543d 581b 99bd f5f0 213d ea21 9f3d
000001c0: f944 1bbd 753b ec3c df3f 6b3d 9517 12bd
000001d0: 03c5 a0bd 380a 65bc bc7d b1bd 557c 77bd
000001e0: 881d 8ebd cd78 213c b8b0 0c3e 859f 26bd
000001f0: 04a4 a23d 0f04 f5bc 1124 4cbc fb8a c8bc
00000200: cc44 3c3d 6f6d a7bd 10a9 073e bb4c 193d
00000210: 4e92 b7bc 3367 7a3d ba02 df3c 07d9 143c
00000220: 0d2a e53d 43b6 c93c 0bec a63d ec90 a0bd
00000230: f58b 643d 8243 b73c 5bfe 353d 00b3 c3bc
00000240: 2e60 10bd b325 043e cb8b bdbc 6e83 85bd
00000250: 83c7 663d 3165 023e bb6a ad3c 7ebc 4e3d
00000260: 96ae 333c 51b0 053e f4fa 75bd 7581 923d
00000270: 1e47 0bbd edb4 a1bd bd1d ea3b ced8 00bd
00000280: 02e5 8dbd 61b9 d73b b0ec 453d 379a 0ebc
00000290: 7406 e2bc c245 b03d 6c35 a23d 8b37 afbd
000002a0: 13c0 74bc 6a7a 733d a39b ca3b 82ec 1abd
000002b0: 82ef 97bd 96f6 de3d 13e6 253d 7349 29bb
000002c0: cc0e 4c3c cfe0 543d 33e8 9c3d ddad b0bc
000002d0: dd11 f13d 27be 5e3c d7b2 b83d ee09 803d
000002e0: d405 ebbc 4ca1 3cbc 120f a23d f4ac 653d
000002f0: 3381 cb3d 84d9 783d 56f5 db3c 9f40 073e
00000300: be9c c23d d4ae 89bc 4e43 153e aa49 c03c
00000310: 783a a63d 3230 843c ae4c 45bd 0d14 c1bd
00000320: 673c f33d b302 8c3d 3aab aa3d d71c 773d
00000330: 7576 f93d 0bb3 cbbc 7231 8d3d c0b7 233d
00000340: f8f5 6dbd d962 a03d 7443 ee3c 28a8 0bbd
00000350: 85fd d63d 4377 d53d c9b0 a9bd 3621 893d
00000360: 082b 34bc efa0 8cba c2ac be3d 3bde 32bc
00000370: b280 5f3d 8d8e 4c3d b92f f43d 3df8 85bd
00000380: 3bcb a93d ab12 0a3e 64af 09bd 9946 013c
00000390: 9095 14bc d41d 563d 4bfa 583d b637 693c
000003a0: f0ea 813b 0286 093e 6267 643d f7f1 99bd
000003b0: ac98 0ebd 5a79 413d 6522 bf3c 9946 693d
000003c0: 0169 4c3d 73ca 593c 623f ddbc 2665 653d
000003d0: a4d2 6abd 8695 243d febf 353d c79c 793d
000003e0: ef98 003c 2400 1ebd 506b 803d 0b94 753d
000003f0: 8edb 5ebd dbae 883c 0e60 f73c 6dad e33b

fc1.6.weight f4 [1, 256]
-0.069619276 0.057087913 -0.13173169 -0.054330293 -0.11939248 -0.12061997 -0.010090932 -0.097687595
0.001076853 -0.12861659 0.039867036 -0.10284088 0.002915932 -0.124201156 -0.11971557 -0.08847049
0.006441244 -0.12845051 -0.087866865 -0.06520718 0.053287562 0.0548895 -0.09741585 0.053294282
-0.13546167 0.022393929 -0.03591959 0.022065729 0.034697276 0.046232328 -0.108944274 0.025434842
0.05672031 -0.12860096 -0.09476253 0.03809637 -0.084288165 -0.10838702 -0.0835525 0.02139001
-0.12002444 -0.084718645 0.027830873 -0.10358389 0.037990984 0.03581692 0.02387206 0.046493948
0.024659056 0.009272959 0.025917232 -0.086996615 0.0422361 -0.07825314 -0.10067142 0.044498205
0.035334863 -0.13205497 0.044397242 0.03692307 -0.116841346 0.013037302 -0.09058751 0.051781558
0.037857875 -0.107825235 0.049765155 -0.10019881 -0.10135689 0.03318026 -0.111410245 -0.10866441
-0.06135186 0.03893375 0.013042804 -0.031176977 -0.072881795 -0.08518884 0.0010425969 -0.057193343
-0.12734343 -0.11460769 -0.082059585 -0.08929563 0.0015421102 0.0027052062 -0.10201516 0.035880245
-0.08770302 -0.10909012 0.011193346 0.011920066 -0.08050291 -0.08628748 0.051974893 0.014774318
-0.08807025 -0.0971072 0.07149152 0.016088156 -0.07148067 -0.12641059 -0.0999189 0.01781778
-0.0068886355 -0.08954519 -0.067960225 0.042126063 0.05163563 0.016638415 0.010490044 -0.12323359
-0.12863527 -0.09841501 0.011203469 0.017833933 0.029411994 0.040276997 0.0005139634 0.032809768
0.028519005 -0.10157635 -0.116215155 0.0412933 -0.05404707 0.04830625 -0.07428556 0.030839825
0.04878142 0.008519093 -0.08045529 -0.084340066 0.029815568 -0.088483 -0.09048541 -0.08849202
-0.07159652 0.04791522 0.011448808 0.039535735 -0.06981741 0.04020178 -0.06937233 -0.018679127
0.011994652 -0.07610622 -0.10087865 0.043387827 0.04117599 -0.063240804 -0.10355643 -0.089134485
-0.07721328 -0.11295208 0.009127392 -0.07802476 0.02235307 0.014746428 0.025851835 0.054740865
-0.036700234 -0.12815839 0.016951079 0.015880596 0.046259522 -0.11699279 0.029270686 0.016911937
-0.07961524 0.010569193 0.02255078 0.017578762 0.023314556 -0.07272091 0.0153332995 -0.097790316
-0.06895261 0.0097267525 -0.089757845 0.05222037 -0.094928496 -0.09240989 -0.12567319 -0.10867557
0.024102144 0.08781607 -0.12826079 0.05642579 -0.13120988 0.022376115 0.048478924 -0.06792261
-0.070016526 0.052599788 -0.08272174 0.05809984 -0.09573287 0.055725474 -0.042422257 0.029055482
-0.07939864 0.008236815 0.029970925 0.019144893 -0.0718882 -0.08652516 -0.10547565 0.014973542
0.013019217 -0.08196833 -0.076601975 0.031106887 -0.07732901 -0.10164457 0.018524406 0.0901956
0.039150033 0.047850054 -0.08765907 0.004340791 0.009385608 -0.092809394 -0.09751196 0.041369487
-0.12776504 -0.11303824 0.063587755 0.056911953 0.007957577 0.02777041 -0.08194621 -0.1266173
-0.030312039 -0.06877936 -0.13512646 0.022280397 -0.08370028 0.0300091 -0.084353976 0.03842233
-0.07914755 0.049973074 0.050225012 -0.112553485 0.03355875 0.05438321 -0.08609797 -0.094746165
-0.12510413 -0.014220975 0.041888997 0.08538302 0.054026525 -0.13092013 0.015895203 0.057907213
00000000: 8d94 8ebd 04d5 693d ace4 06be 7189 5ebd
00000010: 0b84 f4bd 9a07 f7bd 7054 25bc 6f10 c8bd
00000020: 3125 8d3a 11b4 03be 9e4b 233d 3d9e d2bd
00000030: 3919 3f3b 2d5d febd 702d f5bd 0430 b5bd
00000040: 1211 d33b 8888 03be 8bf3 b3bd 588b 85bd
00000050: 0f44 5a3d d0d3 603d f681 c7bd 1b4b 5a3d
00000060: 77b6 0abe 7973 b73c 6c20 13bd 30c3 b43c
00000070: bb1e 0e3d 1c5e 3d3d 2d1e dfbd bb5c d03c
00000080: 8e53 683d f8af 03be db12 c2bd f00a 1c3d
00000090: 469f acbd 04fa ddbd 931d abbd 1a3a af3c
000000a0: 60cf f5bd f880 adbd 92fd e33c ca23 d4bd
000000b0: 6f9c 1b3d c3b4 123d 578f c33c 7070 3e3d
000000c0: ca01 ca3c 9ced 173c 6050 d43c 482b b2bd
000000d0: c3ff 2c3d 2f43 a0bd d12c cebd c043 363d
000000e0: 4abb 103d 6b39 07be e2d9 353d a53c 173d
000000f0: 844a efbd 689a 553c f285 b9bd e618 543d
00000100: dc10 1b3d 7ad3 dcbd 8cd6 4b3d 0935 cdbd
00000110: 3394 cfbd 06e8 073d 0e2b e4bd 728b debd
00000120: 174c 7bbd ff78 1f3d 7cb1 553c dc66 ffbc
00000130: 0d43 95bd 7d77 aebd bfa7 883a 9143 6abd
00000140: 5166 02be 70b7 eabd db0e a8bd a1e0 b6bd
00000150: a220 ca3a d449 313b 53ed d0bd 2af7 123d
00000160: a49d b3bd a46a dfbd 4c64 373c 614c 433c
00000170: b6de a4bd 7eb7 b0bd a0e3 543d fb0f 723c
00000180: 2d5e b4bd 24e0 c6bd 256a 923d 4fcb 833c
00000190: 7564 92bd c771 01be 48a2 ccbd 98f6 913c
000001a0: 10ba e1bb 7863 b7bd bb2e 8bbd 618c 2c3d
000001b0: e27f 533d 494d 883c 6fde 2b3c e461 fcbd
000001c0: f7b8 03be cf8d c9bd c18e 373c 7818 923c
000001d0: 6cf1 f03c 7ef9 243d 80bb 063a 8963 063d
000001e0: b0a0 e93c 4307 d0bd 3602 eebd 2a23 293d
000001f0: 7660 5dbd c6dc 453d 0723 98bd cda3 fc3c
00000200: 07cf 473d aa93 0b3c bec5 a4bd 7cba acbd
00000210: c73f f43c 9336 b5bd 6a50 b9bd 4e3b b5bd
00000220: 32a1 92bd c042 443d c893 3b3c 39f0 213d
00000230: 6efc 8ebd 9faa 243d 1513 8ebd f804 99bc
00000240: 3885 443c 94dd 9bbd 7799 cebd 6fb7 313d
00000250: 28a8 283d 6584 81bd 6515 d4bd 248c b6bd
00000260: ff21 9ebd 6c53 e7bd 0f8b 153c 72cb 9fbd
00000270: c91d b73c 009b 713c 3ac7 d33c f537 603d
00000280: fc52 16bd f43b 03be fddc 8a3c 0618 823c
00000290: a07a 3d3d ea99 efbd 14c9 ef3c e78a 8a3c
000002a0: 510d a3bd 692a 2d3c 6abc b83c 5601 903c
000002b0: 2bfe be3c b3ee 94bd 8538 7b3c 4a46 c8bd
000002c0: 0737 8dbd f55c 1f3c f6d2 b7bd 07e5 553d
000002d0: df69 c2bd 6541 bdbd 79b0 00be 4c91 debd
000002e0: dc71 c53c e9d8 b33d cc56 03be bb1e 673d
000002f0: e25b 06be 1d4e b73c d691 463d 021b 8bbd
00000300: d364 8fbd e072 573d 046a a9bd 19fa 6d3d
00000310: 980f c4bd 6540 643d f6c2 2dbd c305 ee3c
00000320: c19b a2bd b5f3 063c 9685 f53c c0d5 9c3c
00000330: 1f3a 93bd 1a34 b1bd 9e03 d8bd 9653 753c
00000340: 8e4e 553c 03df a7bd 7fe1 9cbd dfd3 fe3c
00000350: ac5e 9ebd 072b d0bd 7fc0 973c 79b8 b83d
00000360: c95b 203d 6bfe 433d 9986 b3bd 323d 8e3b
00000370: 18c6 193c da12 bebd 5ab4 c7bd 0d73 293d
00000380: d7d4 02be 9880 e7bd 4c3a 823d 821c 693d
00000390: 7f60 023c c57e e33c 6ad3 a7bd f7a7 01be
000003a0: f450 f8bc 31dc 8cbd 975e 0abe 6185 b63c
000003b0: 0d6b abbd a5d5 f53c c7c1 acbd bc60 1d3d
000003c0: 1c18 a2bd 91b0 4c3d beb8 4d3d 7182 e6bd
000003d0: e674 093d eec0 5e3d 2254 b0bd 470a c2bd
000003e0: 4c1b 00be 18ff 68bc cc93 2b3d 4bdd ae3d
000003f0: eb4a 5d3d ed0f 06be a836 823c 1d30 6d3d
