models/PPOContinuous_critic.pth (torch, 20682 bytes, 5 tensors)

C1.weight f4 [64, 3]
-0.0052598687 0.5101877 0.110399954 0.43189806 0.1607834 -0.40852156 -0.49699986 -0.5170104
0.1642362 -0.15988979 -0.49294895 -0.1701101 0.12027849 0.38148433 0.4431238 0.25937894
0.24708514 -0.19591977 -0.1954735 0.47961432 -0.09696713 -0.5911873 0.24791639 0.062182084
0.44423547 -0.31026298 -0.18526092 -0.43195555 0.5585798 -0.3045314 0.32311553 -0.41216707
-0.42009136 -0.19448824 0.5506102 -0.29533222 -0.4888692 0.5735626 0.18893427 -0.014105427
-0.007989557 0.5191708 -0.35640216 0.08675131 0.0005162634 -0.5395126 -0.5320664 0.3784648
0.37209806 -0.28449157 0.4572557 -0.3176744 0.2544496 0.005370392 0.36098877 0.10585961
0.39994025 0.40444818 0.44171888 -0.35632786 0.0060272804 0.40862805 -0.06355075 -0.4487326
-0.32557464 0.55068845 -0.37489304 -0.06280327 -0.18425071 0.15771368 -0.22374251 0.50272685
0.15659882 -0.08150339 0.16649048 -0.59015024 0.55296385 -0.25841412 -0.35594088 0.11775002
0.20394878 -0.24574837 -0.10407733 0.36918592 -0.4153411 0.2103412 0.44357434 -0.58663183
0.16348968 -0.050817385 -0.5698602 -0.04704793 -0.5207262 0.2623275 -0.43177003 0.5417488
-0.19142558 0.28994823 -0.19216551 0.18588282 -0.06951434 0.3005775 -0.10521982 -0.17212477
-0.05513588 0.08353441 0.3506899 -0.4131364 0.5704525 -0.49184057 -0.035293687 0.05008798
0.54792994 -0.25613824 0.50430053 0.55200636 -0.19929622 0.5228101 0.2372246 -0.19792338
-0.15082256 0.009775662 -0.075976245 0.3873521 0.25318584 0.34234804 -0.16100521 0.1727379
-0.26955298 0.017311731 -0.009853636 -0.5135423 -0.046000507 0.55940706 0.4896107 0.17168643
-0.060553793 0.39651763 -0.103194274 0.5106414 -0.33405167 0.4745697 0.23929608 -0.29164928
0.23735242 -0.0070028687 0.40084413 -0.23147401 -0.05151799 0.10123073 0.00012510871 0.021535179
-0.03420513 0.5429728 0.00938655 0.037061647 0.10809136 0.25581324 0.18547486 0.40077135
-0.5162859 0.038013797 0.4731211 -0.027760362 0.10595992 0.4913621 0.09972865 0.30048376
0.4817281 -0.20173605 0.1689132 -0.4452884 -0.1432473 -0.5611312 0.032769956 0.51113117
0.35052785 -0.06725186 0.37349856 0.36004186 0.308117 -0.22292931 -0.28503564 -0.20756422
-0.48795098 -0.2424942 -0.27381122 0.28702223 -0.109551266 0.25079128 0.16370244 -0.46587977
00000000: fa5a acbb a99b 023f 5f19 e23d be21 dd3e
00000010: 67a4 243e bd29 d1be c476 febe cb5a 04bf
00000020: 892d 283e 26ba 23be ce63 fcbe 5831 2ebe
00000030: 9254 f63d ea51 c33e 1fe1 e23e 51cd 843e
00000040: e303 7d3e 319f 48be 352a 48be 0290 f53e
00000050: b496 c6bd 0d58 17bf cbdd 7d3e a4b2 7e3d
00000060: d572 e33e cada 9ebe 0ab5 3dbe 4729 ddbe
00000070: 16ff 0e3f 8aeb 9bbe 666f a53e 9007 d3be
00000080: 3716 d7be ed27 47be caf4 0c3f c935 97be
00000090: 104d fabe 00d5 123f fc77 413e 731a 67bc
000000a0: a2e6 02bc 61e8 043f 587a b6be acaa b13d
000000b0: da55 073a 7f1d 0abf 8135 08bf 23c6 c13e
000000c0: a383 be3e e1a8 91be 6b1d ea3e 38a6 a2be
000000d0: 3847 823e 1dfa af3b 85d3 b83e eccc d83d
000000e0: f8c4 cc3e d513 cf3e fa28 e23e 9b70 b6be
000000f0: 7e80 c53b b237 d13e e526 82bd 48c0 e5be
00000100: b8b1 a6be ebf9 0c3f fbf1 bfbe 009f 80bd
00000110: 38ac 3cbe b27f 213e c21c 65be b5b2 003f
00000120: 715b 203e 40eb a6bd 7b7c 2a3e 1614 17bf
00000130: 0a8f 0d3f db4e 84be e23d b6be ec26 f13d
00000140: f3d7 503e 76a5 7bbe 7f26 d5bd f005 bd3e
00000150: 97a7 d4be af63 573e 2d1c e33e 812d 16bf
00000160: d769 273e e425 50bd 5ce2 11bf 55b5 40bd
00000170: 504e 05bf ca4f 863e f610 ddbe 0db0 0a3f
00000180: 1105 44be 1874 943e 09c7 44be 1158 3e3e
00000190: 895d 8ebd 4be5 993e 7d7d d7bd 7a41 30be
000001a0: 29d6 61bd 1714 ab3d a08d b33e 9d86 d3be
000001b0: 2d09 123f 87d2 fbbe 1d90 10bd 0e29 4d3d
000001c0: 2345 0c3f 8d24 83be d719 013f 4a50 0d3f
000001d0: 4f14 4cbe e2d6 053f 01eb 723e 6dac 4abe
000001e0: 3b71 1abe 192a 203c 6f99 9bbd 0453 c63e
000001f0: 93a1 813e 3e48 af3e 8dde 24be 34e2 303e
00000200: d902 8abe 55d1 8d3c 2571 21bc 8277 03bf
00000210: 076b 3cbd 4d35 0f3f 41ae fa3e 91ce 2f3e
00000220: 4107 78bd 5c04 cb3e 8557 d3bd 65b9 023f
00000230: d208 abbe cdfa f23e 080a 753e 0e53 95be
00000240: 830c 733e 5278 e5bb 713b cd3e 8607 6dbe
00000250: 8704 53bd 0f52 cf3d 9d2f 0339 8b6a b03c
00000260: ae1a 0cbd 4400 0b3f 0bca 193c f4cd 173d
00000270: 015f dd3d f4f9 823e 1fed 3d3e e731 cd3e
00000280: 502b 04bf 5bb4 1b3d ee3c f23e b369 e3bc
00000290: 8401 d93d d093 fb3e 893e cc3d 02d9 993e
000002a0: 11a5 f63e e593 4ebe 95f7 2c3e d7fc e3be
000002b0: 6caf 12be 4ba6 0fbf ca39 063d 7ed9 023f
000002c0: 6378 b33e 58bb 89bd 343b bf3e 6857 b83e
000002d0: 83c1 9d3e 9547 64be 31f0 91be b78b 54be
000002e0: b6d4 f9be 6650 78be fc30 8cbe 94f4 923e
000002f0: 6a5c e0bd b767 803e 9da1 273e cb87 eebe

C1.bias f4 [64]
-0.5779987 0.12864378 0.3619167 0.04415645 -0.45437768 0.37196568 -0.2841899 -0.22266611
0.44191515 0.3175303 -0.047332305 0.14087908 -0.06624653 0.41357523 0.061452843 0.2693503
-0.035681173 0.27638692 -0.002101544 -0.27115485 -0.09793233 -0.09824897 -0.24069934 -0.3141132
-0.5107901 0.29110935 0.59458053 0.5230897 -0.020450264 -0.12306081 -0.124749 0.21770734
0.3302506 -0.25608626 0.24618101 0.3665978 -0.08267127 -0.05277509 0.10088019 -0.17697448
-0.5252585 0.38066217 -0.48186946 -0.24693763 0.55855227 -0.37745652 -0.46539405 0.08040944
0.046209976 0.35186124 0.46263254 -0.38503852 -0.057466738 0.135683 -0.3617756 0.06239028
-0.29048625 -0.46177474 -0.26022282 0.5912809 0.37037846 0.5482991 0.57223386 -0.24193922
00000000: b9f7 13bf 32bb 033e 254d b93e 65dd 343d
00000010: 31a4 e8be 4972 be3e 5781 91be 9602 64be
00000020: b442 e23e 5593 a23e 85df 41bd 9b42 103e
00000030: 43ac 87bd 22c0 d33e fab5 7b3d 48e8 893e
00000040: 6c26 12bd 9682 8d3e 0fba 09bb cfd4 8abe
00000050: bf90 c8bd c236 c9bd e379 76be 72d3 a0be
00000060: 24c3 02bf 490c 953e 6e36 183f 35e9 053f
00000070: 5087 a7bc 4e07 fcbd 677c ffbd acee 5e3e
00000080: 9b16 a93e bd1d 83be e016 7c3e b5b2 bb3e
00000090: 8e4f a9bd b12a 58bd 469a ce3d cc38 35be
000000a0: 5777 06bf 27e6 c23e 98b7 f6be 38dd 7cbe
000000b0: 48fd 0e3f fb41 c1be 2148 eebe b4ad a43d
000000c0: ac46 3d3d 2827 b43e 2cde ec3e c523 c5be
000000d0: 3e62 6bbd 7cf0 0a3e a73a b9be f38c 7f3d
000000e0: 9dba 94be bd6d ecbe ed3b 85be 2f5e 173f
000000f0: 3fa2 bd3e 545d 0c3f eb7d 123f eabe 77be

C2.weight f4 [64, 64]
0.09277907 -0.06729837 0.06952878 0.04262032 0.060953528 0.06918212 0.03742263 -0.06410006
0.071512714 -0.076429315 0.07333495 -0.06848321 -0.0021798394 -0.07121794 0.11556248 0.0048094327
-0.04715159 0.06232543 -0.0022662282 -0.114290014 0.03436682 0.016349185 0.08886878 0.05714385
0.07505126 0.11504652 0.12540679 -0.058357302 0.0011752202 -0.06445044 -0.058886275 0.089547284
-0.040181715 -0.1275655 0.12313557 0.0019047039 -0.11901042 -0.08889143 -0.086407356 -0.12544921
-0.04745753 -0.027152704 -0.0386057 0.079050146 -0.007856727 -0.06302037 -0.13645673 0.04396205
-0.02674384 0.04885306 -0.103099 -0.12022568 0.04499097 -0.08032805 -0.13554996 0.02374944
0.0055639725 0.08766471 -0.062162 0.03223439 0.04631568 0.068462215 -0.079415046 -0.0046724505
-0.0037002945 -0.055474687 0.0087084435 0.105164275 -0.055114105 0.04920892 0.0031918762 -0.032299753
-0.07020717 0.010363012 0.11861621 0.11105571 0.004442804 -0.015754096 -0.030246338 0.086959586
-0.1005443 -0.12700748 0.00018124157 -0.08274797 -0.016818708 -0.022463636 -0.064203545 0.13509189
0.023699258 -0.10251519 -0.13481975 -0.05958284 -0.1336753 -0.0016694774 0.109344214 -0.019495785
-0.11925343 0.11536157 -0.13844316 -0.09063222 -0.05960753 0.08068389 0.082109794 -0.093637444
0.04419466 -0.09722274 0.01830527 -0.069050655 -0.10129004 -0.012001836 0.1346238 -0.008949083
0.1267434 0.04830209 0.028722055 -0.102646604 -0.089248925 0.07861638 -0.041028105 0.08151867
-0.006043963 -0.08023833 -0.072827324 0.07151911 0.08316178 0.06722637 -0.03066219 -0.0030187285
0.12805007 -0.06477214 -0.13048722 -0.07911302 0.061912574 0.055622913 0.09551204 -0.092095
0.080500536 0.08438318 0.029529395 -0.1332847 -0.06047221 -0.12957439 0.052844916 0.032401185
0.11097155 0.09073185 0.08680105 0.13784292 0.045781035 0.0035100505 0.108211726 0.0976625
-0.10471663 -0.006295793 0.10670953 0.10336511 0.026586372 -0.013702857 0.100136966 0.042738184
-0.04249408 -0.012952119 -0.12809478 -0.10943126 -0.059993442 0.12227461 -0.09333372 0.07908832
0.060891006 -0.11546862 -0.07839401 0.054971226 0.055209078 -0.08998404 -0.051209543 -0.067689486
-0.09551311 -0.12229012 -0.06480802 -0.014085957 -0.09825607 -0.026785273 -0.053896133 0.02728961
-0.029149769 -0.06180067 0.025531717 -0.06256669 0.06754498 -0.08889793 -0.04657709 0.098026454
-0.06426014 0.049436357 0.052253533 -0.09982583 -0.06306819 -0.048011165 -0.05004479 0.13349882
0.010336947 -0.036971565 0.08599006 -0.03166593 -0.076730095 0.07308936 0.088136315 0.038849708
0.07696011 -0.062048756 -0.1313922 -0.0792269 0.04234158 0.12785363 0.057315834 0.069022916
0.054887164 -0.02823889 -0.08780602 -0.067302294 -0.084645264 -0.09841903 0.055266473 -0.10585876
0.1376174 0.03200679 -0.027101904 0.053894676 -0.095653646 0.0148792295 0.080850825 0.06387335
0.073165275 0.07738599 -0.092832565 0.05042329 0.020891959 -0.11956787 0.072348155 -0.023899592
-0.05695216 0.12152176 -0.068701886 -0.13186258 -0.088480376 0.012901581 0.023022074 -0.12723365
-0.067227535 0.05205733 -0.028053578 0.092880085 -0.014790815 0.088315025 -0.0602667 0.01614816
00000000: f402 be3d bad3 89bd 1b65 8e3d a592 2e3d
00000010: 68aa 793d 5baf 8d3d 7948 193d e446 83bd
00000020: 4275 923d f986 9cbd a230 963d ed40 8cbd
00000030: a3db 0ebb b6da 91bd 06ac ec3d 7298 9d3b
00000040: 0722 41bd f348 7f3d 0085 14bb e210 eabd
00000050: 39c4 0c3d baee 853c d600 b63d ab0f 6a3d
00000060: 7ab4 993d 839d eb3d a36a 003e 1108 6fbd
00000070: d909 9a3a 98fe 83bd bc32 71bd 9164 b73d
00000080: 9595 24bd 88a0 02be 802e fc3d 42a7 f93a
00000090: bcbb f3bd b60c b6bd 57f6 b0bd c275 00be
000000a0: d462 42bd 596f debc 0321 1ebd 0be5 a13d
000000b0: 80b9 00bc d310 81bd 50bb 0bbe 8d11 343d
000000c0: e615 dbbc 251a 483d 9225 d3bd e238 f6bd
000000d0: 7448 383d 0883 a4bd 9ccd 0abe 308e c23c
000000e0: fc51 b63b 8e89 b33d 959d 7ebd 3508 043d
000000f0: 83b5 3d3d eb35 8c3d 5ba4 a2bd 5b1b 99bb
00000100: a480 72bb 6d39 63bd dcad 0e3c 5e60 d73d
00000110: 54bf 61bd 4b8f 493d cc2e 513b bf4c 04bd
00000120: c7c8 8fbd 9fc9 293c 0eed f23d 2d71 e33d
00000130: f194 913b bc0e 81bc 2bc7 f7bc de17 b23d
00000140: 2cea cdbd 400e 02be aa0b 3e39 c577 a9bd
00000150: 63c7 89bc a905 b8bc 267d 83bd 8755 0a3e
00000160: f224 c23c 7cf3 d1bd 300e 0abe 230d 74bd
00000170: 2ee2 08be 5ed2 daba dcef df3d a0b5 9fbc
00000180: 243b f4bd b042 ec3d 0bc4 0dbe 639d b9bd
00000190: 0627 74bd 983d a53d 2e29 a83d fdc4 bfbd
000001a0: 7605 353d b71c c7bd eff4 953c 6e6a 8dbd
000001b0: 2771 cfbd 59a3 44bc d2da 093e 2d9f 12bc
000001c0: 06c9 013e 6ad8 453d 844a eb3c 6238 d2bd
000001d0: 24c8 b6bd a001 a13d 160d 28bd 43f3 a63d
000001e0: 700c c6bb fe53 a4bd 7e26 95bd 9c78 923d
000001f0: b950 aa3d fbad 893d 462f fbbc dcd5 45bb
00000200: 8f1f 033e 41a7 84bd 719e 05be 0206 a2bd
00000210: 0a98 7d3d dad4 633d d19b c33d 4e9c bcbd
00000220: 77dd a43d 17d1 ac3d a1e7 f13c c97b 08be
00000230: b5b1 77bd 26af 04be e973 583d 1bb7 043d
00000240: 0d45 e33d 9fd1 b93d c0c4 b13d b226 0d3e
00000250: e584 3b3d e008 663b 1c9e dd3d 4703 c83d
00000260: ac75 d6bd f14c cebb 878a da3d 16b1 d33d
00000270: aacb d93c f381 60bc 9c14 cd3d 3c0e 2f3d
00000280: 460e 2ebd 2035 54bc 472b 03be 7f1d e0bd
00000290: afbb 75bd 1c6b fa3d c025 bfbd 0ff9 a13d
000002a0: d968 793d d07a ecbd 0a8d a0bd 8229 613d
000002b0: ea22 623d 8d49 b8bd 19c1 51bd c9a0 8abd
000002c0: 619c c3bd 3e73 fabd 11ba 84bd c9c8 66bc
000002d0: 7a3a c9bd ca6c dbbc 31c2 5cbd 768e df3c
000002e0: 7fcb eebc b322 7dbd e427 d13c f722 80bd
000002f0: 0655 8a3d 1e10 b6bd 9ec7 3ebd 18c2 c83d
00000300: d29a 83bd c77d 4a3d cd07 563d 7c71 ccbd
00000310: e529 81bd 5ba7 44bd c4fb 4cbd eab3 083e
00000320: 4c5c 293c 7f6f 17bd 8e1b b03d 22b4 01bd
00000330: ab24 9dbd e0af 953d d080 b43d df20 1f3d
00000340: 439d 9d3d d626 7ebd ad8b 06be b741 a2bd
00000350: 5d6e 2d3d 10ec 023e 02c4 6a3d e35b 8d3d
00000360: 5dd1 603d 3f55 e7bc a5d3 b3bd c9d5 89bd
00000370: 7f5a adbd eb8f c9bd 195f 623d 7acc d8bd
00000380: 93eb 0c3e 8d19 033d d004 debc aac0 5c3d
00000390: 0fe6 c3bd 03c8 733c 1e95 a53d 08d0 823d
000003a0: add7 953d 8c7c 9e3d 001f bebd a788 4e3d
000003b0: 9d25 ab3c 00e0 f4bd 452b 943d 14c9 c3bc
000003c0: ab46 69bd 67e0 f83d 93b3 8cbd fc06 07be
000003d0: 3335 b5bd 2761 533c ca98 bc3c 8a49 02be
000003e0: 97ae 89bd 113a 553d 9ed0 e5bc ea37 be3d
000003f0: 2d55 72bc 82de b43d 37da 76bd 2549 843c

C2.bias f4 [64]
-0.027081417 0.1024147 0.027180506 -0.034123402 0.019683313 0.08477753 -0.090816855 -0.07508014
-0.10030771 -0.070634104 -0.040240344 -0.021214603 -0.054793082 -0.016142853 -0.007844582 -0.035479765
-0.11683514 0.06342948 0.0690034 -0.13970567 -0.0381525 -0.06694654 0.07624198 0.122576684
-0.08216008 -0.1141105 0.0059345635 0.040841643 0.08084741 -0.036183685 -0.080079764 0.02934923
-0.12556705 0.033759583 -0.1091435 -0.062056392 -0.08600857 0.03719473 -0.08047367 -0.016939858
0.057468098 -0.1154431 -0.05787595 0.10541008 -0.08376892 -0.14145982 0.054638404 -0.04523117
-0.028805567 0.015236994 -0.091896206 0.0061910558 0.06572508 0.06263416 -0.12477983 -0.097279415
0.05370219 -0.08106518 -0.13703051 -0.07597795 -0.0064944965 0.057076383 -0.04819301 0.04091491
00000000: d9d9 ddbc ccbe d13d a7a9 de3c fbc4 0bbd
00000010: e63e a13c d79f ad3d 30fe b9bd 9ec3 99bd
00000020: 216e cdbd 9da8 90bd 0fd3 24bd 3fca adbc
00000030: b66e 60bd 043e 84bc 9086 00bc 3b53 11bd
00000040: 4347 efbd 51e7 813d a851 8d3d 010f 0fbe
00000050: cc45 1cbd 441b 89bd c124 9c3d 7c09 fb3d
00000060: 8b43 a8bd c4b2 e9bd ba76 c23b 9149 273d
00000070: 5493 a53d 5835 14bd dc00 a4bd cc6d f03c
00000080: a694 00be 7d47 0a3d a186 dfbd d82e 7ebd
00000090: 4325 b0bd 8059 183d 61cf a4bd 75c5 8abc
000000a0: ab63 6b3d 6f6d ecbd 550f 6dbd 3de1 d73d
000000b0: 0a8f abbd d8da 10be 85cc 5f3d 5244 39bd
000000c0: a7f9 ebbc 96a4 793c 1434 bcbd 57de ca3b
000000d0: df9a 863d 5746 803d 918c ffbd 6e3a c7bd
000000e0: d4f6 5b3d 8005 a6bd ba51 0cbe 549a 9bbd
000000f0: c9cf d4bb edc8 693d 0966 45bd 6596 273d

C3.weight f4 [1, 64]
-0.14316334 0.03132422 0.12554511 -0.03266175 -0.11266317 -0.09642182 -0.112124026 0.045207962
-0.119888455 0.08090294 0.14302132 0.030646686 -0.11069746 -0.1139372 -0.1393097 0.079019874
0.05183027 0.056823514 0.02975497 0.05292778 -0.14299901 0.06823267 0.026340289 -0.13634573
-0.050803315 0.093618244 0.10563928 -0.10225693 0.034590524 -0.09816988 -0.07211631 0.041377164
0.09179253 -0.08462054 -0.031747326 -0.06494789 0.05836977 0.043594792 0.1283135 -0.1043462
0.022919428 0.051319353 -0.116069645 0.045024354 0.09519994 0.061646387 -0.12600641 0.07275527
-0.07776785 0.09757291 0.13179757 0.12507664 0.037870314 0.032066174 0.059177343 0.027194923
-0.056563195 -0.07392684 0.102786504 -0.03634477 -0.031122928 -0.0952669 0.027676653 0.024723724
00000000: 6999 12be d34d 003d e68e 003e 54c8 05bd
00000010: f3bb e6bd ce78 c5bd 48a1 e5bd fc2b 393d
00000020: 1488 f5bd 71b0 a53d 2e74 123e c20e fb3c
00000030: 5ab5 e2bd e857 e9bd 34a7 0ebe 2cd5 a13d
00000040: fa4b 543d c6bf 683d b2c0 f33c cdca 583d
00000050: 556e 12be 92bd 8b3d 97c7 d73c 379e 0bbe
00000060: 2317 50bd ecba bf3d 6859 d83d 156c d1bd
00000070: cbae 0d3d 4a0d c9bd b7b1 93bd 1a7b 293d
00000080: b9fd bb3d 894d adbd 7c09 02bd 6603 85bd
00000090: 2415 6f3d 7490 323d 9d64 033e 76b3 d5bd
000000a0: 86c1 bb3c 3e34 523d ecb5 edbd 756b 383d
000000b0: 30f8 c23d ec80 7c3d d307 01be b700 953d
000000c0: c044 9fbd 4ed4 c73d f1f5 063e 1714 003e
000000d0: e71d 1b3d d257 033d f163 723d e3c7 de3c
000000e0: cfae 67bd f566 97bd bb81 d23d 41de 14bd
000000f0: 83f5 febc 4b1b c3bd 26ba e23c 6889 ca3c
