models/PPOContinuous_critic.pth (torch, 170844 bytes, 7 tensors)

fc1.0.weight f4 [64, 3]
000000 a9 75 b2 be 2d 08 07 3d 0a 80 ee 3e b7 00 23 3e
       -0.34855393 0.03296678 0.4658206 0.15918241
000010 9f 81 1f bf e3 fc e5 be 37 00 1e bf f0 12 29 3e
       -0.6230716 -0.449195 -0.6171908 0.1651113
000020 1c f0 d3 be 9c 31 d7 be 66 7e 1b be 47 c1 bb bc
       -0.41394126 -0.42030036 -0.15184936 -0.02291931
000030 cd 60 f1 3e 5a 72 6a be 72 2a e5 bc 4d 56 9e 3e
       0.47144166 -0.22895184 -0.027974341 0.30925217
000040 a0 a5 b0 be 30 73 af 3e 58 2f f8 bd 95 fb 23 3e
       -0.34501362 0.3426757 -0.12118405 0.1601394
000050 46 86 bc bd ce f5 e6 be e2 22 d5 3e a2 11 b8 3d
       -0.09205298 -0.4510941 0.41628176 0.08987738
000060 aa 08 04 3d d7 fd fa 3d d4 45 44 3d 89 8e 02 3e
       0.032234825 0.12255447 0.047918156 0.12749685
000070 c5 ab 8d bd 4c ea 1b 3f 26 73 cd 3c 7a 0e 72 bd
       -0.06917528 0.60904384 0.025079321 -0.059095837
000080 3a ae bc 3d 01 d6 89 3e 43 37 be be bb 75 07 3f
       0.092129186 0.26921085 -0.37151536 0.5291402
000090 fb 01 1e bf 66 af 08 3e 52 eb 3a be 67 74 50 3e
       -0.6172177 0.13348159 -0.1825383 0.20356904
0000a0 c7 d3 18 3f bc 56 e4 3e 2f ef 0c 3f da 92 2b 3f
       0.59698147 0.44597423 0.55052465 0.6702095
0000b0 25 a3 29 bc fb f4 82 be df 55 3d 3e 81 25 e2 3d
       -0.010353838 -0.2557753 0.18489788 0.110423096
0000c0 c7 43 89 3c 35 19 45 3e 33 3d c3 3e d4 b9 56 3d
       0.016755952 0.19247897 0.3813263 0.052423313
0000d0 c5 28 92 be fd 57 6d 3d 46 42 17 3f 2b 94 2f 3f
       -0.2854673 0.05794524 0.590855 0.6858546
0000e0 ef 1b 18 3d 12 0b 9a be d6 6c c7 be 7e 66 f5 3e
       0.037136015 -0.3008657 -0.38950223 0.47929758
0000f0 b7 1b e3 3d 87 da c8 3e 9d 23 e1 be 42 92 21 bf
       0.110892706 0.39229223 -0.43972483 -0.63113797
000100 10 4a 8c bd 8d b8 07 3f b6 d8 81 bd aa 89 cd 3e
       -0.06850064 0.5301598 -0.063401625 0.40144092
000110 48 33 cf 3e f1 f0 d4 3d 44 d6 92 3d 3a 99 03 3f
       0.40468812 0.103975184 0.07169774 0.5140568
000120 51 7c 98 be aa 46 19 bf a0 e3 ef be de 30 ba bb
       -0.29782346 -0.5987345 -0.46853352 -0.005682095
000130 b7 d1 c0 bd 60 54 cd bc 55 a8 cb bd 8d 08 c3 3e
       -0.09415 -0.025064647 -0.09944216 0.3809246
000140 86 50 16 bf 69 63 d5 3e 71 a9 10 bf 00 f0 98 be
       -0.5871662 0.41677406 -0.5650855 -0.29870605
000150 d8 cf 81 be d1 62 01 3e 89 7f 82 be 93 f4 cf be
       -0.25353885 0.12635352 -0.25487927 -0.40616283
000160 c3 62 4b 3e 59 ff b8 be 3a 3d 86 be 91 e7 a9 3c
       0.19861893 -0.36132315 -0.26218587 0.020740302
000170 8d 68 8d 3e 97 2c e5 3e 6b 6d ec be 86 9d b9 3b
       0.27618828 0.44760582 -0.4617723 0.00566453
000180 18 b2 3d be c7 de 33 3e 3c fb 7f 3d e1 f8 17 3f
       -0.18524969 0.17565452 0.062495455 0.59364134
000190 c2 de 2b bf b0 2e dc bd 2c 8c 42 3e 4a a4 10 3e
       -0.67136776 -0.107510924 0.18998784 0.14125171
0001a0 12 0a 11 bf 71 bb 4d be fc fa 32 bf 2a be f9 be
       -0.5665599 -0.20091034 -0.6991422 -0.48777896
0001b0 7a dc fc 3e 70 ae 03 3f c7 01 51 3e 6a 28 ac be
       0.4938696 0.51438046 0.20410834 -0.33624583
0001c0 2c 21 0f bf 36 b0 d9 bd ec c3 1a bf 30 0a 8f 3e
       -0.5590999 -0.10629313 -0.60455203 0.2793746
0001d0 1d 65 16 3e cd 71 0e 3e 31 5d 92 be 67 0b 2d 3f
       0.14687009 0.13910599 -0.28586724 0.67595524
0001e0 75 2c 23 bf 00 61 d2 bd 3d 57 18 3e 77 4b ca be
       -0.6373971 -0.102724075 0.14877029 -0.395107
0001f0 c6 a8 43 bf a3 f1 cc be 0a 2e 17 3f 97 cc be 3e
       -0.764294 -0.40028104 0.59054625 0.37265465
000200 67 d3 aa 3e 26 06 1e bf be 55 8b 3e 52 6e 89 be
       0.33364412 -0.6172813 0.27213854 -0.2684198
000210 ac a9 2a 3f f3 af cc 3b fe 2d b0 3d d3 d8 01 be
       0.6666515 0.0062465607 0.08602522 -0.12680368
000220 2c eb 4d bd 9c e6 0c bf 0d 63 27 bf 65 45 8b 3e
       -0.050273106 -0.5503938 -0.65385514 0.2720138
000230 11 fd 38 3e fb de 99 bb b5 13 55 3e 87 78 0e bc
       0.18065287 -0.004695771 0.20808299 -0.008695728
000240 67 7b bf be 24 68 96 3e 85 77 05 bf 5b 6a bf bd
       -0.37398836 0.29376328 -0.521355 -0.093464576
000250 3a f3 e8 3e 5a e1 98 bd 55 fd 25 bd 32 a5 2d bf
       0.45498067 -0.074648574 -0.0405248 -0.67830193
000260 58 67 f1 be 6e b6 b2 be a6 62 0e 3f ec cd 00 3f
       -0.47149158 -0.34904808 0.55619276 0.5031421
000270 77 c1 bc 3e c8 ba 73 3e 71 3a 24 bf 37 ad 87 bd
       0.36866352 0.2380172 -0.64151675 -0.06624835
000280 a1 55 bc 3e bb 9e 26 bf 9a 86 d7 be 2b 65 0e 3f
       0.3678408 -0.65085953 -0.4209488 0.5562312
000290 17 34 d2 3e 44 86 08 3f 7c ce 19 3f cd dd b4 3e
       0.41055366 0.53329873 0.60080695 0.3532547
0002a0 54 41 31 3f 7f 7a 3e be c8 e1 0d 3d 1e 80 d5 3e
       0.6924031 -0.18601416 0.03463915 0.41699308
0002b0 f2 ab 33 bf c9 79 b8 bd 30 d8 1d bf 83 ba ef 3e
       -0.7018424 -0.09007604 -0.61658 0.46821985
0002c0 59 4a 41 3e 1a 03 41 be 92 59 18 3f ec 8c d3 3d
       0.18876018 -0.1884884 0.59511673 0.10329613
0002d0 8d 0b 2c bf 35 c4 cd 3e 93 f4 7e 3b 02 8d 29 3f
       -0.67205125 0.40188757 0.0038903102 0.66230786
0002e0 f0 11 0d 3f da cc 2d 3c 11 ac 4e bf 6c f0 dd be
       0.55105495 0.010607922 -0.807313 -0.4334749
0002f0 41 81 0b 3f 4c b1 24 bf 6b f7 cd be 62 b6 c6 be
       0.544941 -0.64333034 -0.40227827 -0.38811022

fc1.0.bias f4 [64]
000000 04 b5 0a 3f 32 4d 36 3e 0a e8 f1 3e b1 2e 35 bb
       0.5418246 0.17802885 0.47247344 -0.0027646238
000010 c2 e8 a9 3d 39 30 ee be af 1d 5d 3f 2d 53 eb be
       0.08296348 -0.46521166 0.8637342 -0.45961896
000020 91 98 f2 3e 40 9b f0 be 3c 02 49 3f 32 7f be 3e
       0.47382024 -0.46993446 0.78519034 0.37206417
000030 d0 91 46 3f 5c 9a e1 bd f5 cb 36 be 6e af 16 3f
       0.7756624 -0.1101577 -0.17851241 0.58861434
000040 bf 12 b8 3e f7 19 54 3e 16 1f 7b 3d ef 7f 09 3f
       0.35951802 0.2071303 0.061308943 0.53710836
000050 8c a8 19 3f b6 24 30 3c e9 e8 dc 3e b8 b1 ca 3e
       0.6002281 0.01075094 0.43146446 0.39588714
000060 6c ec 6c 3d ce 9a 9f 3e e5 70 df 3e 90 d1 11 3f
       0.057842657 0.31172794 0.4364082 0.5696039
000070 34 ba bc 3d d3 b5 f2 be 4b a6 67 bc c5 5f 8e be
       0.09215203 -0.47404346 -0.014138768 -0.2780744
000080 bc 5c 1f 3e 14 77 ae be 39 be 33 be 03 ed 8d be
       0.15562719 -0.34075224 -0.17553033 -0.27719888
000090 14 56 9c be b3 a9 d2 3e 7e 29 f1 3e 0b ff 84 3e
       -0.30534422 0.41145095 0.4710197 0.25975832
0000a0 02 19 2f 3f 12 41 96 be dd eb dc 3e 0b 42 97 3e
       0.68397534 -0.2934652 0.431487 0.29542574
0000b0 32 3a b0 bd 2d 84 8a 3d e0 ed 98 3e 54 c6 22 3f
       -0.0860485 0.06763492 0.29868984 0.63583875
0000c0 8c 37 0a 3e 62 3e 0e 3f 30 16 1c 3f df 84 f3 be
       0.13497752 0.5556394 0.60971355 -0.4756231
0000d0 3a b6 64 3e 8b d9 80 be 4f 15 e8 3e ac 60 8b be
       0.22335139 -0.25165972 0.45328757 -0.27222192
0000e0 90 b1 a4 3c e8 21 3f 3f f8 a9 14 3f 9f 7c eb be
       0.0201042 0.7466111 0.5807185 -0.45993516
0000f0 0a 56 51 bd 1f 74 b5 3e 3b b2 ef bd f5 d1 58 3e
       -0.051107444 0.35440156 -0.11703917 0.21173842

fc1.2.weight f4 [128, 64]
000000 7f d6 d3 3d 19 82 d3 3c 30 1a 89 bd ad 12 28 3e
       0.10343646 0.025818871 -0.06694448 0.16413374
000010 de 17 c4 3d 23 f9 03 be 15 c1 1e 3e 86 30 3d bd
       0.09574865 -0.12888007 0.15503342 -0.046188854
000020 6d 6f cd 3d f2 a3 97 3d 60 bf 37 3e 28 16 e6 3d
       0.100310184 0.07404317 0.17944098 0.11234695
000030 06 f7 13 3e 75 d9 d5 bd 3a 6b 64 3e 61 98 6b 3e
       0.144497 -0.10441867 0.22306529 0.23007347
000040 67 39 c1 bd f3 1d 67 bc a5 af 3e 3e fa ce 21 3e
       -0.09434777 -0.014106262 0.1862169 0.15801612
000050 92 53 25 3d 5e 79 ac bc 2a a3 49 bd 2d 92 ed bc
       0.040362902 -0.021053966 -0.04922787 -0.029000366
000060 8b b9 c4 bb 21 85 8c 3d 92 b5 19 3d 6e 2f 95 bd
       -0.0060035638 0.0686133 0.037526675 -0.07284437
000070 9a 88 d5 bd 0a 14 b2 bd 41 92 cc 3d ab 82 87 3e
       -0.10426445 -0.086952284 0.09988833 0.2646688
000080 9a 87 a1 3d 5a d2 2b 3e 02 6d 95 3d f4 d1 77 bc
       0.07887192 0.16779462 0.07296182 -0.01512574
000090 a4 a0 15 3e 20 91 48 3e e6 4b af 3c 0f 8a e7 bd
       0.14612061 0.19586611 0.021398496 -0.113056295
0000a0 6d 12 f1 3d 21 15 0b bd 13 d8 ec bc ee 00 60 bd
       0.117710926 -0.033955697 -0.028911626 -0.054688387
0000b0 f0 e1 64 3e 40 56 6f 3d ac 22 b6 3d 95 78 3a 3e
       0.22351813 0.058431864 0.08893332 0.18210061
0000c0 68 4f bf bc 1c af ba bc ee 0d 9d 3d ca f5 f0 bd
       -0.023353294 -0.022788577 0.076686725 -0.117656305
0000d0 97 34 e3 bc 67 4b a4 3d 25 c4 11 bd a9 c2 ce 3c
       -0.027735038 0.08022194 -0.03558745 0.025239306
0000e0 be ce 90 3e c2 a1 3f 3e 16 5f 51 3e 7b 08 37 3c
       0.28282732 0.1871405 0.20446429 0.0111714555
0000f0 f9 86 c3 bc dd f6 2f 3d 1e 18 a8 bd db e9 d3 3d
       -0.02386807 0.042960037 -0.08207725 0.10347339
000100 96 52 69 3d 6b 04 02 3c b1 70 c8 3d de f3 52 3e
       0.056963526 0.007935624 0.09787119 0.2060084
000110 59 9f 61 3d 15 eb 03 bd c7 8c d3 3c 7d e1 f6 bb
       0.055083606 -0.032206614 0.025823964 -0.0075342045
000120 10 94 53 3e 39 af b7 bd 13 86 90 3e f2 3a 22 bd
       0.2066195 -0.08968968 0.2822729 -0.039606996
000130 55 04 b1 3d 36 bf fd bb 4c 86 eb 3d e8 ee 73 3e
       0.086434044 -0.0077437414 0.115002245 0.23821604
000140 2b cd 82 bd 64 ba 46 3c da a1 80 3d 82 6b db 3c
       -0.06386789 0.0121294 0.06280871 0.026784662
000150 6e da 42 3d 43 54 17 bd a5 55 63 3b 06 b4 ea bc
       0.047571592 -0.036945593 0.00346885 -0.028650295
000160 0c 19 e8 3d 9e e0 80 bc 93 e5 c3 3d 1b 93 ce bc
       0.11332902 -0.015732106 0.09565272 -0.02521663
000170 c5 ab fd 3c ad 0c f8 bd 71 ae 3f bd 10 8f e2 3d
       0.030965695 -0.12111793 -0.04679722 0.11062443
000180 e0 8d 3e 3e a2 e5 2e 3e 6d 59 dd bd 63 f2 96 bc
       0.18608809 0.17079785 -0.10808072 -0.018426126
000190 64 87 5e 3e f7 81 e3 3d 3b bc 57 3e 75 29 68 3c
       0.21731335 0.11108773 0.21067898 0.01417004
0001a0 69 1b 85 3e 37 70 d9 bd 16 4f 41 be d2 aa 45 bd
       0.25997475 -0.106171064 -0.18877825 -0.04825861
0001b0 92 fa 18 3e 9e 09 9d 3c 5b 1a 52 3d 1b 86 2e 3e
       0.14939335 0.019169625 0.051294666 0.17043345
0001c0 33 32 5c bd 84 12 0f 3e dd 64 26 3e d3 4c 88 3c
       -0.05375881 0.13971907 0.16249414 0.016638195
0001d0 1b c8 d4 bd a1 01 55 bc 4e e5 09 3e 2c 89 1b 3c
       -0.103897296 -0.013000877 0.13466379 0.009493154
0001e0 b5 7a 5f 3e 7f 40 06 3e 24 57 2a 3d 72 a4 e8 3a
       0.21824153 0.13110541 0.04158701 0.0017749204
0001f0 fa b6 8d bd 3e dd 4e 3d 8c 6e ce 3d d2 7f 0f 3e
       -0.06919666 0.05050396 0.10079679 0.14013603
000200 30 ee 0b 3e 3a 17 8a bc 25 08 8d 3d d7 98 22 ba
       0.1366508 -0.016856778 0.06886319 -0.00062025845
000210 0d 47 03 3e 66 aa ee bd bd 9c 9b 3d 4f 44 59 be
       0.12820072 -0.11653595 0.07598255 -0.21217464
000220 7f b8 d2 3d 35 28 01 be af 46 ec 3d 77 56 af 3d
       0.10289096 -0.12612994 0.11536919 0.08561414
000230 17 66 38 3e 5a 83 00 be 3e 3a 1e 3e fb 33 c8 3c
       0.18007694 -0.12550107 0.15451905 0.024438849
000240 77 c0 33 3d 52 a1 3e 3e 59 78 1e 3e dd 65 01 bd
       0.04388472 0.18616226 0.15475596 -0.031591285
000250 66 a7 60 3d 98 f3 a3 3d 68 11 15 3d 8d 84 b1 3c
       0.054847144 0.08005446 0.036393553 0.02166965
000260 d5 b3 b3 3c a2 49 0a 3e e2 f4 df 3d d0 89 52 bc
       0.021936337 0.13504651 0.109353796 -0.01285024
000270 cf b3 58 3c 3a b3 59 3d d5 c5 07 be f6 36 f6 3d
       0.013226463 0.05314944 -0.1325906 0.12022202
000280 37 76 e6 3d 3e 77 08 3e 07 ed 18 bb 95 f8 41 bd
       0.112530164 0.13326737 -0.0023334639 -0.047356207
000290 7b bd b2 3d 58 3a 30 3d 3f 3a fd 3c 4f 73 87 bd
       0.08727547 0.04302439 0.030911563 -0.0661379
0002a0 17 96 56 3d 9e 10 d8 bd fb 37 28 be c1 08 14 3e
       0.05238923 -0.105500445 -0.16427605 0.14456464
0002b0 1f f8 dd 3d 8d b6 08 be 4b a6 32 3d 64 16 a3 3d
       0.10838341 -0.13350888 0.04361562 0.07963255
0002c0 ad 68 06 be a7 a2 01 3e c7 b3 e0 3d 59 cd 15 be
       -0.13125868 0.12659703 0.1097179 -0.14629115
0002d0 02 9a 55 3d 83 8c 0e 3d f4 05 11 3d ae 3a a8 3d
       0.052148826 0.03480197 0.035406068 0.08214317
0002e0 f3 fa 9f 3d e0 8d 23 3d c5 67 05 3d ca 9c 4d be
       0.07811537 0.039930224 0.032569665 -0.20079342
0002f0 ea 4b 24 3d 45 9b 78 3e 97 c2 4c 3d 2e 11 8a 3c
       0.04011146 0.2427798 0.049990263 0.016853895
000300 b7 15 81 3d 97 7f d3 3d dc de 0b 3e 3b 42 9e 3c
       0.0630297 0.1032707 0.13659233 0.01931869
000310 ad b8 90 3b 91 4e 53 3c 31 33 2c 3e 55 bc 43 bd
       0.0044165463 0.01289715 0.16816403 -0.04778703
000320 4c f7 8d 3e 8a 3c ad bd b3 91 31 3e e9 7c 1c 3e
       0.27727735 -0.084588125 0.17340736 0.15282024
000330 02 0c 0d 3d fb 4d 24 be 12 16 03 3e d3 12 e0 3d
       0.03443528 -0.16045372 0.12801388 0.109410904
000340 63 dd 24 bc 89 2c d3 ba 9e a8 09 3e 83 90 d1 3d
       -0.010062548 -0.0016111295 0.13443229 0.102326415
000350 1f 20 5f bc 4f 42 ec bd e8 be c7 3c 87 47 09 bd
       -0.013618498 -0.11536085 0.024383023 -0.03351548
000360 32 f0 08 3d 3e 1c 66 3d 0f 1b 34 bd 4f ed 0a 3e
       0.033432193 0.056179278 -0.043971118 0.13567089
000370 82 11 a5 bd 6c fd cf bd ca 73 ce bd 0f c3 70 3e
       -0.0805998 -0.10155758 -0.10080679 0.23511909
000380 3f 20 a8 3d 65 c3 24 3e c2 b9 e0 bc ea 8b 5c 3d
       0.082092755 0.16090162 -0.027432326 0.05384437
000390 ef 49 fb 3c c3 b4 9b 3d f6 76 66 3e 22 77 96 3d
       0.030674903 0.07602837 0.22506317 0.073469415
0003a0 13 54 37 3e fc f0 08 3e 28 97 bd bd ad 0b 99 3c
       0.17903166 0.13373178 -0.092573464 0.018682325
0003b0 88 04 63 3d c7 1b 16 3c fa 2b bc bc 48 95 b6 3d
       0.055424243 0.009161896 -0.022970188 0.08915192
0003c0 78 e3 0b be 6b 24 5d ba d8 3d 5e bd eb 61 9f bc
       -0.13660991 -0.00084359077 -0.054258198 -0.01945587
0003d0 8a c7 bb 3b c9 ec 78 3d a6 80 f3 3c 5f 04 55 3d
       0.005730574 0.06077269 0.02972443 0.05200612
0003e0 2d 39 9c 3e 19 5a 3d 3e d7 b8 5e 3e 13 f1 75 bc
       0.30512372 0.18491401 0.21750198 -0.01501109
0003f0 27 d8 e6 3d 9c 53 a2 3d a2 f8 a0 bd 16 f0 7a 3d
       0.112716965 0.079261035 -0.07859923 0.06126412

fc1.2.bias f4 [128]
000000 18 07 86 3e 1b 22 ba 3e 85 e8 6d 3e c0 4b 04 3e
       0.26177287 0.36354145 0.2323323 0.12919521
000010 61 52 47 3e 91 c0 86 3e 68 92 96 3e 0a 61 19 3e
       0.19465019 0.26318792 0.29408574 0.14978424
000020 90 58 a9 3e 56 c2 37 3e 9f 75 aa 3e 2a 02 9e 3e
       0.3307538 0.17945227 0.33292863 0.30861026
000030 da 4b 6d 3e e6 b4 d4 bd 5b f1 88 3e 4c ca 01 3e
       0.23173466 -0.10386066 0.2674664 0.12674826
000040 d3 34 83 3e 4d 11 27 3e 08 14 03 3e 9b 7f aa 3e
       0.2562624 0.16315193 0.1280061 0.3330048
000050 f0 4c 20 3e f0 02 ef 3d 3f 63 31 3e 6a e5 b7 3e
       0.1565435 0.11670482 0.17323016 0.35917217
000060 07 27 a2 3e 72 cb bc 3e 1a c3 4e 3e 61 a8 9a 3e
       0.316704 0.36873966 0.20191613 0.30206588
000070 08 d2 ba 3e 12 ee 9a 3e 55 82 34 3e 27 92 8e 3e
       0.36488366 0.30259758 0.17627843 0.2784588
000080 ac 7f 44 3e 4e 1d 80 3e 03 98 a8 3e 24 65 44 3e
       0.19189328 0.25022358 0.32928476 0.19179207
000090 9f 7e 5f 3e 5c b7 49 3e 46 8f e1 bd 84 f5 84 3e
       0.21825646 0.19698852 -0.11013655 0.25968564
0000a0 6e ca b5 3e 83 98 7c 3e 09 92 94 3e e5 a8 bb 3e
       0.35506004 0.24667554 0.29017666 0.36652294
0000b0 bb ea 68 3e 4a 13 a2 3e b9 eb 30 3e 80 cc 8a 3e
       0.22745793 0.3165534 0.17277421 0.27109146
0000c0 08 58 58 3e 04 2e 2d 3e 8d bf b5 3e a3 93 61 3e
       0.21127331 0.16912085 0.35497704 0.22028975
0000d0 6c d0 b2 3e 39 bc 80 3e 50 92 11 bd f0 07 3d 3e
       0.34924638 0.25143602 -0.035539925 0.18460059
0000e0 bb 72 2f 3e 3c 58 16 3e 9f 88 b1 3e c8 66 42 3e
       0.1713361 0.14682096 0.34674546 0.1898452
0000f0 9d c8 4f 3e 0d df 79 3e 94 a0 1e 3e db 09 3f 3e
       0.20291372 0.24401493 0.15490943 0.18656103
000100 e1 f0 25 3e ee dc 0b 3e ce 18 89 3e 0f c3 4e 3e
       0.1620517 0.13658497 0.26776737 0.20191596
000110 c0 c9 51 bc 31 91 31 3e 7f ee 93 3e 41 54 59 3e
       -0.012804449 0.17340542 0.28892896 0.21223547
000120 6b 6c 5d 3e 0e bf 80 3e 48 36 99 3e bb 77 a7 3e
       0.2162339 0.25145763 0.29924226 0.32708535
000130 54 d9 a5 3e 78 fc 1c 3e 73 9d 37 3e 0b 72 7e 3e
       0.3239237 0.15330684 0.17931156 0.24848191
000140 94 36 71 3e 8c b9 99 3d 9a 65 0c 3e 20 b7 51 3e
       0.23555976 0.075060934 0.13710633 0.20480013
000150 f8 7b 70 3e 79 a4 2c 3e d9 39 88 3e 2e f6 a6 3e
       0.2348479 0.16859616 0.26606634 0.32609695
000160 da cf 30 3e 75 40 33 3e 1a ea 60 3e ca 53 a2 3e
       0.17266789 0.17505057 0.21964303 0.3170455
000170 09 86 b2 3e 7a b1 f5 bd 85 1e 06 3e c7 b9 09 3e
       0.34867886 -0.119967416 0.1309758 0.13449775
000180 c9 cf b4 3e 38 ef 0c 3e 0c 52 66 3e 2d 7c 95 3e
       0.35314777 0.1376313 0.22492236 0.291963
000190 df b5 f8 3d 6f fa 8f 3e 11 ff 80 3e ca e2 a3 3e
       0.12144064 0.28120753 0.251946 0.32008964
0001a0 9a 4e 74 3e f2 d4 bb 3d 45 f2 80 3e ca 6c b2 3e
       0.23858109 0.091714755 0.25184837 0.34848624
0001b0 6a 2c 74 3e a8 d3 53 3e ed 5a 4c 3e e7 3e 95 3e
       0.23845068 0.20686209 0.1995656 0.29149553
0001c0 c4 a3 49 3e c2 86 b2 3e 94 9b 34 3e a0 5a 9b 3e
       0.19691378 0.34868437 0.17637473 0.3034258
0001d0 c2 66 8a 3e 35 15 95 3e 73 3e 58 3e 63 30 a4 3e
       0.27031523 0.29117742 0.21117572 0.32068166
0001e0 d6 c5 8b 3e 4b c0 f4 3d 72 f5 9f 3e b8 62 d3 bc
       0.27299374 0.119507395 0.31241947 -0.025803909
0001f0 31 e5 a0 3e da a1 6a 3e 42 07 bb 3e 11 56 1b 3e
       0.3142486 0.22913304 0.36528975 0.1516955

fc1.4.weight f4 [256, 128]
000000 48 73 2c 3e 89 6f 4e 3c 6f 51 5d 3e be e9 fa 3c
       0.16840851 0.012599834 0.21613096 0.030629035
000010 c6 3e 3e 3d e3 30 1e 3e 45 57 13 3e b4 ca 17 3d
       0.046446584 0.15448336 0.1438876 0.037058547
000020 20 3c 60 3e 64 c5 3d 3e 91 ea 36 3d eb 47 d2 3d
       0.21897936 0.1853233 0.044657294 0.102676235
000030 f9 99 28 3d c9 6b 29 bd 98 7d d3 3d 3f 06 a5 3d
       0.041162465 -0.041362558 0.103266895 0.08057832
000040 73 2f 68 3d 88 ae 6b 3d a3 85 50 3d a0 a3 43 3d
       0.056685876 0.057539493 0.050908696 0.047763467
000050 05 c7 48 3e bf 8e 5e 3e 1d a6 9d 3e 11 9a d9 3d
       0.1960717 0.21734141 0.30790797 0.10625089
000060 01 80 e8 3c 2d 9a 0c 3e 0e 56 29 3e 54 cb 73 3e
       0.02838135 0.13730688 0.16536734 0.23808032
000070 26 ce 1f 3e 7c 04 07 3e da c7 1e 3e 3f 74 62 3e
       0.15605983 0.13185304 0.15505925 0.22114657
000080 62 04 15 3e ed f9 11 3e 22 36 af 3d e1 93 12 3d
       0.14552453 0.14255495 0.08555247 0.03578556
000090 86 27 4e 3e 7b 6f 55 3d 64 84 96 bc 93 2a 13 3e
       0.20132264 0.05210827 -0.018373676 0.1437171
0000a0 98 b6 3d 3e af c4 84 3e 51 43 26 3e a0 6a a6 3d
       0.18526685 0.25931308 0.16236617 0.08125806
0000b0 83 3e 01 3e f9 c5 25 3e e7 5e 3f 3e fb e6 25 3e
       0.12621503 0.16188802 0.18688546 0.16201393
0000c0 6e ad ce 3d 8c b8 0d 3e 93 97 30 3d 42 a1 48 3e
       0.10091673 0.1383993 0.043113302 0.19592765
0000d0 51 52 ac 3d 22 7b 12 3e 19 c4 87 3d af 1a d5 3d
       0.08414138 0.14304784 0.066291995 0.1040548
0000e0 80 16 6a 3e 11 60 6b 3e 40 26 49 3e 68 82 24 3e
       0.22860146 0.22985865 0.19643497 0.16065371
0000f0 dd 17 0d 3e f4 22 2f 3e 64 7d e2 3d 9e 58 97 3d
       0.13778634 0.17103177 0.110590726 0.07389949
000100 8c 8a 26 3e 8d d0 00 3e d9 4a 48 3e 1d 3d d4 3d
       0.16263789 0.12579556 0.19559802 0.10363219
000110 5a 00 e0 bc 87 39 de 3d ef 62 b7 3d dc a8 ae 3e
       -0.027343918 0.10850816 0.08954417 0.34113204
000120 a0 dc 24 3e 4b 66 28 3d d0 b7 46 3e 57 c6 09 3e
       0.16099787 0.04111318 0.19406056 0.13454567
000130 c8 17 89 3d 93 9d a0 3d 14 bd 51 3b 5c 18 7a 3d
       0.06693989 0.07842555 0.0032003568 0.061058387
000140 a7 e7 33 3e 10 1c 93 3c b4 37 63 3e 7b f6 29 3e
       0.17568837 0.017957717 0.22189218 0.16597931
000150 8e f8 69 3d 23 74 48 3e 08 4b 87 3d 34 89 60 3e
       0.057121806 0.19575553 0.06606108 0.21927339
000160 ec 4f 59 3e 72 eb 0a 3e 7f 4c 5e 3d e4 f5 56 3d
       0.21221894 0.13566378 0.05427217 0.052480593
000170 d8 4c 7b 3d 50 f1 f6 bc 05 84 f7 3d 9b 4f 8f 3d
       0.06135258 -0.030144364 0.120857276 0.069976054
000180 12 b8 b9 3d 43 88 ff 3d 96 96 8e 3c 57 30 d4 3d
       0.09068312 0.12477162 0.01740579 0.103607826
000190 30 e7 01 3d 93 c4 a6 3d 88 a9 da 3d d0 90 4a 3e
       0.03171462 0.08142962 0.10676867 0.19781804
0001a0 1e 0a fe 3d 50 78 ff 3c ed 50 65 3d 4b 30 f1 3d
       0.124042735 0.0311853 0.05598538 0.11776789
0001b0 9a 0a df 3d 95 4d 0c 3e 41 29 1c 3e b0 51 7a 3e
       0.10890694 0.1370147 0.15250112 0.24445224
0001c0 70 95 2f 3d 69 82 1d 3e f5 21 d2 3d 16 37 a5 3c
       0.042867124 0.15381779 0.10260383 0.020167869
0001d0 df bd 6f 3e db 8c 28 3e 90 5a 88 3e 63 ca ff 3d
       0.23412274 0.16459982 0.26631594 0.12489774
0001e0 18 f4 28 3e 55 19 7e 3c 7d e7 2d 3e e0 34 03 3d
       0.16499364 0.015508969 0.16982837 0.032032847
0001f0 43 65 6f 3d 04 68 82 3e 4d 4e 31 3e bb 40 f8 3d
       0.05844618 0.25469983 0.17315026 0.12121721
000200 0e 38 56 3e a7 cf 1e 3e 5f 3f 5c 3e c3 73 8e 3d
       0.2091982 0.155089 0.21508549 0.069556735
000210 e6 36 bd 3d bb 03 e0 3d 05 6c ef 3d a9 34 40 3d
       0.09238987 0.109382115 0.11690525 0.04692522
000220 98 18 83 3e ad 2a 15 3e 29 52 af 3d 22 fc c6 3b
       0.256047 0.14567061 0.08560593 0.006072537
000230 20 10 c2 3d 78 62 0c bd bb a7 6f 3e 5a b5 41 3e
       0.09475732 -0.034273595 0.23403828 0.18916836
000240 97 bb e1 3d d2 dd 08 3e fa 92 e8 3d 29 d2 34 3e
       0.11022108 0.13365868 0.113561586 0.17658295
000250 12 ec 1f 3e b6 e7 8d 3e 8c 61 1b 3e 10 5a 5e 3d
       0.15617397 0.27715844 0.1517393 0.05428511
000260 2c 25 12 3e 02 80 55 3e d8 8f 27 3b 56 db 18 3e
       0.14271992 0.20849612 0.0025567915 0.1492742
000270 12 0e 3a 3e 1d d2 82 3d a2 39 5d 3e 65 f1 42 3e
       0.1816943 0.06387732 0.21604016 0.19037397
000280 8a 9e 39 3e d8 7b 14 3e 17 ee bb 3d da 3e bc 3d
       0.18126884 0.14500368 0.091762714 0.091916755
000290 24 9e 27 3e 81 21 9f 3d 88 bf b2 bc b0 e2 79 3e
       0.1636892 0.07770062 -0.021819845 0.2440288
0002a0 9d a0 a3 3d 56 79 4b 3e 78 e6 18 3e 38 28 dc 3d
       0.07989619 0.19870505 0.14931667 0.107498586
0002b0 5f 1a 13 3e f8 f9 e4 3d 6c aa 27 3e f5 bf bb 3d
       0.14365529 0.1118049 0.16373605 0.09167472
0002c0 29 a2 2d 3c 5f 90 fa 3d 1f ef 6a 3d 05 a5 7a 3e
       0.010597744 0.12234568 0.05735695 0.24477012
0002d0 40 4a eb 3d 62 fc ec 3d 2e d6 0e bd 1f bb 19 3e
       0.114887714 0.11571576 -0.034872226 0.15012787
0002e0 85 a4 96 3d 60 4f b5 3d 1f 12 de 3d 23 64 19 3e
       0.07355598 0.0885303 0.108433 0.14979605
0002f0 3f a6 ad 3d c7 ea 5d 3e f5 bd 04 3e ec f6 5b 3e
       0.084789746 0.21671592 0.12963088 0.21480912
000300 0b f3 30 3d 67 5c dd 3d 44 80 28 3e 43 45 08 3e
       0.043200534 0.1080864 0.1645518 0.13307671
000310 aa 29 70 3d 48 73 b8 3d 31 1c 07 3e a0 f2 5b 3e
       0.058633484 0.09006363 0.13194348 0.21479273
000320 16 42 07 3e 05 d8 ad 3d f1 c7 05 3e 90 55 4f 3e
       0.13208804 0.08488468 0.13064553 0.20247483
000330 71 9d 6d 3e 90 a9 2e 3e 08 65 fc 3d 0e 49 35 3e
       0.2320459 0.1705687 0.12323958 0.1770365
000340 26 2e ae 3d ad 1a 62 bd 7f cb 5a 3e d6 91 ee 3d
       0.08504896 -0.05520122 0.2136669 0.1164891
000350 dc 9e 28 3e ab 19 0c 3e b4 f8 e9 3d 18 93 07 3e
       0.1646685 0.13681667 0.114243895 0.13239706
000360 70 04 02 3e 2f d7 53 3e da b5 27 3e 88 06 1f 3e
       0.12697005 0.20687555 0.16377965 0.15529835
000370 64 06 0a 3e d3 22 42 bd 00 a8 2e 3d d0 83 07 3e
       0.13479 -0.047396492 0.042640686 0.13233876
000380 df 64 49 3d bd c1 37 3e 15 fc fb 3d ff d7 0b 3d
       0.049168464 0.17944999 0.1230394 0.034141537
000390 45 06 b9 3d 73 34 39 3e 05 e7 22 3e 63 e5 a7 3d
       0.09034399 0.18086414 0.1590844 0.08198049
0003a0 c6 65 bc 3d bf dc 0e bd 26 fc 58 3d dd 1d 8a 3e
       0.09199099 -0.03487849 0.052974842 0.2697591
0003b0 0f 3f 2c 3d fc 3f 45 3e f6 95 ec 3d cc bc 23 3e
       0.042052325 0.1926269 0.1155204 0.15989989
0003c0 ce d0 3d 3e c9 b8 cf 3d 03 e0 c4 3d 96 a1 00 bc
       0.18536684 0.10142667 0.09613039 -0.007851025
0003d0 86 4a 04 3e b6 9a 3c 3e 9c b3 15 3e 4b a1 3b 3e
       0.12919053 0.18418393 0.14619297 0.18323247
0003e0 1d fe 29 3e 0f 0a 02 3e 52 27 6d 3e 0d 8a 96 3d
       0.16600843 0.1269915 0.23159531 0.0735055
0003f0 65 e7 df 3d ed 01 34 3e af d0 0a 3e 16 2f 92 3d
       0.10932807 0.1757886 0.13556169 0.07137887

fc1.4.bias f4 [256]
000000 78 05 68 3e 1a ab 97 3e 04 72 80 3e 0f e4 86 bd
       0.22658336 0.29622728 0.25086987 -0.065864675
000010 7c d3 28 3e a8 7f 0c 3d 68 e0 3b bc 31 99 61 3d
       0.16486925 0.03430143 -0.011467077 0.055077735
000020 bd 7a 3d 3e 15 fd 9e 3d dc 76 31 3e 8b 5f 60 bd
       0.18503852 0.07763115 0.17330498 -0.054778617
000030 f9 db 9a 3c 51 d1 36 3d d2 f5 91 3e d3 fc d5 3b
       0.01890372 0.044633213 0.2850786 0.006530383
000040 85 d4 39 3d de 28 0c 3e 43 64 e3 bd c2 3f 90 3d
       0.04536869 0.13687465 -0.11103108 0.07043411
000050 28 92 32 3e fd 76 2f 3d e1 c4 16 3e f5 b5 1f 3e
       0.17438567 0.042838085 0.14723541 0.15596755
000060 49 95 5f bd b9 ec a9 bd 1c 5f 92 3e a7 0d b7 3b
       -0.05458573 -0.082971044 0.28588188 0.0055863443
000070 72 00 65 3e 5b 27 bd bb e9 8a 81 bd 43 6c 76 3e
       0.22363451 -0.005772514 -0.06325323 0.24064736
000080 24 1d 29 bc 23 e5 5b 3e 5c 9a 97 3e 3a 25 f4 bc
       -0.010321889 0.21474127 0.29609954 -0.029802907
000090 6c 43 20 3e e3 2d 18 bc 15 75 84 3e df f0 a8 bd
       0.1565072 -0.009288284 0.25870577 -0.082490675
0000a0 88 f3 ac bd fe 42 86 3e 29 51 cb 3c 14 53 5a 3d
       -0.084448874 0.26222986 0.024818974 0.053301886
0000b0 ef 32 65 3e 10 51 99 3e 37 b9 cc 3c 1e f4 09 3d
       0.22382711 0.29944658 0.024990661 0.033680074
0000c0 e3 70 09 3e 6f 4b 35 3d 7f 8e 3b 3d d5 31 be bd
       0.13421969 0.044261392 0.04579019 -0.092868485
0000d0 a4 7e 52 bc 46 a8 ae 3a b3 9f af 3c 40 57 20 bd
       -0.012847576 0.0013325296 0.021438455 -0.039145708
0000e0 1d 7f b9 bd ac 6d be bd 28 8a 01 be 23 13 43 3d
       -0.09057448 -0.09298262 -0.12650359 0.047625672
0000f0 64 da 04 3e 7d a6 54 3e d8 1b ac bd 92 88 93 3e
       0.12973934 0.20766635 -0.08403748 0.28815132
000100 43 49 06 3d de d2 84 3e f9 7a ba bd 63 2a 88 3c
       0.03278471 0.2594213 -0.091054864 0.016621774
000110 da 11 9e 3e 7f 31 90 3e 6d 3d 8a 3e 2e 1c 92 bd
       0.30872995 0.28162763 0.2699999 -0.07134281
000120 6d 62 dd 37 59 f7 c2 bd 35 f4 93 bc fb 1d 9c bd
       2.6391086e-05 -0.09519834 -0.018060783 -0.07622906
000130 50 c3 28 3d d4 42 a2 bd 0b f5 1e bb 93 0e 6b 3e
       0.04120189 -0.07922903 -0.0024254944 0.22954778
000140 6e a7 c2 bd 84 75 9d 3e ed 63 38 bd 61 50 4e bd
       -0.09504591 0.3075372 -0.04501717 -0.050369624
000150 c2 09 97 3d 40 64 d8 3b 02 6c 5d bd 57 18 91 3e
       0.07374908 0.0066037476 -0.054058082 0.28338882
000160 b0 05 05 bd ad 3f 94 3e 14 17 ad bb 93 2d 9b bd
       -0.032476127 0.2895483 -0.005282292 -0.07577052
000170 98 26 f0 3c 84 bd 93 3d c9 52 08 3e 7e 81 62 3d
       0.029315278 0.072138816 0.1331283 0.055299275
000180 85 20 65 bc 73 8e 9a 3e 0d 64 37 3e 69 23 8e 3e
       -0.013984804 0.30186805 0.1790926 0.2776139
000190 c0 b9 15 3b 74 d2 aa 3d 14 d7 8d bd 43 c6 93 3e
       0.0022846311 0.08340922 -0.069257885 0.288622
0001a0 65 5a b0 bd 10 fe c7 bb 2b 03 68 3d 2d ba a2 3c
       -0.086109914 -0.0061032847 0.056643646 0.019864166
0001b0 0e ec 93 3e 99 a3 73 3e ad 5b 57 3e 86 a9 91 3e
       0.28891033 0.23792876 0.21031065 0.2844965
0001c0 df bd 7f 3e 76 32 84 3e b6 06 1b be 2e 2b 67 3e
       0.24974774 0.2581975 -0.15139279 0.22575065
0001d0 cc ed 90 3e 0a c5 39 bd c4 d1 8d bd 85 2e 9b 3c
       0.28306425 -0.045353927 -0.06924775 0.01894308
0001e0 a7 a9 2e 3e 5a 35 3b 3e f9 85 85 3e ac cb 83 3e
       0.17056905 0.18282071 0.26078776 0.25741327
0001f0 00 ba 1c 3c 5e 69 61 bc a5 0c 56 3e 81 99 95 bd
       0.00956583 -0.013758032 0.20903261 -0.07304669
000200 25 88 2f 3d 56 7d 23 be 85 63 24 3d 65 40 0f 3e
       0.042854447 -0.1596578 0.04013397 0.13989408
000210 63 9c 83 3e db f3 4f 3e 18 6c 82 3e 94 79 50 3e
       0.2570525 0.20307867 0.25473094 0.20358878
000220 7a a6 cb bc fd fa 67 bd d6 b2 95 3e 2a 02 7d 3d
       -0.024859656 -0.056635845 0.29238003 0.061769642
000230 70 e6 8b 3e 7f 1f ab 3d d5 cb 6c bd 4c 96 e5 bc
       0.27324247 0.08355617 -0.057811577 -0.028025769
000240 a0 94 7b bc 4e 70 9a 3e 2b a8 b5 3c 89 a6 81 bd
       -0.015355259 0.30163807 0.022174915 -0.06330592
000250 38 44 b1 bd 22 58 4a 3e 09 dd 03 be 16 a3 8e 3d
       -0.0865559 0.19760182 -0.12877287 0.069647
000260 4b da 85 3d b4 65 56 3e da 2f 1d 3e de 12 37 3d
       0.06535777 0.20937234 0.15350285 0.044695728
000270 bc fc 91 3e 79 4e 97 3c d6 e6 98 3e e4 fd 94 3e
       0.28513134 0.018470036 0.29863614 0.29099953
000280 6f f8 38 3d d4 cd af bd d1 f1 4d 3e 2f ca 45 3e
       0.0451588 -0.085841805 0.20111777 0.19315408
000290 28 09 89 3e b1 d4 87 3e 1e 41 63 3e e9 9b 20 bc
       0.26764798 0.26529458 0.22192809 -0.009802797
0002a0 d7 79 77 3e 65 43 87 bd d7 b0 94 3a 0f e4 63 3d
       0.24167572 -0.06604651 0.0011344206 0.055637415
0002b0 26 75 27 3d ba d5 44 bd 5c 2d 4b bc 47 e5 79 bd
       0.040883206 -0.048055388 -0.012400951 -0.06100967
0002c0 df 52 23 3e 16 86 44 3e 80 79 85 3e 4e 68 1c 3e
       0.15949582 0.19191775 0.2606926 0.15274164
0002d0 9d 69 8a 3e 40 80 94 3e ec d4 86 3e e8 e5 2f 3e
       0.27033702 0.29004097 0.26334321 0.17177546
0002e0 8f 47 4a 3e 14 45 2b 3e 5a 1d 21 3e cd 38 89 3e
       0.1975386 0.1672557 0.15733853 0.26801148
0002f0 14 55 bc 3c 19 6c 8f 3e 9a 27 2e 3e f8 46 93 3d
       0.022989787 0.2801216 0.17007294 0.071912706
000300 de b6 83 bc bb 61 11 3d f2 00 3a ba bf 70 0b 3e
       -0.016078409 0.035493594 -0.0007095478 0.13617228
000310 1f b4 7a bb a3 54 7f 3e c4 e3 30 3e 39 f1 16 3d
       -0.0038254333 0.2493463 0.17274386 0.03685114
000320 80 ec 86 3e 6f cc 8e 3e 08 0e 23 3e 45 46 92 bd
       0.2635231 0.27890345 0.15923321 -0.07142309
000330 ef cd 8a 3d 85 88 8f 3e a5 84 f5 bc c4 1c 40 3d
       0.0677756 0.28033844 -0.029970476 0.046902433
000340 71 49 0f bd 76 b0 36 bd a7 e5 8c bc a5 ba 86 3e
       -0.03498215 -0.04460188 -0.01719935 0.26314273
000350 a8 b9 01 bd 4f 94 93 3e 40 19 2c 3e c4 8f af bd
       -0.031671196 0.28824088 0.16806507 -0.08572343
000360 a4 e7 ca 3b 35 45 94 3e be 74 50 3e 36 07 29 bb
       0.0061921645 0.2895905 0.20357034 -0.0025791652
000370 26 94 86 3e 2a eb 58 3e 18 2c 6f 3e 40 92 6b 3e
       0.26284903 0.21183458 0.23356664 0.23005009
000380 28 0c af bc 22 b7 8d 3e 8e e1 5f 3d 91 5f 7d 3e
       -0.021368101 0.27678782 0.054658465 0.24743487
000390 16 34 21 3e 51 1b 3a 3e 68 12 6f 3e 0a fc 90 bc
       0.15742525 0.18174483 0.23346865 -0.017698307
0003a0 88 0d 14 3d 44 99 b4 3c 14 e0 b4 bd 7d b6 36 3c
       0.036145717 0.022045739 -0.08831802 0.011151907
0003b0 5d ca 7c 3d d6 66 6c 3e 94 56 7f 3e 80 2d 62 3e
       0.061716426 0.23086104 0.2493537 0.2208767
0003c0 7c d1 41 bd 76 65 ea bd 80 60 c1 3c 61 5a 05 3e
       -0.04731892 -0.114451334 0.023605585 0.13022758
0003d0 a1 f6 68 3e e7 bc 81 3c 97 71 64 3e 31 86 39 3e
       0.22750331 0.015837146 0.22308956 0.18117596
0003e0 f4 58 6b 3e 8f 66 9c bd 29 43 5a bd 71 80 97 3e
       0.22983152 -0.07636749 -0.053286705 0.2959018
0003f0 78 d0 88 3e 6c bf 30 3c c2 55 9a bd b7 dd c8 bc
       0.2672155 0.010787826 -0.07535888 -0.024519784

fc1.6.weight f4 [1, 256]
000000 dd 74 3f be b5 a6 22 be 8d 0c 2c be 88 4e 76 3d
       -0.18696924 -0.15883906 -0.16801663 0.060133487
000010 7c 49 35 be 35 c3 22 3d 7a 34 13 3d a6 79 4c 3c
       -0.17703813 0.039736945 0.035938717 0.012480175
000020 70 19 50 be ff 08 64 3d 08 97 46 be cd ef 43 3d
       -0.20322204 0.05567264 -0.19393551 0.047836114
000030 1a 1b a1 3c de 89 0f 3d bd 59 24 be 81 7e 1c 3c
       0.019666243 0.03504359 -0.16049857 0.009551645
000040 9a d3 1b 3d 6b 79 0d be f6 c4 4f 3e 30 7e 67 3d
       0.038043596 -0.13815849 0.20289978 0.056516826
000050 b1 ec 3b be 3e dc 48 3d cb 4d 1d be 24 81 48 be
       -0.1835201 0.049038164 -0.15361707 -0.19580513
000060 fa 82 91 3b d7 df f9 3d 2c 7f 13 be b0 94 38 3d
       0.0044406625 0.12200897 -0.14403981 0.045063674
000070 9c 2b 47 be 48 9c 1e 3d e0 26 58 3d 35 e2 41 be
       -0.1945023 0.03872326 0.05277145 -0.18933947
000080 9c b6 c3 3c 7c 31 3e be 08 e2 29 be 79 7f 06 3b
       0.023890786 -0.18573564 -0.1659013 0.0020522757
000090 17 d2 4d be d3 82 15 3d a6 11 1b be a8 f9 43 bc
       -0.20099674 0.036501717 -0.15143451 -0.011961378
0000a0 2b 5a 1e 3e 1e cf 3b be d9 9f 24 3d 32 74 30 3d
       0.15464084 -0.18340728 0.040191505 0.043079562
0000b0 1d a9 3a be a1 03 3b be ce c1 77 3d 71 a5 73 3c
       -0.18228574 -0.18263103 0.06048756 0.014870987
0000c0 a3 45 2a be ce 36 03 3d 56 7b 0e 3d 8d ce 06 3d
       -0.16628127 0.032034688 0.03478559 0.032911826
0000d0 b4 74 01 3c 1f 36 15 3d 20 93 73 3d 04 4d 63 3c
       0.007901359 0.036428567 0.05946648 0.013873342
0000e0 27 64 31 3d c6 ec 95 3e a0 7d d5 3d 21 16 af 3b
       0.043308403 0.29282206 0.10424352 0.005343214
0000f0 47 65 3c be ef 13 1f be c5 9d 9c 3b bc 4f 4f be
       -0.18398009 -0.15534948 0.00477955 -0.2024526
000100 25 36 54 3d e3 cd 3e be b5 24 ae 3d 5e c1 15 3c
       0.05180945 -0.18633227 0.08503095 0.009140341
000110 65 ad 31 be 56 22 12 be 68 d8 15 be e4 de 4e 3a
       -0.17351301 -0.1427091 -0.14633334 0.00078914897
000120 4c 74 12 bc 3e ab 87 3c 41 65 e2 3c c9 09 14 3c
       -0.00893886 0.016561147 0.027636172 0.009035536
000130 8b a0 d2 3b 6a a4 c7 3c 6f 26 67 3e 66 a9 47 be
       0.0064278296 0.02437039 0.22573255 -0.19498214
000140 8c 05 89 3e 82 a8 19 be 92 03 b7 3c c1 41 81 3e
       0.26762044 -0.15005687 0.02234057 0.2524548
000150 7e 3f 11 3c 76 c2 30 bd 92 9d 5c 3e b9 03 1c be
       0.008865235 -0.043154202 0.21544483 -0.15235795
000160 21 ef 10 3c 97 52 17 be 7e 5a a4 3c e0 e4 2a bc
       0.008846075 -0.147776 0.020062681 -0.010430545
000170 0e be 14 3e 83 b7 e4 3c 7f 30 32 be aa 9b 41 3c
       0.14525625 0.027919536 -0.17401312 0.011816898
000180 89 bb 07 3d 6f a1 3f be 1e ed 41 be 9b 63 4d be
       0.03313783 -0.18713926 -0.1893811 -0.20057528
000190 06 e6 6b 3d 21 b6 44 3d b7 4a 51 3d a6 99 18 be
       0.057592414 0.048025254 0.051096644 -0.14902362
0001a0 e0 01 51 3d ec a6 34 bd fb 2a 2e 3d 65 26 42 3c
       0.05102718 -0.0441045 0.042521458 0.011849974
0001b0 b7 63 3f be b0 57 3b be a7 c0 4d be 36 07 2f be
       -0.18690382 -0.18295169 -0.20093022 -0.17092595
0001c0 c2 f4 3b be 7a 08 60 be dd 2e 84 3e 65 63 22 be
       -0.18355086 -0.21878234 0.25817004 -0.15858229
0001d0 9b 2a 10 be fa 80 c4 3c aa 56 71 bd e3 ec 06 3c
       -0.14078753 0.023987282 -0.05892054 0.008235189
0001e0 2c 6c 44 be f0 5a 12 be 1c 09 3d be 5e 57 48 be
       -0.1918189 -0.14292502 -0.18460506 -0.19564578
0001f0 da 3f 09 bd 91 80 04 3d 75 fa 52 be 32 cc 46 bd
       -0.03350816 0.032349173 -0.20603354 -0.04853458
000200 66 df 59 3d 54 b2 c0 3e ad 5d 05 3d 46 27 43 be
       0.053191565 0.37636054 0.03256004 -0.1905795
000210 0e e0 41 be 74 fb 44 be 77 5c 4e be f6 02 16 be
       -0.18933126 -0.19236547 -0.2015246 -0.14649567
000220 f1 11 52 3d 6c 76 ee 3c 57 92 0d be 78 9f 0b 3d
       0.05128664 0.029109202 -0.13825355 0.034087628
000230 ba 73 14 be 2c 40 0b 3d 3c 1d 59 bd 81 ff 55 3d
       -0.14497271 0.033996746 -0.053006396 0.05224562
000240 5a f8 24 3d 97 51 10 be a2 97 63 3d 94 e5 8a bc
       0.04027591 -0.14093624 0.05556453 -0.016955175
000250 8a 92 15 3d 09 4c 44 be f8 3b 4a 3e 13 ba 55 3d
       0.036516704 -0.1916963 0.19749439 0.052179407
000260 58 00 df 3c 0d e8 1f be 2d fe 35 be 6e 69 13 3d
       0.027221844 -0.15615864 -0.17772742 0.035989217
000270 cd e1 0c be c2 ef 4f 3d 0f 13 2d be 06 69 22 be
       -0.13758011 0.05076576 -0.16901802 -0.15860376
000280 de 01 35 3d 20 ee c0 bc d4 bb 43 be d6 f4 20 be
       0.044191234 -0.023551047 -0.1911462 -0.15718397
000290 b5 a9 1d be 3a 1f 43 be 25 6d 17 be 45 ec 76 3c
       -0.1539677 -0.1905488 -0.14787729 0.0150709795
0002a0 89 ec 43 be eb ec 4c 3e c6 ae 5a 3d 2c fc 2b 3d
       -0.191332 0.20012252 0.053389333 0.041988537
0002b0 02 70 1b bd 50 cb 18 3d 51 36 40 3d 01 ee f0 3b
       -0.037948616 0.03730327 0.0469268 0.007352591
0002c0 6f ff 26 be 58 25 0c be 49 a2 39 be 91 e5 46 be
       -0.16308378 -0.1368612 -0.18128313 -0.1942351
0002d0 82 67 30 be c2 b1 2c be d1 c1 35 be 6f 14 3f be
       -0.17226985 -0.16864684 -0.17749716 -0.18660139
0002e0 6b 0b 1d be 2c 08 0d be 81 1e 30 be 76 84 47 be
       -0.15336387 -0.13772649 -0.17199136 -0.19484124
0002f0 b0 9d 46 3c 42 57 48 be 15 85 5b be f6 92 6f 3d
       0.012122557 -0.19564536 -0.21437486 0.058489762
000300 d1 e7 08 3d bd da 3f 3b ba 2b 13 3c 55 d6 23 be
       0.033424202 0.0029274665 0.008982593 -0.1599973
000310 f3 98 4b 3e 50 c1 4c be f6 4c 41 be 1a 5e 09 3d
       0.19882564 -0.19995618 -0.18877015 0.033537008
000320 3b b3 2f be 28 33 5d be 9c af 55 be 0b 37 31 3d
       -0.17158215 -0.21601546 -0.20867771 0.043265384
000330 a7 53 f7 3c fb 4c 0f be ae a3 02 3d 2b b9 74 3d
       0.030191256 -0.1399421 0.03189438 0.059746902
000340 04 ef 96 bc b4 a7 06 3d 46 e8 76 3d bc 95 47 be
       -0.018424518 0.032874778 0.060280107 -0.19490713
000350 d8 c4 4a 3d 19 a8 35 be 3d 61 23 be b0 f6 ac bb
       0.04950413 -0.17739905 -0.15955062 -0.005278431
000360 73 51 97 3c ec a8 13 be 08 f9 1f be 95 42 0a 3d
       0.018471455 -0.14419907 -0.15622342 0.033754904
000370 c5 b9 2c be d7 d7 23 be 4e 0c 4d be c9 d3 20 be
       -0.1686774 -0.16000305 -0.20024225 -0.1570579
000380 3e 48 73 bd 77 f0 0d be 3d 64 0a 3d 20 82 0b be
       -0.059395067 -0.13861261 0.033787 -0.13623857
000390 4b 10 58 be b7 3a 3e be 38 c1 3a be a5 cc 67 3d
       -0.21099965 -0.18577085 -0.1823777 0.05659165
0003a0 e6 d9 18 3d ba 1a ac 3b 09 a4 b3 3c 38 ae c9 3c
       0.03731718 0.0052522095 0.021928804 0.024619207
0003b0 1b 89 24 3d c0 bf 17 be e0 b8 33 be b8 5a 30 be
       0.040169816 -0.1481924 -0.17550993 -0.17222106
0003c0 9c d8 ca 3c 74 86 0d 3e da 79 59 3c 9c 97 28 be
       0.02476149 0.13820821 0.013273681 -0.16464084
0003d0 9d 26 36 be e3 d8 08 3e cf 83 30 be 28 34 1f be
       -0.17788167 0.13363986 -0.17237781 -0.1554724
0003e0 ac 09 3b be 84 e9 e5 3c ab 7a 29 3e 8c 22 1d be
       -0.18265408 0.02806545 0.165507 -0.1534521
0003f0 14 2d 3f be d7 42 1b 3c 92 dc 6d 3d 20 2a 0b 3d
       -0.1866954 0.009476385 0.05807168 0.03397572
