models/PPOContinuous_actor.pth (torch, 21912 bytes, 6 tensors)

fc1.0.weight f4 [64, 3]
0	0xbf062f91	-0.5241633
1	0xbe0de668	-0.13857424
2	0x3ecdf5b4	0.4022652
3	0x3f0dbcb4	0.55366063
4	0xbe8e1ba8	-0.27755475
5	0xbed29bad	-0.41134396
6	0xbdca3ed2	-0.09875263
7	0xbe47271e	-0.19448516
8	0xbeec1f39	-0.4611757
9	0x3ebff0cb	0.37488398
10	0x3d887fc4	0.06664994
11	0x3ea55ff2	0.32299763
12	0x3e4b3020	0.19842577
13	0xbeacf7d3	-0.33782825
14	0xbe7a4007	-0.24438487
15	0x3f02b5cc	0.5105865
16	0xbe99bc0a	-0.30026275
17	0x3c977749	0.018489497
18	0x3ec4fa62	0.38472277
19	0x3e455682	0.19271281
20	0xbf0c8b99	-0.5490051
21	0xbe6dd661	-0.2322631
22	0x3f0c00da	0.546888
23	0x3cf36ed2	0.02971593
24	0x3e885302	0.2662583
25	0xbebb93c2	-0.36636168
26	0x3e71ddb8	0.23619735
27	0x3d108241	0.03528047
28	0xbe3b331c	-0.18281215
29	0xbf0fa5c3	-0.5611231
30	0xbe84d3eb	-0.2594293
31	0x3ca4f1f3	0.020134902
32	0x3e660747	0.22463714
33	0x3e0b29f7	0.13590227
34	0x3ee8c3b3	0.45461807
35	0x3e6dd2dc	0.23224968
36	0xbe7ea37a	-0.24867049
37	0xbd94bbfb	-0.07262417
38	0x3eef0cbb	0.466894
39	0xbee81b0f	-0.45333144
40	0xbe19ac18	-0.15007055
41	0xbe3145a8	-0.17311728
42	0x3e1e7810	0.15475488
43	0x3f057b6d	0.5214146
44	0xbe539396	-0.20661768
45	0x3edead14	0.43491423
46	0xbe8412f2	-0.25795704
47	0xbedbc4d3	-0.42923602
48	0xbcdebf40	-0.027190804
49	0x3e153761	0.14571907
50	0x3ee247f6	0.44195527
51	0xbf063ba7	-0.5243477
52	0xbe8cb093	-0.27478465
53	0xbe304932	-0.17215422
54	0x3ee431a5	0.44569126
55	0x3ed5e2ea	0.41774684
56	0xbbdd16d3	-0.0067471056
57	0x3e6736da	0.22579518
58	0xbea45cd6	-0.32102078
59	0xbedd0501	-0.4316788
60	0xbe5bbe1d	-0.21459241
61	0x3da6ee4e	0.08150922
62	0xbc886b62	-0.016652767
63	0x3eadda92	0.33955818
64	0xbf0cf40a	-0.55059874
65	0x3df4b023	0.11947658
66	0xbea05d83	-0.31321344
67	0x3e831c2b	0.25607428
68	0x3eb573bf	0.3543987
69	0x3e08709a	0.13324204
70	0xbe82f529	-0.25577667
71	0x3e5901d3	0.21192102
72	0x3eaf9b8d	0.34298363
73	0x3e6c045b	0.23048536
74	0x3dc1f80e	0.09471141
75	0x3eb958f9	0.36200693
76	0x3e8eef6b	0.27917036
77	0xbf11ba56	-0.5692495
78	0xbdd8dc44	-0.10588887
79	0x3e8d3ad5	0.27583948
80	0xbf0c79b0	-0.5487318
81	0x3f11b96f	0.56923574
82	0x3ecee7b3	0.40411147
83	0x3daacbc8	0.083396494
84	0x3d6fe7dc	0.058570728
85	0xbecac500	-0.39603424
86	0xbf005c7c	-0.5014112
87	0x3ed67d32	0.4189239
88	0x3e45c896	0.19314799
89	0x3e36e114	0.17859298
90	0x3eca79fe	0.39546198
91	0x3ec4851c	0.38382804
92	0xbe93f740	-0.28899574
93	0x3ec89972	0.3917957
94	0x3e86fe35	0.2636582
95	0x3e83abcf	0.25717017
96	0xbf0c3b80	-0.5477829
97	0x3e7a5c97	0.24449383
98	0x3e8fa1ca	0.28053123
99	0xbea220f4	-0.31665766
100	0x3e13ceb6	0.14434323
101	0x3e4ff8a3	0.20309691
102	0xbf0473b5	-0.51739055
103	0x3e9af2fa	0.302635
104	0xbea62cb6	-0.32455987
105	0x3f0f67f1	0.56017977
106	0x3e736cb9	0.23771943
107	0xbebcf55d	-0.36905947
108	0xbec2eac1	-0.38069728
109	0x3ecf5823	0.4049693
110	0xbeda6deb	-0.42661986
111	0xbef20ac5	-0.47273842
112	0xbe84d6ce	-0.25945133
113	0x3dc465b0	0.09589708
114	0x3e21d585	0.15804107
115	0x3cb8b9d3	0.022549545
116	0x3dab817f	0.08374309
117	0xbdf0fede	-0.11767362
118	0xbf0db7ec	-0.5535877
119	0x3e16a02b	0.14709537
120	0xbe094ac3	-0.13407426
121	0xbee37575	-0.4442555
122	0xbe858c17	-0.26083443
123	0xbef4f63e	-0.47844118
124	0x3e393ae7	0.18088876
125	0x3ec3dd77	0.38254902
126	0x3ec609f5	0.38679472
127	0xbf0a77f2	-0.5408927
128	0xbec7d4da	-0.3902958
129	0x3f09992d	0.5374935
130	0x3d7fa314	0.062411383
131	0xbda64dfe	-0.081203446
132	0x3efa720f	0.48915145
133	0x3e914589	0.28373364
134	0x3f0875a0	0.5330448
135	0x3eb3f3fd	0.35147086
136	0xbe93c225	-0.28859058
137	0x3ef0f773	0.4706379
138	0xbed2134c	-0.41030347
139	0x3ed9a240	0.425066
140	0xbeb69ac0	-0.3566494
141	0x3e61d785	0.2205487
142	0xbe15c805	-0.14627083
143	0xbe39e442	-0.1815348
144	0x3ad513a6	0.0016256466
145	0xbef5fc33	-0.48043975
146	0xbe13d769	-0.14437641
147	0x3f138c74	0.5763619
148	0x3eec8aa9	0.4619954
149	0xbe7e37f3	-0.2482603
150	0xbecbeaeb	-0.39827666
151	0xbe9d08df	-0.3067083
152	0xbe255d47	-0.16148864
153	0x3ec9bc64	0.39401543
154	0x3ea8ec8d	0.32992974
155	0x3eae3eb1	0.34032205
156	0x3ded00e8	0.115724385
157	0x3e949c09	0.29025295
158	0xbe767fda	-0.24072209
159	0xbec24f98	-0.3795135
160	0x3dbfeb78	0.09371084
161	0x3d4dfe3a	0.050291277
162	0x3d57852a	0.05261723
163	0x3d789d8c	0.060697123
164	0xbdef5306	-0.11685757
165	0x3d86ac06	0.065757796
166	0x3e62fdc1	0.22167112
167	0xbe947908	-0.2899859
168	0xbef8451a	-0.4849022
169	0x3eb614b2	0.35562664
170	0x3f0ff218	0.5622878
171	0x3e938a1c	0.28816307
172	0xbe5fd524	-0.2185865
173	0x3e420ef9	0.18951024
174	0x3f06d235	0.526645
175	0xbd8a5604	-0.067546874
176	0xbee67997	-0.4501464
177	0x3efe870e	0.49712414
178	0x3ead864b	0.3389152
179	0xbebfadff	-0.37437436
180	0x3f01dfbd	0.5073202
181	0x3eea80e3	0.45801458
182	0xbeb1ab03	-0.34700784
183	0x3cccc3e9	0.024995761
184	0xbe0e07a8	-0.13870108
185	0xbf132f2f	-0.5749387
186	0x3ef1fe07	0.4726412
187	0x3d66387a	0.056206204
188	0xbf08eca2	-0.53486073
189	0xbdb5dae7	-0.08879643
190	0xbedb06e9	-0.4277871
191	0xbaf246bb	-0.0018484214

fc1.0.bias f4 [64]
0	0xbd57a9c6	-0.052652143
1	0xbedf1a16	-0.4357459
2	0x3e32e3db	0.17469732
3	0xbd2afba1	-0.04174388
4	0x3f042134	0.51613164
5	0xbe53b77e	-0.20675465
6	0x3f06835a	0.52544177
7	0xbf0bf136	-0.54664934
8	0xbdf7168f	-0.120648496
9	0x3e6f00f9	0.23340215
10	0x3ee60803	0.44927987
11	0x3e8090f0	0.2511058
12	0x3e87e3c4	0.2654096
13	0xbf00b3f9	-0.50274616
14	0xbd1d6508	-0.03842643
15	0xbe54cd1f	-0.20781372
16	0x3ea1677e	0.3152427
17	0x3efd624a	0.4948905
18	0x3e90b22a	0.28260928
19	0x3e21a805	0.1578675
20	0x3e9612b0	0.29311132
21	0x3e21193e	0.15732285
22	0xbe46d801	-0.19418336
23	0xbf06fba9	-0.5272775
24	0xbeb54fdd	-0.35412493
25	0x3d91d6e8	0.07121068
26	0x3cdb28b6	0.02675281
27	0x3f08b5e6	0.53402555
28	0xbecbc541	-0.3979893
29	0x3e67166c	0.22567147
30	0xbec55d42	-0.38547713
31	0xbd91f77d	-0.07127283
32	0xbf11a722	-0.5689565
33	0x3f0f5e3e	0.5600318
34	0x3e06f602	0.13179782
35	0x3e9b5328	0.3033688
36	0x3ea68330	0.32521963
37	0x3ec98b89	0.3936427
38	0x3dc8045c	0.097664565
39	0x3d9df389	0.07712466
40	0x3dfe64e7	0.12421589
41	0x3e7b8ee1	0.24566223
42	0xbeeedd8e	-0.46653408
43	0x3cd3e8ff	0.025867937
44	0xbe87ada3	-0.26499662
45	0x3f0011a8	0.5002694
46	0xbd070074	-0.032959417
47	0xbdbacd68	-0.091212094
48	0xbf0cff6d	-0.5507725
49	0x3e64b9fc	0.22336572
50	0x3e4946cf	0.19655918
51	0x3edbbff7	0.42919895
52	0xbe3f1632	-0.1866081
53	0xbe56f1df	-0.20990704
54	0x3f0dbafe	0.5536345
55	0x3e4b2ce1	0.19841339
56	0xbddb0e4e	-0.10696088
57	0xbe9a85cc	-0.30180204
58	0x3dfbb5b2	0.12290515
59	0xbe0bc2de	-0.13648555
60	0x3ed00a3c	0.40632808
61	0xbe93746e	-0.28799766
62	0xbeb2d735	-0.34929815
63	0xbdbf17a1	-0.09330679

fc1.2.weight f4 [64, 64]
0	0xbdd30b84	-0.10304931
1	0x3dd0ba97	0.10191839
2	0x3c9f34f6	0.019434433
3	0xbdb44438	-0.08802074
4	0x3db3299c	0.08748171
5	0x3d7ce3d9	0.06174073
6	0x3aeb7757	0.0017964643
7	0xbd8158cb	-0.06315764
8	0xbc96dd6e	-0.018416133
9	0x3d980f00	0.07424736
10	0xbdf4967a	-0.119427636
11	0xbc5d53ac	-0.013508718
12	0x3d7fc63d	0.062444914
13	0xbd942237	-0.072330885
14	0x3db69486	0.08915047
15	0x3d657b9a	0.05602608
16	0x3d2529be	0.04032301
17	0x3dca1794	0.098677784
18	0x3b15ab4e	0.0022837701
19	0x3d91ff50	0.07128775
20	0xbcb87454	-0.022516407
21	0x3cfce6d5	0.030871788
22	0x3df654a6	0.12027864
23	0xbddc600f	-0.10760509
24	0x3a5a9bda	0.0008339264
25	0x3ca78080	0.020447016
26	0xbd674c6b	-0.056469362
27	0x3df7427d	0.120732285
28	0x3db3c9fc	0.0877876
29	0xbc24bdaf	-0.01005499
30	0x3d92ea03	0.071735404
31	0xbdc11f28	-0.09429771
32	0x3c8efe04	0.017455108
33	0x3d4e6cd7	0.050396767
34	0x3da6de34	0.08147851
35	0x3df02889	0.117264815
36	0x3d93ec1c	0.07222769
37	0x3c835c27	0.016035153
38	0xbdc28e27	-0.0949977
39	0x3d8482de	0.064702734
40	0x3dbaac66	0.09114914
41	0xbbe8cbf3	-0.0071043908
42	0x3d25d773	0.04048867
43	0x3d92a119	0.07159633
44	0x3c3e56f2	0.011617409
45	0x3d16a16e	0.036775045
46	0xbd99d45e	-0.07511209
47	0x3de9cd79	0.11416144
48	0x3dbe06fa	0.092786744
49	0x3de146f4	0.10999861
50	0x3bf5c3bb	0.0075001395
51	0x3d729b9f	0.059230443
52	0xbc4fb5c0	-0.01267761
53	0x3d773562	0.060353644
54	0xbdcf6a74	-0.10127726
55	0xbb68baa1	-0.003551163
56	0xbdbbb126	-0.09164648
57	0xbdd1d8a4	-0.10246399
58	0x3da1708a	0.07882793
59	0xbd07d3f1	-0.033161107
60	0xbd8c775c	-0.068587035
61	0x3d1638f6	0.036675416
62	0x3c65be51	0.014022426
63	0xb78c2565	-1.6706714e-05
64	0x3da341f9	0.07971568
65	0x3d9590bf	0.07302999
66	0x3dc7cde6	0.09756069
67	0x3d7afa8b	0.061274093
68	0xbdad14a1	-0.084512
69	0xbdeae3b7	-0.114692144
70	0xbd463e37	-0.048399176
71	0xbc8845c7	-0.016634835
72	0x3dea2a56	0.11433856
73	0xbcffe922	-0.031239096
74	0xbc51db6c	-0.012808662
75	0xbde56cfc	-0.11202428
76	0xbd96336d	-0.073340274
77	0xbdf5e37e	-0.12006281
78	0x3b12368e	0.002231035
79	0xbd1d9e16	-0.03848084
80	0x3c4b1cfa	0.012397045
81	0xbddc98c9	-0.10771329
82	0xbc079256	-0.008274635
83	0x3dcbbc9a	0.09948082
84	0xbd131e1a	-0.03591738
85	0x3c16aaa3	0.009195956
86	0x3dd457e8	0.10368329
87	0x3d27a890	0.040932238
88	0xbd11a94e	-0.035561852
89	0x3dca0488	0.098641455
90	0x3e0215ff	0.12703703
91	0xbd80af64	-0.06283453
92	0x3e02b088	0.12762654
93	0x3d3be409	0.04587177
94	0xbdcb7625	-0.09934644
95	0xbd4622c0	-0.048372984
96	0x3c92fec7	0.017943753
97	0x3daa44c8	0.083139
98	0xbd74b284	-0.05974056
99	0x3cfbeae4	0.030751653
100	0x3cce4ebb	0.025184026
101	0xbcc26bd5	-0.023733059
102	0x3da0f7e7	0.078597836
103	0xbdf69361	-0.12039829
104	0x3de35998	0.11101073
105	0xbb945d45	-0.00452772
106	0x3c84abf0	0.016195267
107	0xbdc1e3ec	-0.09467301
108	0xbda3d842	-0.08000232
109	0x3d8b8c58	0.06813878
110	0x3e022a15	0.12711366
111	0x3dca6dc8	0.0988422
112	0xbd4ae43e	-0.049534075
113	0x3d44450f	0.047917422
114	0x3cba9ce8	0.022779897
115	0x3dfe65a7	0.124217324
116	0xbcf12732	-0.029437635
117	0xbd43e208	-0.047822982
118	0x3d00b012	0.031417914
119	0x3cb9b89c	0.022671036
120	0xbd1c9888	-0.038231403
121	0x3d9357a8	0.071944535
122	0x3dce3fff	0.100708
123	0x3cb34a2a	0.02188595
124	0x3df7189b	0.1206524
125	0xbd44d60c	-0.048055694
126	0x3d99b1ed	0.0750464
127	0x3d39836d	0.045291353
128	0x3dd2133c	0.10257575
129	0x3d7a60ea	0.06112758
130	0x3ca97763	0.02068681
131	0xbdc93a3e	-0.09825562
132	0x3beba08f	0.007190771
133	0x3debd2f5	0.11514846
134	0xbd834772	-0.064101115
135	0x3d8719d7	0.065967254
136	0xbd72acc8	-0.05924681
137	0xbdce4bf7	-0.10073083
138	0x3b896dfc	0.0041940194
139	0x3d1dc266	0.03851547
140	0xbb6e2c22	-0.0036342223
141	0x3d52d2ab	0.05147044
142	0x3df820ac	0.12115607
143	0xbdb16eec	-0.08663735
144	0x3dd2283a	0.10261579
145	0xbdf08e54	-0.11745897
146	0xbca442bf	-0.020051358
147	0x3dbd1e6a	0.09234317
148	0xbd967697	-0.07346838
149	0xbd1b9f70	-0.03799385
150	0xbd5c238a	-0.05374483
151	0xbdbd811a	-0.0925314
152	0xbdbb851a	-0.091562465
153	0xbd30fe1e	-0.043211095
154	0xbd0ac72d	-0.033881355
155	0x3dcce396	0.10004346
156	0x3d640aae	0.055674247
157	0xbdd55460	-0.10416484
158	0xbdeb7bca	-0.1149822
159	0x3dd0e400	0.101997375
160	0xbdd46f65	-0.10372809
161	0xbd42f08b	-0.04759268
162	0xbb39133b	-0.0028240222
163	0xbc6c639e	-0.014428047
164	0x3d9f6c84	0.077843696
165	0x3dce8962	0.100847974
166	0xbd9b9c75	-0.07598201
167	0x3dcff8fa	0.101549104
168	0x3db99e21	0.09063364
169	0x3d454488	0.04816106
170	0xbd0e9671	-0.03481144
171	0xbd0f8212	-0.035036154
172	0x3d84647c	0.064644784
173	0x3dd5d5f1	0.10441197
174	0xbdfba022	-0.12286402
175	0x3d9b6955	0.0758845
176	0xbcbaa378	-0.022783026
177	0x3d5b6c09	0.053569827
178	0xbda5db8a	-0.080985144
179	0x3dff4a0b	0.124652945
180	0x3df6a483	0.12043097
181	0xbdb1bbfc	-0.08678433
182	0xbde77d53	-0.113032006
183	0xbd6d2a61	-0.057901744
184	0xbc153e9b	-0.009109165
185	0xbdf26048	-0.118347704
186	0xbd0c3b1d	-0.034236062
187	0x3d7af599	0.061269376
188	0x3c500413	0.012696284
189	0x3da5b6be	0.08091496
190	0x3d663174	0.056199506
191	0xbd86c1ca	-0.06579931
192	0x3d792e78	0.06083533
193	0xbd545575	-0.05183931
194	0xbdad028b	-0.08447751
195	0xbbe0255a	-0.00684039
196	0x3d2db2e9	0.04240695
197	0xbdfba373	-0.12287035
198	0x3def7f20	0.11694169
199	0x3de99632	0.114056006
200	0xbcdbfbcd	-0.026853466
201	0x3dcd26dd	0.10017178
202	0x3cc12c68	0.023580745
203	0x3df36094	0.11883655
204	0xbd881861	-0.06645275
205	0xbbe6cd3a	-0.007043508
206	0x3de71344	0.112829715
207	0xbd9390e5	-0.07205371
208	0xbdebcd7f	-0.11513805
209	0x3cf1945e	0.029489692
210	0x3d1ebf0a	0.038756408
211	0xbd759eb8	-0.05996582
212	0xbda85269	-0.082188435
213	0xbdcbe332	-0.099554434
214	0x3d9a9ebd	0.07549808
215	0xbd6ffa1c	-0.058588132
216	0x3dd055cf	0.10172617
217	0x3dd5f111	0.104463704
218	0x3de8d6bd	0.11369083
219	0xbcbbaf5b	-0.022910764
220	0x3ca5a249	0.020218985
221	0xbd496e3b	-0.04917739
222	0x3dcb058d	0.09913168
223	0xbbfa1e82	-0.0076330313
224	0x3dedef9e	0.11617969
225	0x3cc2341f	0.023706494
226	0x3bd4a464	0.0064893235
227	0xbbd16637	-0.006390359
228	0xbcc43e6a	-0.023955543
229	0x3d5f8a31	0.05457515
230	0x3dd5a6f9	0.10432238
231	0x3b323fff	0.002719879
232	0xbdb99ae5	-0.09062747
233	0xbdcf79c5	-0.101306476
234	0x3de2638f	0.110541455
235	0x3d97b1d0	0.07406962
236	0x3d953402	0.0728531
237	0xbdd0f13b	-0.10202261
238	0x3da882b5	0.082280554
239	0x3c2399b0	0.009985372
240	0x3d913aed	0.07091317
241	0xbd967bb9	-0.07347817
242	0x3d70c218	0.058778852
243	0xbd13f58b	-0.03612284
244	0xbdc0df5a	-0.09417601
245	0x3de8e644	0.11372045
246	0xbd74df10	-0.05978304
247	0xbdba92af	-0.09110009
248	0x3d72f134	0.05931206
249	0xbc3f3efe	-0.011672733
250	0x3d57d2e9	0.052691374
251	0x3db5ec6c	0.088829845
252	0xbddf96c4	-0.10917428
253	0x3d777a02	0.06041909
254	0xbd3a6594	-0.04550703
255	0x3d9d9ad7	0.07695549

fc1.2.bias f4 [64]
0	0x3d8cca2e	0.068745
1	0x3d95d420	0.0731585
2	0x3deb22c2	0.11481239
3	0xbb5165fb	-0.0031951654
4	0xbcd7490b	-0.026279947
5	0xbdbd070c	-0.0922986
6	0x3dab8b6a	0.083762005
7	0x3dbbfff3	0.09179678
8	0xbd86c350	-0.06580222
9	0xbd89c4bb	-0.067269765
10	0x3d1e59ce	0.038659863
11	0xbd84de20	-0.064876795
12	0xbdae18d4	-0.08500829
13	0x3da9c6af	0.08289849
14	0x3db72ce4	0.08944109
15	0xbde59e95	-0.11211888
16	0x3dde41f6	0.10852425
17	0xbd81ff91	-0.063475735
18	0xbcd23184	-0.025658377
19	0x3cd00b57	0.025396032
20	0x3d7e4b0c	0.06208329
21	0xbcd59d01	-0.026075842
22	0x3c92a9c2	0.017903212
23	0xbdd59f30	-0.10430753
24	0xbdc26c80	-0.09493351
25	0x3dc90172	0.09814729
26	0x3dcd7b10	0.10033238
27	0xbd87ebe4	-0.066367894
28	0xbd5aefe8	-0.05345145
29	0xbdf4dc5f	-0.11956095
30	0xba6e2d1b	-0.0009085701
31	0x3df599a4	0.11992195
32	0x3ceeb289	0.029137867
33	0xbdbc8631	-0.092052825
34	0x3ccbf9f2	0.024899457
35	0xbdeb0eec	-0.114774555
36	0xbd9ca728	-0.0764907
37	0xbda5fddd	-0.08105061
38	0xbd8d2f17	-0.06893747
39	0xbda6fece	-0.08154069
40	0x3deb5d61	0.1149242
41	0xbcbb13f1	-0.022836657
42	0xb9d83735	-0.00041239863
43	0x3df3e82d	0.119095184
44	0xbdcd2da5	-0.10018472
45	0xbc9e1896	-0.019298833
46	0x3ddf427f	0.10901355
47	0x3cfd5b74	0.030927397
48	0x3deecc26	0.11660032
49	0x3d78e3e5	0.060764212
50	0xbdf5f893	-0.120103024
51	0x3d6e1ed4	0.05813487
52	0x3d251798	0.040305704
53	0x3d199b78	0.037501782
54	0xbd9ccaa9	-0.07655842
55	0x3db03375	0.08603565
56	0xbde3300b	-0.11093148
57	0xbd9c6305	-0.07636074
58	0x3d900bbc	0.07033488
59	0x3ccbefb3	0.024894571
60	0x3d6d87ac	0.057990715
61	0x3d96ad9e	0.073573336
62	0xbdae561a	-0.08512516
63	0xbdd17eba	-0.10229249

fc_mu.weight f4 [1, 64]
0	0xbc14a2f6	-0.009072056
1	0xbb7ba266	-0.0038396358
2	0xbbb18a35	-0.005418087
3	0xbc360432	-0.011109399
4	0xbc011888	-0.007879384
5	0xbae61ee9	-0.0017556819
6	0xbc09627e	-0.008385299
7	0xbc1fcfab	-0.009754102
8	0x3bd35079	0.006448802
9	0xbb139a8e	-0.0022522542
10	0xbbb6051e	-0.0055548092
11	0xbbba490d	-0.005684978
12	0x38f73b83	0.00011788963
13	0x3be0b8ff	0.0068579908
14	0xbbac77fd	-0.005263327
15	0xbc20a9b1	-0.009806083
16	0xb8bc9f83	-8.99425e-05
17	0xbb999434	-0.0046868566
18	0xbc00638c	-0.007836234
19	0x3ba78cf3	0.005113238
20	0x3b66490f	0.003513876
21	0xbba7be5b	-0.0051191277
22	0xba153c88	-0.0005692919
23	0x3b9f21d7	0.004856329
24	0x3af73f99	0.0018863558
25	0xbc3a5c7b	-0.011374588
26	0x3b00ce96	0.0019654385
27	0xbb5084e2	-0.0031817486
28	0x3b2c7f26	0.0026320904
29	0x3b79985a	0.0038085193
30	0xbc41af23	-0.011821541
31	0xbc10f041	-0.0088463435
32	0x3b9b931b	0.004747761
33	0x3bff3ac1	0.0077889864
34	0xbc4ba830	-0.012430236
35	0xbb02c360	-0.0019952878
36	0x3bb53501	0.00553
37	0x3bcd7d60	0.0062710494
38	0x3b52baed	0.0032154873
39	0x3a53e2e7	0.00080828223
40	0xbbff987d	-0.0078001604
41	0x3c135692	0.008992808
42	0x3bf8db4e	0.0075945025
43	0xbb9daf17	-0.004812132
44	0x3a5d764d	0.0008448109
45	0xbc4bf0b6	-0.012447527
46	0xbbba12d7	-0.0056785154
47	0x3c3a08f5	0.011354675
48	0xbc053c6b	-0.008132081
49	0x3bcd12a0	0.006258324
50	0x3aec7ddd	0.0018042881
51	0xbc2f1d37	-0.010688118
52	0x3b9e76d0	0.004835941
53	0xbb901bd9	-0.004397851
54	0x3bc53193	0.0060178726
55	0x3c135701	0.008992911
56	0xbc4a7ba3	-0.012358579
57	0x3c0ce697	0.008599899
58	0x3c002173	0.007820475
59	0x3b4da9cb	0.0031381722
60	0xbc5a4841	-0.013322891
61	0x3c03cd04	0.008044485
62	0x3c180605	0.009278779
63	0xbc4dbfc9	-0.012557932

fc_std.weight f4 [1, 64]
0	0xbc7b4d30	-0.015338227
1	0xbd9489a6	-0.07252817
2	0xbd564208	-0.052309066
3	0x3d707188	0.05870202
4	0xbd2891f4	-0.041154817
5	0x3d93e0e6	0.0722063
6	0xbde12bc6	-0.10994677
7	0x3dd61a4a	0.10454233
8	0x3d5ef180	0.05442953
9	0x3c7362c0	0.014855087
10	0x3de35ade	0.11101316
11	0x3d839c32	0.06426276
12	0x3c9058d8	0.017620489
13	0xbd6c8e5c	-0.057752952
14	0x3b6f9380	0.0036556423
15	0xbd78e3b8	-0.060764045
16	0xbd2bbe7c	-0.041929707
17	0xbbfcc960	-0.0077144355
18	0x3dd7a57c	0.105296105
19	0xbcaf5e58	-0.021407291
20	0xbd949d58	-0.072565734
21	0xbd3f8758	-0.046759933
22	0xbcfc2f98	-0.030784413
23	0xbced1580	-0.028940916
24	0xbd184f78	-0.037185162
25	0x3dd32796	0.10310285
26	0x3df3c92e	0.11903606
27	0xbcfab120	-0.030602038
28	0x3a3e5400	0.0007260442
29	0xbd0af874	-0.03392835
30	0xbc956c20	-0.018240035
31	0x3d5ed084	0.054398075
32	0x3c6bce20	0.014392406
33	0x3d5b260c	0.05350308
34	0x3de12594	0.109934956
35	0x3d30ff4c	0.04321222
36	0xbd678b3c	-0.05652927
37	0x3da469e4	0.080280095
38	0x3d5e3b34	0.05425568
39	0x3d9707ea	0.07374556
40	0xbdba729c	-0.09103891
41	0x3dfd327c	0.12363145
42	0x3dc80e40	0.09768343
43	0x3dc9c7d6	0.09852569
44	0xbc548f40	-0.012973607
45	0xbca61e08	-0.020277992
46	0xbc7c4b80	-0.01539886
47	0x3d32d3e4	0.043659106
48	0xbd55ff54	-0.052245453
49	0xbd7fe88c	-0.062477633
50	0x3c195db0	0.009360716
51	0xbde1c00c	-0.11022958
52	0x3d9fa72e	0.07795559
53	0x3c8c5810	0.017131835
54	0x3d5b6774	0.053565457
55	0x3df4f634	0.11961022
56	0xbd81f77e	-0.063460335
57	0xbcfec878	-0.03110145
58	0xbda7d118	-0.08194178
59	0x3d8cf5c6	0.06882815
60	0x3b8016e0	0.003908977
61	0x3db27a7c	0.08714768
62	0x3d1e7138	0.038682193
63	0x3cd8b368	0.026452735
