models/PPOClipactor.pth (torch, 2938 bytes, 4 tensors)

fc1.weight f4 [16, 2]
000000 ed 27 63 3e e1 7a 1a bf 26 69 fe 3e d0 ef 26 3e
       0.22183199 -0.6034375 0.49689597 0.16302419
000010 5a 62 b7 be 01 c8 b3 3e 2a 59 bc be ac 61 b5 3d
       -0.35817224 0.35113528 -0.36786777 0.0885652
000020 91 d1 b1 3e ec 5f 24 bd f3 e0 d4 be fa c6 14 bf
       0.347302 -0.04013054 -0.41577873 -0.58116114
000030 f2 cf b0 bd 0c 45 11 bf 77 be 82 be 32 d9 38 3e
       -0.086334124 -0.5674598 -0.25535938 0.18051603
000040 04 59 08 3f 86 7f 2c bc 38 5f d7 3e 4b 13 12 3f
       0.5326083 -0.010528451 0.42064834 0.5706069
000050 35 55 ff 3e d0 89 6e 3d c7 1e f5 3e c7 85 05 bf
       0.49869695 0.058236897 0.47875044 -0.52157253
000060 20 2b 0d 3f e0 6a 23 bf a3 3d b6 3e 90 56 0e 3e
       0.5514393 -0.63834953 0.355939 0.13900208
000070 ec b7 c7 3d d4 e8 74 3e 27 45 22 3f 6d 9a 45 be
       0.09751877 0.23916942 0.6338677 -0.1929719

fc1.bias f4 [16]
000000 14 cc 01 bc 06 40 be be d7 ea 55 3d 30 ea a4 3d
       -0.007922191 -0.3715822 0.052225914 0.0805248
000010 35 5a 1f be 66 22 86 3e 48 f1 22 3f a0 23 22 bf
       -0.15561755 0.2619812 0.63649416 -0.6333561
000020 56 c6 45 3e 7f a9 e3 3e 91 f4 ce 3e c0 bf b2 3e
       0.1931394 0.44465253 0.40420964 0.3491192
000030 a4 cb f9 3d f2 ec 54 3e 14 1d ac 3e ea 72 9d be
       0.121970445 0.20793512 0.33615935 -0.30751735

fc2.weight f4 [1, 16]
000000 6d 85 15 be a7 48 da ba a0 1f ac 3d 49 81 26 be
       -0.14601679 -0.0016653732 0.084044695 -0.16260256
000010 0f da 8e 3d f4 f5 40 3e 76 13 81 3e bd d9 a0 3d
       0.06975185 0.18843824 0.2521016 0.0785403
000020 81 28 e2 bd a0 ca 87 bd 59 8f 9f bd ce 84 4f 3e
       -0.11042882 -0.066304445 -0.07791013 0.20265505
000030 3f 73 5a 3e a0 62 64 be 38 b6 77 3d c6 c0 d4 bd
       0.21333025 -0.22303247 0.06047651 -0.10388331

fc3.weight f4 [1, 16]
000000 a6 6a 50 3c 25 17 56 3e c1 a9 95 3b be 6a 2a be
       0.0127207395 0.20907266 0.0045673554 -0.16642281
000010 74 44 6b 3e df 8c 84 3e ee 0b 11 be 79 e1 46 3e
       0.22975332 0.25888726 -0.14164707 0.19421948
000020 26 f1 7d 3d fa 24 df 3c 3a fc 1f be 19 2e b9 bd
       0.061997555 0.027239311 -0.1562356 -0.090419956
000030 d5 4b 3b 3e 71 09 17 3e 00 6e 66 3c ca bc f7 bd
       0.18290646 0.14749695 0.014064312 -0.120965555
