models/PPOContinuous_actor.pth (torch, 172384 bytes, 8 tensors)

fc1.0.weight f4 [64, 3]
00000000: ec7b 083e 820d 2abe ffdb 0cbf 91b9 283e
00000010: 94a8 f23e f227 6e3e e262 12be f0a8 a1be
00000020: 66f1 05bf a77a 47be 88b1 82be dec5 f3be
00000030: 45b2 853e b1d9 7e3e 86eb 22be e1c3 09bf
00000040: d008 c6be b412 163e 7572 be3e 5610 01bf
00000050: f6db 81be 665d c03e e230 243e 0908 e83e
00000060: 11b2 1a3f c3f9 553e 08ef ac3e 6622 ec3e
00000070: 9cd1 1f3d 6f5a 423d 5a34 70be 81b8 88bd
00000080: 4d02 a4be a824 45be ef5e 053c 8509 5cbe
00000090: f912 413e f78c e03e 0ffb 053e ef01 bd3e
000000a0: 9d7d bb3e da4b 9ebd 6fbc 023e 325d a33b
000000b0: 099b 043e 263d 053f 4d82 a8be 1651 813e
000000c0: 2117 8fbe b71e f43e d8bc c23e 2b33 073f
000000d0: 06ba 9cbe 3c0e 263d 80e4 ec3e efbb 4abe
000000e0: efb5 223e 98c3 cdbd a7db c03d c78c 853e
000000f0: 068f a1be 1f9c ed3e c0f8 f3bd 10fe 063f
00000100: f77b c73e e8aa eebe 5041 b93e 3131 8cbe
00000110: 0ab2 873c f824 c03e c602 0b3f 4e2e fabe
00000120: 0f33 e4be f8d4 a8bd 55e7 87be 57ec 8f3d
00000130: b96d 08be 93a1 f23e 4ad1 ea3e 928a 813e
00000140: 3456 d3be 6955 9c3e a8db ba3e 5bf6 5cbe
00000150: 23aa d9be 7ec6 5d3e 9f70 05bd d53a 4e3e
00000160: d5fb 48be a98f 6abe 3be1 c03e 9db0 a0be
00000170: 2757 b1be 1e44 bdbe 109f bcbe 374f 06be
00000180: fb1f ec3e 12e7 033e 4467 d3bd 9357 a9be
00000190: 1afa c1be 176f c93e 0ebf 083f c55c b1bc
000001a0: 7d72 d0be 1140 ab3e 63e6 b13e bb52 efbe
000001b0: a7ae ecbe b427 0dbe 3e9f 0dbf ce91 f7ba
000001c0: f52e 7dbe d5df f4be a358 87be 5d57 87be
000001d0: bf2b 7e3e a791 013f 56d0 d43e c6ea 2abd
000001e0: 5733 61bd af72 383e 7a05 6f3e 7e5b 763e
000001f0: 32f5 ea3e 4f7c 133f 462a 48bd a385 1f3d
00000200: 9f46 fcbe 3c51 cb3e 6b40 9cbe 1830 d23e
00000210: 1d1d 2ebe dc0f cd3e 026c a63e 774b 98be
00000220: a206 f83e 7e36 9cbc 286b c3be a885 f33d
00000230: 046e d4be fbfc d63e 1070 03be d6c7 cbbe
00000240: 1091 ab3d b43a e7be e593 3a3e d421 003f
00000250: 42d1 c6bd 5fc0 92be 33b8 bebe 9344 c1be
00000260: cc7e 42be fc5a 24be 131f c13c 2e45 853e
00000270: 37d1 92bd 0516 c53d 4f72 82be a9eb ccbe
00000280: 1ed6 9cbe aa32 f9be a089 4a3e e527 c23d
00000290: c096 0c3f 2768 6f3e 884f 1f3e 44be 303e
000002a0: 6c90 153d 4a91 953e 338f cc3e 327a b9be
000002b0: fbab 7c3e 0e56 ed3e 6bea 13bd 3957 8d3c
000002c0: efad 5d3d 8a15 003f 9d72 323e 23ad b9be
000002d0: dac0 e6bd 7f2d e93e 2a39 7f3e faf3 d1be
000002e0: aaed c0be 6fe0 873e cbaa aebe 40f4 ffbd
000002f0: a3c1 10bf 89ed 083f 29a7 8bbe eb60 033f
0.13328522 -0.16606715 -0.5502319 0.16477038 0.4739424 0.23257425 -0.14295533 -0.31574202
-0.5232147 -0.19480382 -0.2552607 -0.47611898 0.2611257 0.2488773 -0.15910158 -0.5381451
-0.38678598 0.14655572 0.371967 -0.5041555 -0.2536313 0.37571257 0.16034272 0.4531863
0.6042796 0.20896058 0.33776116 0.46119994 0.03901826 0.047449525 -0.2345747 -0.06675816
-0.32033005 -0.19252264 0.00814031 -0.21488006 0.18854894 0.43857548 0.13084053 0.36915538
0.36619273 -0.07729311 0.12767194 0.004985475 0.12949766 0.5204643 -0.32911912 0.25257176
-0.27947333 0.47679684 0.380347 0.5281245 -0.30610675 0.04054092 0.46268082 -0.19798253
0.15889715 -0.10047072 0.09416895 0.26083967 -0.3155443 0.46408173 -0.1191268 0.5273142
0.38961765 -0.46614766 0.36182642 -0.2738128 0.016564388 0.37528205 0.54301107 -0.48863453
-0.44570205 -0.082437456 -0.2654368 0.070275 -0.13323106 0.47388896 0.458628 0.25301033
-0.41276705 0.30533913 0.3649571 -0.21578352 -0.42512617 0.2165775 -0.032578107 0.2013963
-0.19627316 -0.22906365 0.37671837 -0.31384745 -0.34636804 -0.36966032 -0.36840105 -0.13116156
0.4611815 0.12881115 -0.10322431 -0.33074626 -0.37886125 0.39342567 0.53416526 -0.021650681
-0.40712348 0.33447316 0.34746084 -0.46742806 -0.46227 -0.13784677 -0.5532111 -0.0018888058
-0.24724944 -0.4782702 -0.26434812 -0.2643384 0.24821375 0.5061287 0.41565198 -0.041727804
-0.054980602 0.18012498 0.23341933 0.24058339 0.45890194 0.57611555 -0.04886844 0.038945805
-0.4927263 0.39710414 -0.30517897 0.41052318 -0.17003293 0.40051162 0.32504278 -0.29745075
0.4844256 -0.019068953 -0.3816769 0.11890727 -0.41490185 0.41989884 -0.12835717 -0.398009
0.08377278 -0.45161974 0.1822048 0.5005162 -0.097078815 -0.28662392 -0.37249908 -0.3774763
-0.18993682 -0.16050333 0.023574388 0.26029342 -0.07168811 0.096233405 -0.25477836 -0.40023544
-0.30632108 -0.48671466 0.19779062 0.094802655 0.54917526 0.23379575 0.15557683 0.1726008
0.036514685 0.2921241 0.39953002 -0.3622604 0.2467498 0.46354717 -0.03611223 0.017253505
0.054120954 0.50032866 0.17426534 -0.36264905 -0.11267252 0.45542523 0.2492415 -0.41006452
-0.37681323 0.26538417 -0.3411468 -0.12497759 -0.56545466 0.5348745 -0.2727597 0.5131976

fc1.0.bias f4 [64]
00000000: 22fa 62be 63c1 b53c d8d7 ba3c 295e 98be
00000010: d8a4 80be 0132 4bbd ff6b e13e b1ca d93e
00000020: 596e 9dbe e07b 5f3e ace8 853e 5d81 c9be
00000030: b998 d23e 8b99 4c3e a08a 023e 8a33 033f
00000040: 77d0 91be eb12 8f3e 3c85 d43e 21e6 9d3e
00000050: 07df b6be 0ad5 da3e 5839 9dbd bd0f 083f
00000060: 41af 793e 4471 853c 6a66 043e 3915 e73e
00000070: 2e28 fe3e d48b c9be 5c38 fbbd b58b 643d
00000080: ecb3 433d 6119 06bf 45d9 84be 0a61 da3e
00000090: 4a6d 0ebf 97b2 bdbe df8c 3e3e f179 68be
000000a0: 16be c03d b796 72be 9ac7 7a3e 3e17 5dbe
000000b0: 28f0 933e d6ba dbbe d463 003d a8af 41be
000000c0: e9bb bcbe 9ff9 953e 9b1a 5bbd 8c21 f6bd
000000d0: 6404 933e 93e6 993e 0be2 29bd 914a e63d
000000e0: 84d5 1d3c 1961 333e 377a e03c fe52 133f
000000f0: 2172 d7be 1636 7fbd 7060 cf3e 74b9 89bd
-0.2216573 0.02218694 0.022808 -0.29759338 -0.25125766 -0.049608234 0.44027707 0.42537454
-0.3074825 0.21824598 0.26154077 -0.3935651 0.41132143 0.19980447 0.12748194 0.5125052
-0.2847936 0.2794412 0.415079 0.30839637 -0.3571703 0.4274066 -0.07676953 0.53149015
0.2438326 0.01628936 0.12929693 0.4513338 0.4964003 -0.39364493 -0.12266609 0.055797298
0.04777901 -0.52382475 -0.25947013 0.4265216 -0.5563551 -0.37050316 0.18608426 -0.22702767
0.09411256 -0.23690306 0.24490204 -0.21590897 0.28894162 -0.42915982 0.031345204 -0.18914664
-0.36862114 0.29292008 -0.05349217 -0.12018117 0.28714287 0.30058727 -0.041475337 0.11244691
0.009633426 0.17517509 0.027402027 0.5754851 -0.4207926 -0.06230744 0.40503263 -0.067248255

fc1.2.weight f4 [128, 64]
00000000: f890 bf3d db8a e83d 4cc5 9d3c 79e9 80bd
00000010: 8032 733d c832 cf3b d4b3 423d 81de 47bd
00000020: f73a 5cbd d8a2 52bd e732 f33b 750d 5c3d
00000030: a9cf 4a3d 9089 2f3d 33d7 14be 0002 46bd
00000040: fdf1 de3d 3cd0 85bd efba e0bd 162d ddbd
00000050: 9f3c a4bc ef6d d03d 9adf 313c a46c 523d
00000060: cf7c db3a ec35 04be 93dd b4bd ee00 bfbd
00000070: 3303 653c d8f4 e13d 04e8 67bd 3eb9 313d
00000080: 400c d0bd 3dcf c63d 2f11 483d 1e09 a3bd
00000090: ba32 debd 909b 043d 98fa dcbd 8775 ebbd
000000a0: 91b2 fabd f422 0a3d bfc9 ce3c 2a61 eabb
000000b0: 4cbf f4ba f91c f3bb 5c54 6fbd 59cc c4bd
000000c0: 1b81 823d e165 98bd 889d 4c3d ff35 9abc
000000d0: dd3a a33d b2dc ee3d cc6d 97bd 9c5a b53d
000000e0: 2162 743c 1659 8cbd f281 eb3d 8282 003e
000000f0: 287a 1bbd 5f71 863d 474c 913d 3fd3 a0bd
00000100: 8860 943d 4149 47bd cbe6 eebd 484f 8f3b
00000110: 77fd e0bd c237 c9bc 7056 d03c d5ec 923d
00000120: 1cc6 09be 85fc 643d c85f b9bd c195 4c3d
00000130: 414f 8cbd be1d f2bb 6af0 a1bc 697f 623c
00000140: a7f6 7cbd e16c 143d a48f 893d 09c5 f7bd
00000150: 7541 e33c 7bb9 a8bd 5cfe ee3c 7e28 b53c
00000160: ea70 b03d 2be5 803d 65c1 c43d ed82 c03d
00000170: af1b 1d3d 30f8 d7bc 5261 833c 40cb 3c3d
00000180: f0fb e4bd eb6e 94bd 763c dd3c 6e05 d13d
00000190: 1158 9bbd c901 b33d 5d12 7e3d d644 e63d
000001a0: b59e f4bb 0a08 8f3d 3eb3 273d 6450 2fbd
000001b0: 9138 afbd 385d 263d 4155 91bd 5342 303d
000001c0: 50de b6bc da66 9e3d de25 56bd 3635 88bd
000001d0: 618b 05bc 86af eb3d 91db f6bb 10c6 963d
000001e0: 882f ba3d 5cff 46bd ccce 283d c342 763d
000001f0: fb69 36bd 43c8 cd3c 8ce6 6fba 3dcf b5bd
00000200: fcb7 893c c5d0 d4bb 3da9 c0bd 6853 6c3d
00000210: c9e9 41bd 870c ac3d d0fd 71bd e988 a3bd
00000220: b224 bebd bf40 eabd 252f d63d 4a1d ebbd
00000230: c180 043e b428 f0bd bf35 eebd 6963 a83c
00000240: d429 fc3a 29c3 4d3d 8f95 06bd 6a00 30bc
00000250: b1a0 953c 3d05 ebbd 61ab a53d f87f cabd
00000260: 0b1e 8b3d cea1 dcbd be37 583d a4ab 233c
00000270: 7938 c33d fc58 a5bd 2edb cd3d 1ae8 dcbd
00000280: 6404 dc3d 06aa 813d 9543 a3bc 26d1 bf3d
00000290: ab77 f43d d82f 54bd a8b2 033e cd4a 42bd
000002a0: 0baf be3d 26e8 a73d fbfd 94bd 3773 213d
000002b0: c9a9 ffbc 8019 1e3c 964d 28bd 0311 d5bc
000002c0: 483e e83d fb43 e13d 5b53 25bb 3af4 533d
000002d0: 42ed 423c ee36 3fbc c159 01bd 2d9a fa3d
000002e0: d828 d8bd b78b eebd f134 9e3d 76d9 81bd
000002f0: ded5 2d3d 4c55 a6bd 30db c13d 2fb2 bd3d
00000300: b38e 703d edac e1bd 3508 11bd ac35 cf3a
00000310: 870c d1bd 7cb7 f63b 090f c73d b62e b1bb
00000320: 8073 d9bc 870c e0bd a458 9fbd e009 16bd
00000330: 7764 8f3c acb5 a1bd 8ed4 85bd 52d4 8c3d
00000340: edfb b9bd 0dbe d1bd b0f2 cabd 4e4b 42bc
00000350: 3b6c eb3d 8769 b4bd c6bf e53d 7c0e 963b
00000360: 7b94 26bd 23a6 08bd 2678 0bbd 3c32 9c3d
00000370: 1812 04bd 38a5 003e 10e4 6f3d cddc 8f3d
00000380: 55f8 50bc 1fa4 d93d bc36 bcbd 92cb 023e
00000390: 72fa 9ebd 54dd cf3d 8fb7 04bd f7c2 3fbc
000003a0: 4116 b2bd 73fa 29bc 46f7 b13c a90e 32bd
000003b0: ef27 fabd 7cc7 103c 3278 d83d 0c91 0fbb
000003c0: 98e7 023e aa65 8dbc 0962 c1bd 9b96 073d
000003d0: fd6d 783b 9a48 203d 590d ee3d 3107 cf3b
000003e0: 957f 5ebc d1ff 853d 9633 273d 370c 603c
000003f0: 8260 4b3d f06d e7bc 18bf 953d 65c0 cd3c
0.093538225 0.113546096 0.019259118 -0.062945314 0.059374332 0.0063231923 0.04753478 -0.04879618
-0.05376717 -0.05142483 0.0074218395 0.05372377 0.049514446 0.0428558 -0.14535217 -0.04834175
0.10885999 -0.06533858 -0.10973155 -0.10799615 -0.020048438 0.10177218 0.010856533 0.05137314
0.001674557 -0.12911195 -0.088313244 -0.09326349 0.013977814 0.11033028 -0.05661775 0.04338955
-0.101585865 0.09707496 0.048844513 -0.07960723 -0.10849519 0.03237492 -0.107899845 -0.11497026
-0.1224109 0.03372474 0.025242684 -0.007152696 -0.0018672734 -0.0074192253 -0.05843006 -0.09609289
0.06372281 -0.07441307 0.04995492 -0.018824575 0.07970212 0.11663188 -0.07393989 0.08855173
0.014915974 -0.06852929 0.114993945 0.12549785 -0.037958294 0.065645926 0.07094627 -0.07852792
0.072449744 -0.048653845 -0.11665114 0.0043734647 -0.109858446 -0.02456272 0.025431842 0.071740784
-0.13454479 0.055904884 -0.09051472 0.049947504 -0.06851054 -0.0073887995 -0.019767959 0.013824322
-0.061758664 0.036236648 0.067168504 -0.12098128 0.027741173 -0.082385026 0.029174022 0.022114035
0.08615287 0.0629371 0.096071996 0.09399972 0.03835648 -0.026363462 0.016037617 0.04609227
-0.11180866 -0.072477184 0.02700637 0.10206114 -0.07585157 0.08740575 0.06202923 0.11243598
-0.0074652084 0.06983955 0.040942423 -0.042801276 -0.08555711 0.040616244 -0.07096339 0.043032
-0.022322804 0.07734461 -0.052282207 -0.06650774 -0.008150906 0.11508088 -0.0075334986 0.07361996
0.09091097 -0.048583373 0.041212842 0.060122263 -0.044534665 0.025119906 -0.00091514806 -0.08877418
0.016811363 -0.006494614 -0.0940728 0.05769673 -0.047342096 0.08400827 -0.059079945 -0.07985098
-0.09284343 -0.114381306 0.10458211 -0.11480196 0.1293974 -0.117265135 -0.11631345 0.020555215
0.001923854 0.050234947 -0.032857474 -0.010742286 0.0182651 -0.114756085 0.080893286 -0.09887689
0.067928396 -0.10773049 0.052787535 0.009989653 0.09532256 -0.08073613 0.10051571 -0.10786457
0.10743025 0.063312575 -0.019929687 0.09366064 0.11936887 -0.05180344 0.1286112 -0.047434617
0.093107305 0.08198576 -0.072750054 0.039416518 -0.03120889 0.009649634 -0.041089617 -0.026009088
0.11340004 0.10999294 -0.0025226686 0.051746584 0.011897387 -0.011670811 -0.031579737 0.12236438
-0.10554665 -0.11647742 0.077249415 -0.063403055 0.042440288 -0.08121738 0.09465635 0.092625014
0.05872984 -0.11019311 -0.035408217 0.0015808842 -0.102074675 0.0075291973 0.097196646 -0.0054071797
-0.026544333 -0.109398894 -0.07780579 -0.03663051 0.01750396 -0.07895979 -0.06534682 0.068764344
-0.09081254 -0.102413274 -0.0990957 -0.011858774 0.11495253 -0.0880919 0.112182185 0.0045793634
-0.040668946 -0.033361565 -0.03405013 0.07626769 -0.032243818 0.12563026 0.058567107 0.07024536
-0.0127545195 0.10627007 -0.09190127 0.12772968 -0.077626124 0.10149637 -0.032401618 -0.011704198
-0.08695651 -0.010374653 0.021724354 -0.043471012 -0.12214648 0.008836623 0.105698004 -0.0021906523
0.12783659 -0.017260391 -0.09442527 0.033102613 0.0037907355 0.03913174 0.116236396 0.006317996
-0.013580223 0.06542934 0.04082068 0.013674787 0.049652584 -0.028250664 0.07311839 0.025116155

fc1.2.bias f4 [128]
00000000: 7bf6 1c3d 9502 e5bd 6a02 a6bd ddfe 493d
00000010: ab72 e13d 71bf bb3c e749 24bd 3e9e 82bd
00000020: 063f 0a3e 61a8 e23d e304 8d3d c184 0cbd
00000030: 39a1 7dbb c1e3 003d 7416 2abd 505a ba3c
00000040: 2ca9 d53d 8b13 0e3d 18d9 723d 8e48 fabc
00000050: 8677 89bc 68ca ae3d 4044 c23c d618 ab3d
00000060: 2905 ac3d 478e 743d 779e 353d 9baf 38bc
00000070: 7314 b83d 6684 f1bc 079e 88bd 4646 debd
00000080: c6af 123c f42d 97bd b58d 9abc c6f1 dbbc
00000090: adcd 99ba e8ae acbd f2e9 f2bd 09fb c33d
000000a0: d747 0b3e 2c42 c6bd 83be 55bd 9452 993d
000000b0: 1463 32ba d8fc 643c 0e2a e8bd 7404 913d
000000c0: 209e 8dbd 66b5 0f3d 6b31 af3c 0d1e 01bc
000000d0: 5149 4fbb ef9a ccbd 4f9a ec3d fcc5 a2bd
000000e0: 17e5 c4bd af6d ecbd 57ed 08bd bbeb 1bbd
000000f0: efeb c93d 2c03 94bd a52d d63d 4769 a33c
00000100: d28c de3d 34d4 f33d e961 d4bc 341a 183d
00000110: f8e2 cabd c47e cb3a b84f d9bc 940e ec3d
00000120: b975 ebbd a67f ab3d fd66 b23d 4033 9f3d
00000130: de39 abbd a382 9b3d 1384 a73d bf4d f13c
00000140: fc68 14bd d196 eabc af22 34bd ae89 1abd
00000150: a033 6d3c 3494 e2bc e0bc c13d 7f6c acbd
00000160: a1f4 c43d cc31 e5bd 7a0f 693d 279c cbbd
00000170: de8f dcbd 7907 55bd d650 b03d 57ea 8fbc
00000180: 8f94 2dbc ed02 eb3c 279b d2bd b663 26bd
00000190: d13e 99bd 23d6 a2bd 593a 643d 2443 19bd
000001a0: ecd0 a03c 0388 a43d 4bd4 8abd f0c1 9ebd
000001b0: 5c17 fb3d 7374 943d 9044 9fbc 4815 1abd
000001c0: 46f2 c3bc ff91 27bd 427c e93d a280 c6bd
000001d0: 48c7 df3c 559e 4cbc 806a ccbd 82f6 d53d
000001e0: ef2a 24bd dc13 e63d 240e 1ebd fdc4 de3c
000001f0: c67d 993c dff3 cdbb a272 e63d 4beb a7bd
0.038321 -0.11182133 -0.08105929 0.049315322 0.11008199 0.022918435 -0.04010954 -0.063778386
0.13500604 0.11067272 0.06885698 -0.03430629 -0.0038700833 0.031467203 -0.04152532 0.022748142
0.104326576 0.034686606 0.059289068 -0.030552175 -0.016780626 0.085347 0.023714185 0.083543465
0.08399422 0.059706 0.044340577 -0.011272336 0.089882754 -0.029482078 -0.06670766 -0.10853247
0.0089530405 -0.07381812 -0.0188664 -0.026848685 -0.001173427 -0.08431798 -0.11861028 0.095693655
0.13601623 -0.0968059 -0.05218364 0.07486454 -0.0006804925 0.013976298 -0.11336146 0.070809275
-0.069149256 0.035085104 0.021385869 -0.0078807 -0.0031629393 -0.09990489 0.115528695 -0.07947919
-0.09614008 -0.11544358 -0.03342947 -0.038066607 0.09859454 -0.072271675 0.10457925 0.019947661
0.10866703 0.11905709 -0.025925593 0.037134364 -0.09906572 0.001552545 -0.02652727 0.11526218
-0.11497063 0.083739564 0.0871105 0.07773447 -0.08360647 0.07593276 0.08179488 0.029456018
-0.036232933 -0.028636368 -0.04397839 -0.037728958 0.01447764 -0.02765856 0.09459853 -0.084191315
0.09616972 -0.111911386 0.056899525 -0.09941893 -0.10769628 -0.05200908 0.08609168 -0.017567797
-0.010594501 0.028687919 -0.10283499 -0.040622436 -0.074826844 -0.079509996 0.055719707 -0.037417546
0.019630872 0.08033755 -0.06778773 -0.077518344 0.12260315 0.072487734 -0.019441873 -0.03761795
-0.023919236 -0.040910717 0.114006534 -0.096925035 0.027316704 -0.012488921 -0.09981251 0.10447408
-0.040080007 0.112342566 -0.038587704 0.02719354 0.018736731 -0.006285175 0.11252333 -0.081991754

fc1.4.weight f4 [256, 128]
00000000: 27f7 a7bd 4234 a7bd 38f4 24bc eacb 9c3d
00000010: 2c9a 623d 321a 2c3d dc7c 663d 66de b23d
00000020: 2980 2b3d 5e7c 833d 6896 4bbd 062e d13b
00000030: 8530 7cbd 8b07 a03d e493 97bd 6624 f7bc
00000040: 3b2d 353d 3431 e23c 4965 a63d c60a 4abd
00000050: e039 82bd 760b 52bd 68e1 c33c a1ba 9ebc
00000060: 984d 943d d980 143d 6629 40bd 8aa5 baba
00000070: 1783 76bd 6085 4fbd 570b 173c 39f1 bfbc
00000080: dbec e93c a0bd ab3d 32ca c3bc 9e83 ca3c
00000090: 2cc9 7d3d 76b3 433d 913f 2cbd 0df3 04bd
000000a0: c4d3 18bc d483 2e3d 2f7e fcbc 9189 2c3d
000000b0: a6e4 7b3d 00e1 c13c e23a 353d 89d2 bc3d
000000c0: 5362 bd3d 5b17 303d cf13 4c3d 493c 853d
000000d0: 3750 463c ec46 fa3c 4a0c 9f3d e16f 383d
000000e0: 44ff 983d f93d 85bd fed0 92bd 01dc 583d
000000f0: f1cb 85bd 53e5 f0bc 86b7 703c 411a ab3c
00000100: 8750 7b3c 4852 63bd c9d7 8f3d 4b05 96bd
00000110: 006d 37bb 0573 aa3c 82e0 753d 2054 c53b
00000120: 781e 90bc 918e 1dbd f8a3 563d e97f 173d
00000130: 2b0b 2ebd 23a6 493c f181 44bd 0e78 2cbc
00000140: 28aa 1abc 31cf 653b 5ecf 4ebc accb 323c
00000150: a5a5 943d 445c b33d f29f 0d3d bea3 383d
00000160: 4051 93bd 6bfa afbd c787 723d 69dc bbba
00000170: b3f8 5ebd c2fc 9a3c 466a 4fbd 89c6 033d
00000180: 6269 c7bc 953d 19bd a370 bf3d e03c 8b3d
00000190: 14e3 63bb b147 853d 17c4 98bc a056 9b3c
000001a0: 68bb 65bc 033e 85bb c74c 983d 5c28 b0bc
000001b0: 9553 a6bd f24a 8cbd ac6b a23d d722 0abc
000001c0: 672e 993d 0112 16bd 77a2 a73d dbee 013d
000001d0: c502 223c 3256 693c 3003 b83b 7664 a93c
000001e0: 57e3 963c b770 73bd eb40 a3bd bb04 293c
000001f0: ccd2 a9bd fd6a 06bd 61af a8bc 7a93 83bd
00000200: 6d5d 963d 50d0 a3bb 489f 21bd a68f 10bd
00000210: 20b0 2b3b 4085 583c 7399 893d c606 233d
00000220: 983f 90bd 2cb0 8d3c 6f03 42bd 3843 08bc
00000230: 6af5 56bd b675 b4bd 4d52 2abd 5a12 753d
00000240: 58ae a8bd 0754 b0bd 8ee3 4ebd ce4d 8fbd
00000250: 1340 913d c05d 483b bf96 b1bd 0873 0cbd
00000260: 2a00 70bd 621b b0bd 353e 88bd e0e0 663c
00000270: 50ae 063d 9bbf 81bd 2216 443d 3674 363d
00000280: c35c 53bd e3f6 4dbd 7dd8 873d e3de 62bd
00000290: 58c1 8dbc a8f9 143d 8452 b43c 7e8c 2e3d
000002a0: 3418 c13c 2e14 88bd f080 873c cde0 01bd
000002b0: a368 a53d acd5 aebd 5b74 913d e862 94bc
000002c0: 500c 923c 8af8 283d 119f 9a3d 487e e43c
000002d0: b83a 2e3c dc93 16bd 270c 833d e0a8 dc3b
000002e0: a0e5 15bd b9f6 8d3d 4892 98bd b00a a1bb
000002f0: b377 9ebd 4005 d0bc d83b 5cbd 50cc a63b
00000300: fbd7 5abd 90b1 17bc 82af a5bd 4654 2a3d
00000310: 1692 2f3d 178a b33d 3e12 1d3d c264 603d
00000320: 7018 f5bc 3be4 61bd fff1 b3bd db37 953d
00000330: ed18 a2bd 50cc 96bc 2930 a0bd 1869 a5bd
00000340: aebf 79bd 1cb4 25bd 584b cabc cfc3 8cbd
00000350: 5db3 7cbd 50ab b8bb 1f72 a23d b802 1fbc
00000360: f01b 80bd 0be2 a13d 70d1 b9bc 84b3 6ebd
00000370: a7ca 9dbd 8a50 8dbd 4cc9 9abc b718 07bd
00000380: a04b 86bb e800 ab3c 7d76 a0bd 783f 673c
00000390: d897 f6bc 662d e1bc 1741 7ebd 6a4f 783d
000003a0: 9e6a 90bd fe83 463d e7d9 a13d e8d4 94bd
000003b0: 3e6e 1a3d baf8 703d 200d bebc 6077 67bc
000003c0: 56c9 383d 3ea3 193d 7a22 633d 45a3 36bd
000003d0: 4884 7f3c ef51 953d 6be2 5dbd ce31 413d
000003e0: 2e5e 4b3d 6185 0bbd a894 66bc 1882 763c
000003f0: 83ee 55bd 56d0 133d b8a8 85bd 1aa8 6d3d
-0.082014374 -0.08164264 -0.010067992 0.07656081 0.05532281 0.04201717 0.05627142 0.087338254
0.04187027 0.064202055 -0.049703985 0.0063836602 -0.06156971 0.07813939 -0.07401255 -0.030168723
0.04423259 0.027611353 0.08124787 -0.04932668 -0.06358695 -0.05128046 0.023911193 -0.019376101
0.07241362 0.03625569 -0.04691448 -0.0014240008 -0.06018361 -0.050664306 0.009219012 -0.023430454
0.028555324 0.083857775 -0.023900125 0.024720963 0.06195943 0.04777857 -0.04205281 -0.032458354
-0.009327833 0.04260619 -0.030821888 0.04212338 0.061497353 0.023666859 0.04424561 0.09219844
0.092472695 0.042991024 0.04982358 0.06505639 0.012104086 0.030551396 0.07766016 0.04502857
0.07470563 -0.06505961 -0.07168768 0.052944187 -0.06533039 -0.029406225 0.014692193 0.020886542
0.015339023 -0.05549839 0.070235796 -0.07325228 -0.0027988553 0.020806799 0.06002856 0.0060219914
-0.017592654 -0.03846604 0.052402467 0.03698722 -0.04249112 0.0123076765 -0.047975484 -0.01052667
-0.0094399825 0.0035066123 -0.012622682 0.010912817 0.07258157 0.08757833 0.034576364 0.04507803
-0.071932316 -0.08592685 0.05921152 -0.0014332655 -0.054436397 0.018919352 -0.05063846 0.03217176
-0.024342243 -0.037412245 0.093476556 0.0679872 -0.00347728 0.06507815 -0.01864819 0.018962204
-0.014021732 -0.0040662303 0.07436519 -0.02150362 -0.08121411 -0.06850232 0.07930693 -0.008431158
0.07479554 -0.036638264 0.081852846 0.03172193 0.009888356 0.014241742 0.0056156144 0.020677786
0.018418951 -0.059433665 -0.079713665 0.010316069 -0.082921594 -0.032816876 -0.02059144 -0.06424613
0.07342038 -0.004999198 -0.039458543 -0.035293244 0.0026197508 0.013215363 0.06718721 0.03980138
-0.070433795 0.01729592 -0.047366556 -0.008316807 -0.05248014 -0.08811514 -0.041582394 0.059831955
-0.082363784 -0.08609777 -0.05050998 -0.06997262 0.07092299 0.0030573457 -0.08671331 -0.03428939
-0.058593906 -0.08598973 -0.0665249 0.0140917 0.03288108 -0.06335374 0.04787267 0.04454442
-0.051602136 -0.050284278 0.06633089 -0.055388343 -0.017304108 0.036370903 0.022012003 0.042614453
0.023571111 -0.06644474 0.016540974 -0.031708527 0.080765985 -0.085368484 0.07102271 -0.018113568
0.017828137 0.04125265 0.07549871 0.027892247 0.010634117 -0.036762103 0.06398802 0.0067339987
-0.03659594 0.06931824 -0.07449776 -0.004914604 -0.077376746 -0.025393128 -0.05376801 0.005090274
-0.05342863 -0.009258643 -0.08090116 0.041584276 0.042863928 0.08766573 0.038347475 0.05478359
-0.02991888 -0.0551493 -0.087863915 0.07286044 -0.079149105 -0.01840797 -0.07821686 -0.08076686
-0.060973816 -0.04045497 -0.02469413 -0.06873285 -0.06169449 -0.0056356564 0.07931923 -0.009705238
-0.06255329 0.079044424 -0.022682875 -0.05827667 -0.077046685 -0.06900127 -0.018894814 -0.032982554
-0.0040983707 0.020874456 -0.078351 0.014114253 -0.030101702 -0.027487468 -0.062073793 0.06062261
-0.070515856 0.04846572 0.0790289 -0.07267171 0.03770279 0.058830954 -0.023199618 -0.014127582
0.045113884 0.037509196 0.0554528 -0.0445893 0.015595503 0.07291018 -0.054171007 0.047166638
0.049650364 -0.034062747 -0.014073528 0.015045665 -0.052229416 0.036087357 -0.06526321 0.058021642

fc1.4.bias f4 [256]
00000000: fcdf 5fbd d062 fdbb c9d4 db3a 7d6c ae3d
00000010: 40ae 0bbd 1f3a bebc 2665 863b 8f3c 273d
00000020: b94c 77bc fd5e 08bc 48d7 67bd 6486 753d
00000030: de14 fd3c 6a68 573c 08a5 bf3d 142f 003d
00000040: cad5 003d ef80 4fbb 2920 1a3b 6872 983d
00000050: 82f5 9fbd 666f bd3d 7276 863c de64 81bc
00000060: 7ac5 20bc b77c 5e3d b3e4 973d 10eb 4e3d
00000070: c2ce 87bc ec8d c13c 7e05 26ba a2b4 46bc
00000080: c0f1 463d 787f 173d d745 93bd b8cc 863c
00000090: cc6c b5bd 865f a73c 2ea6 b2bc 66c8 7e3d
000000a0: 85c3 6a3d 1dbc 02bc 212b 60bd a5d4 c3bc
000000b0: ad86 b5bd ceb7 d23d e01c a6bc 06b5 0b3d
000000c0: ecf9 653c a0fe 8fbd ef66 5dbd 49bd 213d
000000d0: 916a 873d 146d 89bd 6583 70bd 6a3f 4a3d
000000e0: 9951 c23b e3db 4ebb 1e65 d0bc c095 863c
000000f0: 6a52 ad3c fdee 34bc 2447 83bd 76be 953d
00000100: 77a7 77bd 02e1 913b 95c4 943d 60ea 593d
00000110: 3085 733d 59b4 903d b19f 873c 6de1 59bd
00000120: 6dff 8ebd 1a2f 15bd 0a99 3a3d 284d 963d
00000130: 37b1 16bd ef6c 4a3d 6f2d 82bd f40d 8f3d
00000140: b821 2a3d 6e2f 033c e8b8 5f37 6376 993d
00000150: e435 1fbd 9f1e 3d3c f362 9e3c dc8e 223b
00000160: 1bd3 95bd bbb3 7d3d 302d 003d 148f 33bd
00000170: c6df a9bd ba96 ba3c a30d 173d 2e1d a23d
00000180: 9dce 9bbd 6975 933c b1a8 5bbd cb69 c93c
00000190: 734d 73bd c3e4 713d 5534 6dbc 6f83 653d
000001a0: 260b 7b3d fe50 1bbd ac57 4d3c 12d1 a93d
000001b0: c0f8 1ebd d4c3 023d 5936 103c 0c43 bd3d
000001c0: 12a4 783d 223f 77bd 49d8 95bc cd51 39bd
000001d0: efbd 06bd 5016 45bd 2578 e43c fdf0 3fbc
000001e0: b58f 8ebd aa30 033d b682 903d d78a 7b3c
000001f0: c2c0 753d 70fa 8ebd 51ec b53d f0bb 51bc
00000200: 31a4 bb3b 7889 2e3c 284b 95bd f26a 163c
00000210: 3793 98bd 6832 5fbb 82d0 1ebc 9e80 d0bd
00000220: d667 933d 694d ad3c 520b aa3d 9b9a a2bd
00000230: 5991 9fbd 31b7 c53d 55f1 2b3d 9600 7e3d
00000240: 5b37 90bd c338 75bd bb46 8b3a fcf7 0c3d
00000250: 4e28 8fbd 7111 6ebd c8d7 b13d 6888 b6bc
00000260: 7823 c8bb 5a20 ae3c b635 253d fde7 15bd
00000270: 0fc8 143c 114b aa3d 7948 7d3d 3ac5 65bd
00000280: 9423 3f3d 0a1f 96bd 25d4 c4bc b57b 84bd
00000290: 7275 4c3d 5faa 1a3d f105 b63d d86a 50bd
000002a0: 4d09 8a3d d3c4 333d 253c 23bc 8988 8fbc
000002b0: e764 673d aee4 6b3d 0cd9 ab3d abef cc3c
000002c0: 2d9c 95bd 56bf 06bd 3c64 003d 1580 51bd
000002d0: f4b7 0c3d 5969 323d c6e5 a23d 1a8d e13b
000002e0: c6ed 173c 7e1c 46bd ea70 ae3d a209 2a3d
000002f0: 553d 9d3d 5eb9 8f3d 9484 2abd 0ba7 a93d
00000300: 2fd6 443d 3c01 b53d 57b4 973c 4750 e7bc
00000310: 7f5b 19bd 8a3a 393d 53c6 28bd 1a9d 953d
00000320: 0c12 103b 44b9 8fbd 7b84 9bbd 868e aabc
00000330: 355d d5bc 5afe de3c df93 bc3d 9153 89bd
00000340: 55ea 8bbd 41ab 92bd 4ab9 58bb f221 a43d
00000350: f726 2bbd 9fe7 b23d 0b24 93bc e2ff 76bd
00000360: 208e ff3c e714 37bd f7a2 fd3c b3be 2fbd
00000370: d44d 7a3c c6aa 46bd b5be 1dbd 19db 4cbd
00000380: a0be 9fbd abed 653d ca52 3f3d caad a43d
00000390: c352 a63d f00b af3b 8c94 6cbb c8f2 823c
000003a0: 68ff b23d 12bb bcbc ce35 99bd aa72 113d
000003b0: 4c86 3ebd b473 bebc 1c42 06bc cf28 4b3d
000003c0: 10c9 2f3c 4bd7 8f3c dd2f 61bd b03d df3c
000003d0: 7237 97bd 8bbc ae3d 17f1 073b 0a8b 083d
000003e0: df4f 0d3d b821 1ebd 2cf3 20bd f493 0bbd
000003f0: 364a 39bd 96ca 3a3d 71e3 b9bc 082a 76bd
-0.054656968 -0.0077327266 0.0016771789 0.08516786 -0.034101725 -0.023221074 0.0041014133 0.040829238
-0.015093976 -0.008323428 -0.056601793 0.059942618 0.03089374 0.013147453 0.09357649 0.031294897
0.031453885 -0.0031662544 0.0023517704 0.07443696 -0.07810499 0.09249763 0.016413901 -0.015795168
-0.009812707 0.054318156 0.07416668 0.05051714 -0.016578082 0.023627244 -0.0006333216 -0.012128027
0.048570395 0.036986798 -0.07191055 0.01645504 -0.08858642 0.020431291 -0.021807756 0.062202834
0.05731537 -0.00797942 -0.05472863 -0.023905108 -0.08863578 0.10288964 -0.02027744 0.034108184
0.014036637 -0.07030988 -0.054053243 0.039487157 0.06612123 -0.06710258 -0.058719058 0.049376883
0.0059301374 -0.0031564168 -0.025438841 0.016428828 0.021157462 -0.011043307 -0.06410053 0.07311718
-0.06046244 0.004451872 0.072640575 0.053202033 0.05945319 0.070656486 0.016555639 -0.0531935
-0.06982312 -0.036421873 0.045556106 0.07338935 -0.0367901 0.049420293 -0.06356322 0.06985083
0.041536063 0.008006914 1.3334888e-05 0.074932836 -0.038869753 0.011542945 0.019334292 0.002480439
-0.07315656 0.061938982 0.031293094 -0.04383762 -0.082946345 0.02277695 0.03687824 0.07915722
-0.07607768 0.018000321 -0.053627674 0.024586579 -0.059400033 0.059056055 -0.014477809 0.056033548
0.06128993 -0.037919037 0.01253311 0.0829183 -0.038811445 0.031925038 0.00880202 0.09241304
0.060703345 -0.060362943 -0.01829161 -0.045244027 -0.03289598 -0.048116982 0.02788932 -0.011715171
-0.06961004 0.03202883 0.07056181 0.015352926 0.05999828 -0.06981361 0.088829644 -0.012801155
0.0057263603 0.010652892 -0.072897255 0.009180771 -0.07449954 -0.0034057144 -0.009693267 -0.10180782
0.071975395 0.021155076 0.083029404 -0.07939645 -0.07791395 0.096540816 0.0419782 0.062012278
-0.07041808 -0.059868585 0.0010625938 0.034416184 -0.069901094 -0.058122102 0.08683735 -0.02228184
-0.006107744 0.02125566 0.040334426 -0.036598194 0.009080901 0.08315099 0.061836693 -0.056096293
0.04666479 -0.07330139 -0.02402694 -0.06468908 0.049916692 0.037760135 0.08887852 -0.050883144
0.06740055 0.043888878 -0.00996307 -0.01752116 0.056492712 0.057591133 0.08391008 0.025016626
-0.07305179 -0.032897316 0.03134559 -0.05114754 0.03435512 0.0435575 0.07953982 0.0068832757
0.009272998 -0.048367016 0.085176304 0.041513093 0.07677714 0.07017778 -0.041630343 0.08283814
0.048055824 0.08838126 0.01851861 -0.028236521 -0.037440773 0.045221843 -0.04120476 0.07305355
0.0021983413 -0.070177585 -0.07593628 -0.020819914 -0.026045421 0.027220894 0.09207892 -0.06705392
-0.06831805 -0.0716157 -0.0033069425 0.08014287 -0.041785207 0.087355845 -0.017961523 -0.060302623
0.0311957 -0.04469767 0.030961497 -0.042906474 0.015277345 -0.048502706 -0.03851195 -0.050013635
-0.07800031 0.05613486 0.046709813 0.0804096 0.08121254 0.005341999 -0.0036099283 0.015984908
0.08740121 -0.02303842 -0.074809656 0.035509743 -0.046514794 -0.02324853 -0.008194473 0.049599465
0.010729089 0.017558714 -0.054977287 0.027251095 -0.07383622 0.085320555 0.0020743066 0.033335723
0.0345 -0.038606375 -0.039294407 -0.034076646 -0.04523679 0.045603357 -0.02269146 -0.060098678

fc_mu.weight f4 [1, 256]
00000000: 50ef 90bc 60bd f8bc 8b84 133d e3cd 6a3d
00000010: 3103 58bd e91a a03c 38af e43c dd66 6d3d
00000020: 50b4 ea3c 40a3 203d 9898 663d 2323 3ebd
00000030: 371c 8dbb 6b5c 45bd 9464 5ebd c088 4cbd
00000040: 738a 833c 6d7e 37bc 9a10 dabc e2a1 bbbc
00000050: 4823 3a3c f729 14bc 5e21 c53c 0b04 573d
00000060: 20f4 633d b3b6 58bd 1cbb 9abc 9126 1ebd
00000070: 0e4f 3bbd fed4 aebc 2cef c6bb b707 723d
00000080: 1249 72bd 4b06 9a3c d6b5 4f3d 2c96 7a3d
00000090: 70ab 273d 4981 95bc 79ac 7ebc 0955 08bd
000000a0: f3ab 09bd 7065 07bd 2580 943b 26e8 d13c
000000b0: 0bcb 473d 68b0 0a3d d09e f2bb 6125 673d
000000c0: 5f10 77bd 7a46 273d eac2 0ebd 81b8 ebbb
000000d0: 2d5f 7c3d 7126 9bbc 5722 3ebd 8a80 24bd
000000e0: 95d7 85bd 6576 463d 62ce 1abd 79d0 e83c
000000f0: f326 c03c e94a 603c c2f4 a2bc a12e f3bc
00000100: 5b36 293d 44f4 8bbb b22f 563d 2722 923d
00000110: dabe 3d3d f606 e8bc a7fe 223d d3a2 94bc
00000120: 044c f43b 9235 7c3c 0fd1 90bc 0cc8 1abd
00000130: 8323 38bb 685b 9ebc 7ebd 2d3d 0898 ac3c
00000140: 4d67 3f3d 59e5 ec3c 8f86 9dbc 7caf cf3c
00000150: e70b 6cbc 8654 84bd 3cec 293d 3322 66bd
00000160: d650 a83c 02e8 1b3d 5b35 43bd 7295 593d
00000170: d1ab 94bd 50c7 1fbd 3d38 4cbd 6b9b fc3c
00000180: 815a 36bc fc6b 503d ce97 b1ba 33ab 373d
00000190: da51 babb d951 a53d 048b 6bbd 3efa 7fbd
000001a0: c115 153d ff3a 503c ec80 b83c 70a2 8dbd
000001b0: e82e 14bd c07e f3bc b9b5 ab3b f689 a43c
000001c0: 367f 603c 8a67 1ebd 1f23 37bd c50b 6e3d
000001d0: 41c1 113c d0a6 983c 0c5a f4bc 822b 8ebd
000001e0: bfaa 983c 0297 0d3d 31a6 a039 5df4 e03b
000001f0: 2785 91bd 20af c23c 23be e63c da13 503d
00000200: d040 e539 5113 183d 0224 433d d0a3 653d
00000210: d4cb d5bc c0f6 673c 96f8 95bc 29aa b4bb
00000220: 61a5 8f3a 6902 863d d61c 85bd 44c6 e23c
00000230: be3d e03b c565 16bd 9c0c 7d3c 59c6 90bc
00000240: a71d 75bd c9e3 2fbc df11 0cbc 0422 323d
00000250: ded5 823c d919 29bd 00a8 22bd 86cf 3d3d
00000260: 5721 0f3d 998b 67bd 20d5 933d 45cd 8a3c
00000270: ab06 a0b9 0605 8abc 948e 583d ccb4 043d
00000280: b7e2 66bc f37f 773d e928 b03a 3659 31bd
00000290: 65a9 d73c 42b7 b03c 58fc a13c 066c 113d
000002a0: a276 2cbc 91df a03c aaa0 3f3d 2b10 353d
000002b0: 1358 303d 254b 3dbd b980 2c3c 1941 123d
000002c0: 93e7 2e3d 0643 85bc 76f2 71bd 4e8f 1dbd
000002d0: 64fd fbbc 4d57 9cbd c686 93bc 04bf 2f3d
000002e0: 6cda d2bc 1ef0 693d ee94 6a3d 3c29 6c3d
000002f0: d6cf 643d 2a3e d23c 36f9 f1bc 05a7 5bbc
00000300: d980 583d 8e9c 3bbd e0fb 2abd 862b 6bbd
00000310: 5163 6e3d 9894 033d f1b4 513d caed 1f3d
00000320: 8fcc 04bc 8d50 9f3a bc70 0b3d be20 133d
00000330: a704 3fbd 755c 8dbd 0292 02bd e65c 2abd
00000340: 0c07 54bd e24d 7ebd 4f55 b83c 4e32 9c3c
00000350: 336b 0cbd 9e59 47bd 0008 983c e2e7 e1bc
00000360: 5678 f63a 7e75 ce39 0ff4 cfbc ea8d 4e3d
00000370: f45f 74bd 0a96 37bd 1d67 033d aeef 1b3c
00000380: 5e0c 35bd 8b03 a1bd df24 943d 904f 52bd
00000390: 6814 ab3d f05b e7bc 722e 013d 100b 2ebd
000003a0: 52bd 863c 2e98 e63c 8a5e 19bd 43cd 13b9
000003b0: a9b3 cfbb a827 a13c c895 74bd 9d03 613d
000003c0: 74be debc e3b4 fb3c 80cb ddbc d729 f7bc
000003d0: 2fe5 e3bc 13c6 f5bc 5c4d 74bd 4674 1e3d
000003e0: 837f 60bd 6fa2 a63b be1a 403d 80b9 75bd
000003f0: 08b6 5a3d b0bd 11bc 6271 45bd 7b2e 3b3c
-0.017692238 -0.030363739 0.036015075 0.057325255 -0.05273742 0.019544082 0.027915582 0.057959426
0.028650433 0.039218187 0.05629787 -0.046420228 -0.004306342 -0.04818384 -0.054295138 -0.049935102
0.016057229 -0.011199576 -0.026619244 -0.02290434 0.011360951 -0.009043208 0.024063762 0.05249409
0.055652738 -0.05290861 -0.018888049 -0.038611 -0.04572969 -0.021341797 -0.006070992 0.05908939
-0.059151717 0.018801829 0.05071052 0.06117837 0.04093498 -0.018250125 -0.01554405 -0.03328422
-0.03361125 -0.033055723 0.0045318776 0.025623392 0.04877762 0.03385964 -0.007404186 0.05643213
-0.060318347 0.040838696 -0.034853853 -0.0071936254 0.061614204 -0.018939229 -0.046419468 -0.040161647
-0.0653526 0.048452754 -0.03779448 0.02841972 0.023456072 0.013689735 -0.0198921 -0.02968532
0.041311603 -0.004271062 0.05229158 0.0713542 0.04632459 -0.028323632 0.039793637 -0.018144047
0.007455351 0.0153936315 -0.017677812 -0.037788436 -0.0028097339 -0.019330695 0.042417042 0.021068588
0.046729375 0.028917955 -0.019229202 0.025352232 -0.014407135 -0.06461434 0.041485056 -0.05618496
0.020546358 0.038063057 -0.047658306 0.053121038 -0.07259334 -0.03900844 -0.04985832 0.030835828
-0.011129976 0.050884232 -0.001354927 0.044841003 -0.005686027 0.08072252 -0.057505623 -0.06249451
0.0363977 0.012709378 0.022522412 -0.06915748 -0.036177546 -0.029723525 0.005240169 0.020085316
0.013702204 -0.03867296 -0.04471123 0.058116693 0.008896173 0.01863423 -0.029828094 -0.06941892
0.018636106 0.03456784 0.000306414 0.006865068 -0.07105475 0.023765147 0.028166836 0.050800182
0.00043726573 0.037127797 0.04764176 0.056064427 -0.02609817 0.014157951 -0.018307012 -0.0055134487
0.0010959321 0.065434285 -0.06499641 0.027682431 0.0068432977 -0.03671815 0.015444901 -0.017672705
-0.05984273 -0.010735461 -0.008549183 0.04348947 0.01597112 -0.041284416 -0.039711 0.046340488
0.034943905 -0.056529615 0.07218385 0.016943583 -0.00030522546 -0.016848098 0.052870348 0.032398984
-0.014092139 0.060424756 0.0013439927 -0.04329797 0.02632589 0.02157176 0.019773647 0.03550341
-0.010526331 0.019637855 0.04678408 0.044204872 0.043052744 -0.04621424 0.010528737 0.035706613
0.042701315 -0.01626731 -0.05906912 -0.038466744 -0.030760475 -0.07633839 -0.0180086 0.042906776
-0.025738917 0.05711376 0.057270937 0.05765651 0.05586227 0.025664408 -0.029537778 -0.01340652
0.052857254 -0.0458036 -0.041744113 -0.057414554 0.058200184 0.032124132 0.05119795 0.039045133
-0.008105411 0.0012154743 0.03404306 0.035919897 -0.046635296 -0.069024004 -0.031877525 -0.0415925
-0.051764533 -0.062085994 0.022501616 0.019066956 -0.03428192 -0.04866945 0.018558502 -0.02757639
0.0018804173 0.0003937892 -0.02538493 0.05042831 -0.05966182 -0.044820823 0.03208076 0.009517593
-0.044201247 -0.07862004 0.07233595 -0.051345408 0.083535016 -0.028242081 0.031538434 -0.04249102
0.016447697 0.028148737 -0.037443675 -0.00014095478 -0.006338556 0.01967223 -0.059713155 0.054935087
-0.027190425 0.030725902 -0.027074575 -0.030171318 -0.027819244 -0.030001676 -0.05964409 0.038685106
-0.054809105 0.0050852816 0.046900503 -0.05999136 0.053396255 -0.008895323 -0.048203833 0.011424656

fc_std.weight f4 [1, 256]
00000000: d859 5ebd 6631 4cbd ea96 253d a93e bf3c
00000010: 67a2 683c 5504 6c3c 33b5 96bd c0ad 473d
00000020: b4b5 5a3d 01ae 6bbd f878 70bd 6df1 b3bd
00000030: 107d 5ebd 0ac5 393d d75c 853d 1c42 763c
00000040: b9b4 20bd 0e28 2fbd 9a92 143d 1e0b 4cbd
00000050: 80b1 9c3a d809 96bd b2d1 583d 0344 04bd
00000060: d02a 20bd 665a a33c 1be7 cc3a 42b6 02bc
00000070: e0dd 90bd 6572 8fbc 9560 0c3d 008e a5bd
00000080: 3fb1 27bd 0caa b33c 1c06 543d 8013 16bd
00000090: 542f 00bc 2fa5 5a3d 6daf 593d acbc 8dbd
000000a0: 146b 00bc 27c7 64bd e7eb 09bd 4ff4 85ba
000000b0: 2761 6abd 8e9a a8bc 00e3 c2bc c1f7 283c
000000c0: 009b 753c 008b fdbb bc52 4dbd 2ebc 47bc
000000d0: 33ab abbc 47b4 61bd dd15 213c 49b4 113d
000000e0: c3f7 6dbc 92e5 47bd 80fb 41bc 7ab7 93bd
000000f0: f9c6 403c 789e 29bd d6be cbbc 1540 82bd
00000100: 8047 16bd 7916 8cbd 38f0 acbc 2d01 8c3d
00000110: 3c95 073d d081 093d f83e 65bc ecf2 acbd
00000120: 203d 20bd 75ed d93c 8e56 d93c 6252 40bd
00000130: aca6 74bd 68a7 0abd ae7b babd 3dbe a53c
00000140: 0096 843d a91f b8bc 8a71 a3bd 8498 82bd
00000150: 4a66 1e3d 00f2 1abd 11f8 65bd 653e 063a
00000160: eeab edbc e3ab 96bd 7fd5 043c ba03 bbbd
00000170: 2448 093c df2f 7c3d 6d9c 323d d37e 86bd
00000180: c903 343d 2da2 753d a9df 35bd 6ce5 b2bd
00000190: 0f55 083c 838c bf3b eb0a 6ebd f251 76bd
000001a0: 11c1 f73c f529 a4bd 2ce5 b7bd 56d3 8ebc
000001b0: c116 7a3c db8f 62bd a329 93bd 4c33 ce3c
000001c0: 70b3 5bbc 8cfb 62bd f318 69bd 0a5b 563d
000001d0: 3077 3f3d 70cf b8bc a1db 7c3c 2b00 0e3d
000001e0: 03c5 793d e376 363c 2baa 983c 70a7 833c
000001f0: f396 40bd 4404 10bd 3b8c 4dbd da5a 55bd
00000200: cccd b0bd 7548 c63a 7c71 553d 8e77 bfbb
00000210: 8281 6f3d 170c 263c 888e 4e3c bd04 113d
00000220: fa1c 53bb 9ba2 793d e4b6 27bd e64d 6c3d
00000230: fa90 3abd 0386 a4bd 02df 00bc 3510 8abd
00000240: 50cc 60bd 2b08 b6bd e977 5f3d 2646 263c
00000250: ea41 a4bd 74b2 e03c cce2 04bd 2e21 b1ba
00000260: 2bef 2b3d 14f3 25bc 0340 ac3c 0adb 88bc
00000270: 73c9 90bd d090 85bd 4247 43bd da63 663d
00000280: fa8e a23c 49f1 64bd 8d87 8ebd 83d9 08bd
00000290: 4771 1cbd b363 cabd 0ced 4dbb 5e04 b4bc
000002a0: 01a2 e03c f223 cebb cc13 82bd 3c2b dd3b
000002b0: 9368 91bd bf37 7ebd bb09 8dbb 18e1 5abd
000002c0: d5dc 86bd 6ae3 e2bb c777 923c e017 8abc
000002d0: 43ff 96bd f2d6 3b3d f184 7a3c 5001 a03c
000002e0: 2338 0dbd 0e61 17bd b708 18bd 504e a93c
000002f0: 72c6 3ebd 0bfa d53c 047e afbd 195a 863c
00000300: b7a5 933d d24e b3bc 6e6a 4a3d 9865 11bc
00000310: 6223 81bc dbdd d83c 8059 a1bd 98f9 243d
00000320: 174c 52bb 7ef5 443d 6bdd 44bd 832b 6a3d
00000330: 623d 60bd 1774 9fbd 5b8d 5cbd def0 b53c
00000340: e02c d5bd 0a4b 49bd 7b03 4dbc c8a0 4abd
00000350: 86ac edba 1825 87bd 8ba3 9ebc 7f48 93bd
00000360: 25e2 f2bc a720 c83c 39ef 96bd eed0 ea3c
00000370: ede2 7cbd 779f acbc fe56 313a f653 453b
00000380: e4f9 d5bc 0e4d 493d 2b61 e6bc 60c3 a73c
00000390: 9d50 6cbd 78e0 b8bc 5b6a 7abd 9580 1abd
000003a0: 6bcd 7b3c 6d65 ee3b b630 7cbd 29e2 5e3d
000003b0: f66c 71bd 5261 8abc cddf 9cbd a462 0a3c
000003c0: bc84 96bc 8ff1 803c 6610 0f3d 8b63 80bd
000003d0: 8d87 a73c 998a 27bd 5b63 593d 643d 54bd
000003e0: 10f1 8c3c 9d67 29bb 2382 02bd db32 2fbd
000003f0: 6e0e ec3c 0028 2fba 4037 393d c3b1 133d
-0.0542849 -0.049851798 0.040427126 0.023345308 0.014198876 0.01440533 -0.0735878 0.048749685
0.05339594 -0.05753899 -0.058709115 -0.08786283 -0.054318488 0.045353927 0.065118484 0.01503041
-0.03923485 -0.04276281 0.036272623 -0.04981529 0.0011954755 -0.07326096 0.052934356 -0.032291424
-0.03910333 0.019940566 0.001563284 -0.007978024 -0.07073569 -0.017510602 0.034271795 -0.08083725
-0.04094052 0.02193167 0.05176364 -0.03663969 -0.007823784 0.053380188 0.053145815 -0.06920752
-0.007838029 -0.05585399 -0.03367224 -0.0010219904 -0.057221558 -0.02058151 -0.023789883 0.010312975
0.014990568 -0.0077375174 -0.05012773 -0.012190862 -0.020955658 -0.055103566 0.009831873 0.035572324
-0.014524403 -0.04880292 -0.011839747 -0.0721273 0.011766189 -0.041410893 -0.024871271 -0.06359879
-0.03668928 -0.06840224 -0.021110639 0.06836162 0.033101305 0.033571064 -0.013992064 -0.08444771
-0.039120793 0.026602486 0.02653053 -0.046953566 -0.059729263 -0.033851057 -0.09105621 0.020232314
0.06473923 -0.022476034 -0.0798064 -0.06376746 0.03867177 -0.037828445 -0.056144778 0.0005120992
-0.029012647 -0.073570035 0.008107542 -0.0913157 0.008379016 0.06156909 0.04360621 -0.065671586
0.043948922 0.059969116 -0.044402752 -0.08735165 0.008321061 0.0058456077 -0.05811588 -0.060136743
0.030243428 -0.08015815 -0.08979258 -0.017434757 0.015264214 -0.055312973 -0.07185676 0.025170945
-0.01340948 -0.055415675 -0.05690856 0.052332915 0.046744525 -0.022559851 0.015433223 0.03466813
0.0609789 0.011136743 0.01863583 0.016071051 -0.047018956 -0.035160318 -0.050182562 -0.052088596
-0.08633003 0.0015127795 0.05211018 -0.0058431095 0.058473118 0.010134718 0.012607224 0.03540491
-0.0032213316 0.06094609 -0.040945902 0.057691477 -0.045548417 -0.08033373 -0.007865669 -0.067413725
-0.054882348 -0.08888277 0.054557715 0.010148561 -0.080203846 0.027428843 -0.032442853 -0.0013513917
0.041976135 -0.010128755 0.021026617 -0.016706008 -0.070696734 -0.065217614 -0.04767538 0.05624757
0.019843567 -0.05589417 -0.06959448 -0.03341056 -0.038193967 -0.09882297 -0.0031421809 -0.021974739
0.027421 -0.006290906 -0.06351432 0.0067495387 -0.07100024 -0.062064882 -0.0043041385 -0.053437322
-0.06585089 -0.0069240825 0.01787938 -0.016857088 -0.07372906 0.045859285 0.015290485 0.019531876
-0.034477364 -0.036957793 -0.037117686 0.020667225 -0.04657597 0.026120206 -0.085689574 0.016400384
0.07209342 -0.02188817 0.049417906 -0.0088743195 -0.015763942 0.026472976 -0.07878399 0.040277094
-0.003208881 0.048085682 -0.048062723 0.057170402 -0.05474604 -0.07785814 -0.053845745 0.022209581
-0.1040895 -0.04914383 -0.012513037 -0.04946974 -0.0018133081 -0.06598872 -0.019365093 -0.07191562
-0.02964885 0.024429632 -0.07369847 0.028664079 -0.06173985 -0.021072133 0.0006764977 0.003010986
-0.026120134 0.04914575 -0.028122505 0.020478904 -0.057694066 -0.022567973 -0.061136585 -0.03772028
0.0153688 0.0072752745 -0.061569892 0.054414902 -0.058941804 -0.016892109 -0.07659874 0.008446369
-0.01837384 0.015740184 0.03492775 -0.06268986 0.020450378 -0.04090366 0.05307327 -0.05181636
0.017204791 -0.0025849112 -0.03186239 -0.04277311 0.028815474 -0.00066816807 0.045218706 0.0360582
