models/PPOContinuous_critic.pth (torch, 170844 bytes, 7 tensors)

fc1.0.weight f4 [64, 3]
0	0xbd06b215	-0.032884676
1	0x3e493c0c	0.19651812
2	0x3f000d96	0.5002073
3	0xbf035896	-0.51307046
4	0xbe3083db	-0.17237799
5	0xbde4f2b5	-0.11179105
6	0xbe4f9511	-0.20271708
7	0xbe56b7cf	-0.20968555
8	0x3d1cdc13	0.038295817
9	0x3df0667b	0.117382966
10	0xbf38644f	-0.7202806
11	0xbec0deb7	-0.37669918
12	0xbe9c3bd2	-0.3051439
13	0x3f0e739e	0.5564517
14	0x3e9453b4	0.2897011
15	0xbec34994	-0.38142073
16	0x3f1d5663	0.6145994
17	0x3ee74db8	0.45176482
18	0x3e51fe4d	0.20507164
19	0x3e7dce72	0.24785784
20	0x3f081577	0.5315775
21	0xbf031d39	-0.51216465
22	0x3d7b9fd5	0.061431725
23	0x3e2f58c3	0.17123704
24	0xbe849b44	-0.25899708
25	0x3e81cbe7	0.25350878
26	0xbdf16686	-0.11787133
27	0x3f36a969	0.7135225
28	0xbe096e5a	-0.13421002
29	0xbc90c588	-0.017672315
30	0x3e0b9eed	0.13634844
31	0x3db4f712	0.088361874
32	0x3d8d398c	0.06895742
33	0xbd6ad5e1	-0.057332877
34	0xbe4cf1f8	-0.20014179
35	0x3e82ab7e	0.25521463
36	0xbf05ebc6	-0.52312887
37	0xbebd6fdd	-0.36999407
38	0xbdd84532	-0.10560073
39	0xbe2c785d	-0.1684279
40	0x3dba8bab	0.09108671
41	0x3dbf0509	0.09327132
42	0x3d9fbd03	0.07799723
43	0x3f1b239a	0.606012
44	0x3dc2ba01	0.09508134
45	0x3b01fd65	0.0019834873
46	0xbeb136bd	-0.34612074
47	0x3c5b1d2b	0.013373653
48	0xbe7cb89e	-0.24679801
49	0xbe77ba8c	-0.24192256
50	0xbdeacdba	-0.114650205
51	0x3ea07890	0.31341982
52	0x3e38cc79	0.1804675
53	0x3ed099bf	0.407423
54	0x3df550b9	0.11978287
55	0xbdcfd4af	-0.10147988
56	0xbef4c81e	-0.47808927
57	0xbee4c5ec	-0.44682252
58	0xbe6b3e6e	-0.22973034
59	0xbf0a0d7e	-0.5392684
60	0x3dafa41e	0.08576225
61	0xbeef68be	-0.467596
62	0xbdb5aaf1	-0.08870495
63	0xbed8edff	-0.42369077
64	0xbf1e7cc5	-0.61909133
65	0xbe36c962	-0.17850259
66	0xbdc7670d	-0.09736452
67	0x3f42400d	0.75878984
68	0x3e988ba8	0.2979405
69	0xbd449a81	-0.04799891
70	0xbef6417f	-0.48096845
71	0xbe845937	-0.25849316
72	0xbf41c03a	-0.7568394
73	0x3f16ef9f	0.5895938
74	0x3d09cdf6	0.033643685
75	0xbdf70d9b	-0.12063142
76	0x3e6d2662	0.23159173
77	0xbef84db3	-0.4849678
78	0xbf252c70	-0.6452093
79	0x3f46f7dc	0.77721953
80	0x3e92beb4	0.2866112
81	0xbf299a01	-0.66250616
82	0xbed20f28	-0.41027188
83	0xbdf062fa	-0.11737628
84	0x3f0de2a9	0.5542398
85	0xbce18a86	-0.027531873
86	0xbefee6ec	-0.49785554
87	0xbe84acc0	-0.25913048
88	0xbebfdf4e	-0.37475055
89	0x3f1105b5	0.56649333
90	0xbeba0f76	-0.3633992
91	0xbd85d4c0	-0.065347195
92	0xbca5d11c	-0.020241313
93	0xbe3ab379	-0.18232526
94	0xbeefe397	-0.46853325
95	0xbecb57ea	-0.3971551
96	0xbd34a125	-0.044098992
97	0x3e7fd2e1	0.24982788
98	0x3d4fbfae	0.05071991
99	0xbed3eb2e	-0.41390365
100	0x3f0a476b	0.54015225
101	0x3ec95bf7	0.39327976
102	0x3e848ff9	0.25891092
103	0x3e818768	0.2529862
104	0x3ee1f936	0.44135445
105	0xbd2cea5f	-0.0422157
106	0xbda963e6	-0.08271007
107	0xbd2f7eec	-0.04284565
108	0x3efdd876	0.4957921
109	0x3f227131	0.63453966
110	0x3e132337	0.14368902
111	0xbb51b5ff	-0.0031999347
112	0xbed85bee	-0.42257637
113	0xbd39454f	-0.045232113
114	0xbf0464d9	-0.5171638
115	0xbf2bf692	-0.6717311
116	0xbd0702cb	-0.032961648
117	0xbef74a59	-0.4829891
118	0x3ee91d63	0.45530233
119	0x3d1c5e47	0.038175847
120	0x3e9b30bf	0.30310628
121	0x3ec1bdd4	0.3784014
122	0x3d2f71e2	0.042833216
123	0x3ebb8af2	0.36629444
124	0xbf098b85	-0.53728515
125	0xbe8993f6	-0.26870698
126	0x3edc2f27	0.43004724
127	0x3f10f844	0.56628823
128	0xbafc721e	-0.0019260084
129	0x3ed12753	0.40850314
130	0x3f33548c	0.70050883
131	0x3e25d72b	0.16195361
132	0xbe041ece	-0.12902376
133	0xbf172bef	-0.5905141
134	0xbedfc9dc	-0.43708694
135	0x3e5f3ec4	0.21801287
136	0xbf1d7f18	-0.61522055
137	0x3dbba9b9	0.091632314
138	0xbefb13df	-0.49038598
139	0x3ed41657	0.41423294
140	0xbeb731bb	-0.3578013
141	0x3e6b3cdf	0.22972439
142	0x3ef06305	0.46950546
143	0xbf234ca2	-0.6378881
144	0xbf04797e	-0.5174788
145	0x3ef10a54	0.47078192
146	0xbf0d1d78	-0.5512309
147	0xbf35f0a4	-0.71070313
148	0xbedb7ef3	-0.42870292
149	0xbe2e7efc	-0.17040628
150	0x3ee84d23	0.4537135
151	0xbd777a1e	-0.060419194
152	0x3e9ce91a	0.30646592
153	0x3e8f5e6c	0.28001726
154	0xbe6c6b57	-0.23087822
155	0x3e7b1e5d	0.24523301
156	0xbf02fba0	-0.511652
157	0xbe1d6467	-0.15370332
158	0x3e8c3438	0.2738359
159	0x3e1989cf	0.14993976
160	0x3f5133e2	0.8171979
161	0x3ea4c60b	0.32182345
162	0xbe182ab1	-0.14860035
163	0x3de8821a	0.1135294
164	0xbf01b014	-0.506593
165	0xbf0014ae	-0.50031555
166	0x3f3b5df6	0.7319025
167	0x3e0a6271	0.13514115
168	0xbeb9cd74	-0.3628956
169	0xbd72602d	-0.05917375
170	0xbc7974f6	-0.01522564
171	0xbec06381	-0.37575915
172	0xbeb0ade2	-0.34507662
173	0xbd62d4da	-0.055378772
174	0xbdde0fb1	-0.10842837
175	0x3e82d0d9	0.25549963
176	0xbee06bcc	-0.43832242
177	0xbecb4e1d	-0.39708033
178	0xbf135f25	-0.57567054
179	0xbe333476	-0.17500481
180	0xbe8b30c6	-0.2718565
181	0x3e7b1480	0.24519539
182	0x3e8b83c6	0.27248973
183	0xbec6bc0e	-0.3881535
184	0x3f49d9d7	0.7884802
185	0x3e2867cb	0.16445844
186	0xbd28423a	-0.041078784
187	0x3f19b9b8	0.6004901
188	0x3ed64bb6	0.41854638
189	0xbed61800	-0.41815186
190	0x3e737dab	0.23778407
191	0xbec36479	-0.38162592

fc1.0.bias f4 [64]
0	0xbed9f13a	-0.42566854
1	0x3ef86869	0.4851716
2	0x3e57f2c5	0.21088703
3	0x3f34015b	0.7031457
4	0x3f2eb359	0.6824241
5	0x3ec32d2d	0.38120404
6	0x3f139e70	0.5766363
7	0x3f369537	0.71321434
8	0x3f49e622	0.7886678
9	0x3e81b2a2	0.253316
10	0x3f33663c	0.7007787
11	0xbea7b4ae	-0.32755035
12	0x3ed57ad4	0.41695273
13	0x3f4a6751	0.790639
14	0x3ee5d80f	0.44891402
15	0x3e9eb319	0.30996016
16	0xbd1ce6a7	-0.038305905
17	0x3eced6be	0.4039821
18	0xbe3aa99b	-0.18228762
19	0xbeeef8c6	-0.46674174
20	0x3ebd6dbb	0.3699778
21	0x3e90b3f4	0.28262293
22	0x3f1073f1	0.5642691
23	0x3e1a2fa0	0.1505723
24	0xbe880009	-0.26562527
25	0x3e7890f7	0.2427405
26	0x3e3039a0	0.17209482
27	0x3f018500	0.50593567
28	0xbf009c9f	-0.50238985
29	0x3f0201d4	0.5078404
30	0x3e9cb169	0.30604103
31	0xbed878aa	-0.4227956
32	0x3e9237fe	0.28558344
33	0xbf027032	-0.50952446
34	0xbdc7e91c	-0.09761259
35	0x3ecd9899	0.40155485
36	0xbe8cc091	-0.27490667
37	0x3dec396d	0.115343906
38	0x3d0cfeeb	0.034422796
39	0x3eef8851	0.4678369
40	0x3f49517a	0.7863995
41	0xbeb9c856	-0.36285657
42	0xbe82e472	-0.25564915
43	0x3f552d4f	0.8327226
44	0x3e415b70	0.18882537
45	0xbef39648	-0.47575593
46	0xbeb20752	-0.3477121
47	0xbf1f4838	-0.6221957
48	0x3f23ce00	0.63986206
49	0x3f19f5d3	0.60140723
50	0xbd2d9615	-0.042379458
51	0xbe8656c1	-0.26238063
52	0x3e764890	0.24051118
53	0x3dd6babe	0.10484837
54	0x3e1eb62a	0.15499178
55	0x3f0d555a	0.5520836
56	0x3e9d2c2f	0.30697772
57	0x3f310468	0.6914735
58	0xbec0f59e	-0.3768739
59	0xbe012738	-0.12612617
60	0x3ee2c818	0.44293284
61	0xbe5ad69e	-0.21370932
62	0x3eb5a0d7	0.35474274
63	0xbef93c0d	-0.48678628

fc1.2.weight f4 [128, 64]
0	0xbe009b09	-0.12559141
1	0x3e58c7fd	0.2117004
2	0x3e1c095f	0.1523795
3	0x3d3f774f	0.04674464
4	0x3d9cd955	0.0765864
5	0xbd263567	-0.040578272
6	0xbdcae749	-0.099073954
7	0x3e016b99	0.12638701
8	0x3daf7c2c	0.08568606
9	0x3e80140a	0.2501529
10	0x3de229fc	0.11043164
11	0xbe3c39dc	-0.18381447
12	0x3da020cb	0.07818755
13	0x3e3b99a4	0.18320328
14	0x3e1ee7f7	0.15518175
15	0x3c686f7f	0.014186739
16	0xbe38c16c	-0.18042535
17	0x3d1f0875	0.038826425
18	0x3d9c9e30	0.07647359
19	0xbd8a53ce	-0.06754266
20	0xbb860284	-0.0040896554
21	0x3e27472f	0.16335748
22	0x3d2916c2	0.04128147
23	0x3c6ed059	0.014576041
24	0x3e1b4e2e	0.15166542
25	0x3da22713	0.07917609
26	0x3b88310c	0.0041562375
27	0x3d789c71	0.06069607
28	0xbc8b42c5	-0.016999612
29	0x3de54a64	0.111958295
30	0x3e20adf6	0.15691361
31	0xbe371579	-0.17879285
32	0x3d83af2a	0.06429894
33	0xbe01f136	-0.12689671
34	0x3d9e9e40	0.077450275
35	0x3e3e3a37	0.18576895
36	0x3e107275	0.14106162
37	0xbddcd720	-0.10783219
38	0x3dc19c79	0.09453673
39	0x3de2db46	0.11076979
40	0x3e4f633b	0.20252697
41	0xbdc1d690	-0.09464753
42	0x3d6039b9	0.05474255
43	0xbccedfda	-0.025253225
44	0xbcdc5659	-0.026896643
45	0x3e78aa1c	0.24283642
46	0xbe01fcfc	-0.12694162
47	0x3d182ff5	0.03715511
48	0x3cde9cd1	0.027174385
49	0x3d284bb1	0.04108781
50	0x3d94097d	0.07228372
51	0xbe211819	-0.15731849
52	0xbcc81884	-0.024425752
53	0xbce1245d	-0.02748316
54	0x3d869b65	0.06572608
55	0x3e5b7d57	0.21434532
56	0x3e55e2bb	0.20887272
57	0x3e6bb94d	0.23019905
58	0xbd777c08	-0.06042102
59	0x3d8d682f	0.06904637
60	0x3dc948d6	0.098283455
61	0xbc7fa404	-0.015603069
62	0x3dfe39a4	0.12413338
63	0x3d9e4882	0.077286735
64	0xbdacb3ba	-0.084327176
65	0x3cc40b20	0.023931086
66	0x3ddeed5c	0.108851165
67	0xbc2aac50	-0.010417059
68	0xbdb74908	-0.089494765
69	0xbd18f730	-0.03734511
70	0xbdba23da	-0.090888694
71	0xbc83bc88	-0.01608111
72	0xbcce9d70	-0.025221556
73	0xbcb46ed0	-0.022025496
74	0x3d402dbc	0.046918616
75	0xbd71d80c	-0.05904393
76	0x3d936408	0.07196814
77	0xbde6a758	-0.11262387
78	0x3cc84778	0.024448141
79	0x3a878980	0.0010340661
80	0x3d6a02ec	0.057131693
81	0xbd8788e6	-0.06617908
82	0xbd9bd466	-0.07608871
83	0xbd24487c	-0.04010819
84	0xbd76ef34	-0.060286716
85	0xbdf8b4e2	-0.12143876
86	0xbd9e3978	-0.07725805
87	0xbd74389c	-0.0596243
88	0xbd04ffb8	-0.032470435
89	0x3d881d16	0.06646173
90	0x3c8d9ea0	0.017287552
91	0xbdacf62c	-0.08445391
92	0x3d9d5204	0.07681659
93	0x3d7a7780	0.06114912
94	0xbd2265d4	-0.039647892
95	0xbce812b8	-0.028329238
96	0xbda79278	-0.081822336
97	0xbdc57c8e	-0.096428975
98	0xbdd9a104	-0.106264144
99	0x3db2a57e	0.087229714
100	0x3d7b1688	0.061300784
101	0xbcf69e28	-0.030104712
102	0x3dfecb0e	0.12441073
103	0xbd007f58	-0.031371444
104	0xbd3e212c	-0.046418354
105	0x3df449b4	0.1192812
106	0xbc830b58	-0.01599662
107	0xbcb11fa8	-0.02162154
108	0x3cb1b618	0.021693274
109	0xbdf42d66	-0.119227216
110	0xbc2ed4c0	-0.010670841
111	0x3d492b7c	0.049113736
112	0xbd717f08	-0.058959037
113	0x3ccf6518	0.02531676
114	0x3d5806c0	0.052740812
115	0xbdab6eae	-0.0837072
116	0x3cac35b0	0.021021694
117	0x3bf7df00	0.0075644255
118	0xbd997fa6	-0.0749505
119	0xbd76a010	-0.06021124
120	0x3d816172	0.06317414
121	0xbd794f98	-0.060866922
122	0x3d323d00	0.043515205
123	0xbd379e38	-0.044828624
124	0xbdf6d15a	-0.120516494
125	0xb8b9b000	-8.85427e-05
126	0x3cd00f98	0.02539806
127	0x3de859d4	0.11345258
128	0x3d0e4905	0.034737606
129	0x3d6d7784	0.057975307
130	0x3de737b6	0.11289923
131	0x3dad97dc	0.084762305
132	0x3de2036c	0.11035809
133	0x3d8f8952	0.07008614
134	0xbdeb0d46	-0.11477141
135	0x3debdc48	0.11516625
136	0x3e736448	0.23768723
137	0x3e766e52	0.24065521
138	0x3d98f735	0.07469026
139	0xbe4cafc9	-0.19988932
140	0x3d9f49f7	0.077777795
141	0x3e4e2079	0.20129575
142	0x3d78a6a1	0.060705785
143	0x3b71df85	0.003690691
144	0xbe0bcd7e	-0.13652608
145	0x39ab64f8	0.0003269089
146	0xbc1b61e2	-0.009483786
147	0x3d3a8073	0.045532655
148	0x3da1eb5d	0.0790622
149	0x3d152a40	0.036417246
150	0xbd662f37	-0.05619737
151	0xbd249f61	-0.040191058
152	0x3d94d1ad	0.07266555
153	0xbd85963d	-0.06522796
154	0x3d612abb	0.05497239
155	0xbc070244	-0.008240286
156	0xbde0aa84	-0.10970023
157	0x3d879339	0.06619877
158	0x3e0ceb88	0.13761723
159	0xbda4f9d0	-0.080554605
160	0x3e703530	0.2345779
161	0xbd541f06	-0.0517874
162	0x3da0dbef	0.07854449
163	0x3e2557fb	0.16146843
164	0x3e4fc1dc	0.20288795
165	0xbd2afa22	-0.04174245
166	0xbb98a8e4	-0.004658805
167	0x3dcebac8	0.100942194
168	0x3ea2e8f5	0.31818357
169	0xbd18a221	-0.037263993
170	0x3cdbebc3	0.026845818
171	0xbda1a9a3	-0.07893684
172	0x3d755dd0	0.05990392
173	0x3e0459c4	0.12924868
174	0x3da946f5	0.08265487
175	0xbe31a362	-0.17347482
176	0x3dcf4746	0.10121016
177	0x3e3307b3	0.17483406
178	0x3d2c3684	0.042044178
179	0xbcd8cd1b	-0.02646499
180	0xbd590284	-0.052980915
181	0xbc89427a	-0.016755331
182	0x3d901300	0.07034874
183	0x3e13af30	0.14422297
184	0x3e431854	0.19052249
185	0x3e290958	0.1650747
186	0xbdba13e9	-0.09085829
187	0xbdbf247e	-0.09333132
188	0xba172108	-0.0005765115
189	0x3d782062	0.060577758
190	0x3d95238a	0.07282169
191	0x3cc593a8	0.02411826
192	0x3d879499	0.0662014
193	0x3e13b0af	0.14422868
194	0x3c86aaba	0.01643883
195	0x3e1b1dc4	0.15148073
196	0xbd10b698	-0.035330385
197	0x3c73caa6	0.014879858
198	0x3d289d57	0.041165676
199	0x3dd0ca8b	0.10194882
200	0x3db8fc95	0.09032551
201	0x3e8a0c49	0.26962498
202	0x3e3ea57c	0.18617815
203	0xbde220b1	-0.11041392
204	0xbcccc422	-0.024995867
205	0x3e6df60c	0.2323839
206	0x3e6d5cad	0.23179884
207	0x3d04c5f0	0.03241533
208	0x3c4b908b	0.012424598
209	0xbdbfdbba	-0.093680814
210	0x3d552a21	0.05204213
211	0xbd87af7d	-0.066252686
212	0x3d8849cd	0.066547014
213	0xbd675821	-0.05648053
214	0xbcf86f33	-0.030326461
215	0x3e198d87	0.14995395
216	0x3d642e44	0.055708185
217	0x3da93a60	0.08263087
218	0xbc6ff3d7	-0.014645538
219	0x3d4b0174	0.049561933
220	0xbe39cc3f	-0.1814432
221	0xbc07cc80	-0.008288503
222	0x3c818bca	0.015813727
223	0xbd0d99da	-0.034570552
224	0x3db4b096	0.088227436
225	0xbd8f0413	-0.06983199
226	0xbc745a5a	-0.01491412
227	0x3de2835e	0.110602126
228	0x3dd7a2df	0.10529112
229	0x3dc17311	0.09445775
230	0xbcbbf033	-0.022941684
231	0x3e1bf4da	0.15230122
232	0x3de8d915	0.1136953
233	0x3d3e76af	0.046499904
234	0x3e243fed	0.16040011
235	0xbc193d5f	-0.009353011
236	0xbd7d10db	-0.061783653
237	0x3e81f0bb	0.25378975
238	0xbcd82d81	-0.026388885
239	0xbe354291	-0.17701174
240	0x3d49e775	0.049293
241	0x3c8077b3	0.015682077
242	0x3d5ee004	0.054412857
243	0xbe4a3f5b	-0.1975073
244	0x3d996c13	0.07491317
245	0x3d1e4c23	0.03864683
246	0x3c869694	0.016429223
247	0x3e8158a0	0.25262928
248	0x3d9babbb	0.07601114
249	0xbad81271	-0.0016484988
250	0x3d259f7b	0.040435296
251	0x3d79f96f	0.061028894
252	0xbd7fc171	-0.06244034
253	0x3d12d64f	0.03584891
254	0x3cabf840	0.020992398
255	0xbe0177a9	-0.12643303

fc1.2.bias f4 [128]
0	0x3e344f52	0.17608383
1	0xbdb12274	-0.086491495
2	0x3e87f41b	0.26553425
3	0x3e653920	0.22385073
4	0x3da89a52	0.08232559
5	0x3ea25bee	0.31710762
6	0x3e90601d	0.2819833
7	0x3ea9f310	0.33193254
8	0x3d5e12c1	0.054217104
9	0x3ea1779e	0.31536573
10	0x3daed7ef	0.0853728
11	0x3e98aaf7	0.29817936
12	0x3e3409ab	0.17581813
13	0x3e219e47	0.15783034
14	0x3e2b510d	0.16730137
15	0x3e1d203c	0.15344328
16	0x3e35b583	0.17745022
17	0x3e4c216b	0.19934623
18	0x3e80a594	0.25126326
19	0x3e92eaca	0.28694755
20	0x3e492739	0.19643869
21	0x3dd5d4ea	0.10441001
22	0x3dcdd0bf	0.10049581
23	0x3e8fddf9	0.2809904
24	0x3e38021d	0.17969556
25	0x3e551301	0.2080803
26	0x3ea802d6	0.32814664
27	0x3e4a2769	0.19741596
28	0x3dc21a18	0.09477633
29	0xbc167682	-0.009183528
30	0x3ea9fd07	0.33200857
31	0x3e2c5093	0.16827612
32	0x3ddcfe68	0.10790712
33	0x3e483f91	0.19555499
34	0x3e97a0c5	0.29614845
35	0xbde81c4c	-0.11333522
36	0x3e353f9e	0.1770005
37	0x3e632d8c	0.22185344
38	0x3e639233	0.2222374
39	0x3e01812b	0.1264693
40	0x3e4b93a2	0.19880536
41	0x3e203518	0.15645254
42	0xbde04dc4	-0.109523326
43	0x3e83a595	0.25712267
44	0x3e13409a	0.14380112
45	0x3eaa9a92	0.33321053
46	0x3dda74b0	0.106667876
47	0xbd84607c	-0.064637154
48	0x3e83e6c3	0.25761995
49	0x3dcc177a	0.09965415
50	0x3eab9ab2	0.3351646
51	0x3e9eee9b	0.31041417
52	0x3dbd6755	0.09248225
53	0x3ddc3720	0.10752702
54	0x3e1f5ab7	0.15561949
55	0x3e81d5cf	0.25358436
56	0xbdbddaea	-0.0927027
57	0xbdb2d3ad	-0.0873178
58	0xbc9a53a7	-0.018838717
59	0x3da5d205	0.08096699
60	0x3e893dbd	0.26804915
61	0xbd6a1959	-0.05715308
62	0x3dda8e3d	0.10671661
63	0x3e78662f	0.2425773
64	0x3e7e5a2e	0.24839088
65	0x3e5e4d62	0.21709207
66	0x3eabccfd	0.3355483
67	0x3e9594f7	0.29215214
68	0x3ea92e6b	0.33043227
69	0x3e961527	0.29313013
70	0x3e1ecafe	0.15507123
71	0x3e43c0c2	0.191165
72	0x3e8fe432	0.28103787
73	0x3e1ba854	0.15200931
74	0x3e9a3810	0.30120897
75	0x3e45fc96	0.19334635
76	0x3e16b9df	0.14719342
77	0x3e7e048d	0.24806423
78	0x3e6a7016	0.2289432
79	0x3ea06234	0.31324923
80	0x3eafc9e1	0.3433371
81	0x3e32450c	0.17409152
82	0x3e2fd286	0.17170152
83	0x3e0f8ce7	0.14018594
84	0x3e8aadbc	0.27085674
85	0x3e3a68aa	0.18203989
86	0x3e2c7a77	0.16843592
87	0x3de84e51	0.11343063
88	0x3e41fa6d	0.18943186
89	0xbd8af11c	-0.06784269
90	0x3e3d83df	0.18507336
91	0x3e781211	0.24225642
92	0x3e8194ca	0.2530883
93	0x3e8c672b	0.2742246
94	0x3de13d2a	0.10997994
95	0x3e15a6d3	0.1461442
96	0x3e020912	0.12698773
97	0x3e03b791	0.12862994
98	0x3e8cf96d	0.27534047
99	0x3e3c88d4	0.18411571
100	0x3e9019fe	0.2814483
101	0x3cfd0602	0.030886654
102	0x3e788b8e	0.24271986
103	0x3e639ed8	0.22228563
104	0x3e2b85f5	0.1675032
105	0x3dff2a2a	0.12459214
106	0x3e37985c	0.17929214
107	0x3ea41987	0.32050726
108	0x3e3603a0	0.1777482
109	0xbc897e56	-0.016783874
110	0x3e935486	0.28775424
111	0x3e59eb92	0.21281269
112	0x3dba4ddf	0.09096884
113	0x3e9269c1	0.2859631
114	0x3e47ace6	0.1949955
115	0x3e851568	0.25992894
116	0x3e5cd320	0.21564913
117	0x3de5f012	0.112274304
118	0x3e9a151e	0.30094236
119	0x3e54cb97	0.20780788
120	0x3e38902d	0.18023749
121	0x3e985b25	0.29757038
122	0x3e52f5e9	0.2060162
123	0x3e94044d	0.2890953
124	0x3e8213ad	0.25405636
125	0x3e8816d5	0.2657992
126	0x3e48195f	0.19540928
127	0x3e462acd	0.19352265

fc1.4.weight f4 [256, 128]
0	0x3e37025b	0.17871992
1	0xbc45b578	-0.012067191
2	0x3de13ff3	0.109985255
3	0x3cc766eb	0.024341067
4	0x3dc2610b	0.09491166
5	0x3e31320f	0.17304252
6	0x3e4139f8	0.1886977
7	0x3e457b5f	0.19285344
8	0x3dc8dfb1	0.09808291
9	0x3d86d2e7	0.06583195
10	0x3e2d5ee4	0.16930729
11	0x3e18c560	0.14919043
12	0x3db13d74	0.086542994
13	0x3d2d0733	0.042243194
14	0xbd0b6e38	-0.03404066
15	0x3c9c5e15	0.01908783
16	0x3c35e7e2	0.011102648
17	0x3d95b22e	0.07309376
18	0x3e1f16a7	0.15535985
19	0x3d7e72d8	0.062121242
20	0x3dcaf2e3	0.09909608
21	0x3de0d14f	0.109774224
22	0x3e17dec5	0.14831074
23	0x3e119e1b	0.14220469
24	0x3db85eda	0.090024665
25	0x3d89e4c5	0.067330875
26	0x3e2a6474	0.16639882
27	0x3e347b82	0.1762524
28	0xbb48ab41	-0.0030619653
29	0xbb2816a0	-0.0025648251
30	0x3dc01a93	0.09380069
31	0xbe78cc87	-0.24296771
32	0x3dee5644	0.116375476
33	0x3e40c240	0.188241
34	0x3e1f1e73	0.15538959
35	0x3d6ab226	0.0572988
36	0x3cb5ba03	0.022183424
37	0x3e324a79	0.17411222
38	0x3da5957e	0.08085154
39	0x3e519f80	0.20471
40	0x3dda28e9	0.10652334
41	0xbe3ca7b8	-0.18423355
42	0xbd17f99a	-0.037103273
43	0x3de3e00a	0.111267164
44	0x3e2e2b0c	0.17008609
45	0x3e2586df	0.1616473
46	0x3ce15015	0.027504006
47	0x3d7716da	0.060324527
48	0x3e00192f	0.12509607
49	0x3e6cb57e	0.23116109
50	0x3e3c72d1	0.18403174
51	0x3d99d70e	0.075117216
52	0x3d27041b	0.0407754
53	0x3d558c0d	0.052135516
54	0x3e16c022	0.1472173
55	0x3e322cf1	0.17399956
56	0x3c0070d0	0.007839397
57	0xbd9626eb	-0.07331642
58	0x3d7e9815	0.062156755
59	0x3c200516	0.009766838
60	0x3dc22656	0.09479968
61	0x3ddcccfa	0.10781284
62	0x3e017336	0.12641606
63	0x3d14ba81	0.036310676
64	0x3d63f0cd	0.055649567
65	0x3dea1202	0.11429216
66	0x3dcafd83	0.09911635
67	0x3dd4e1b4	0.10394612
68	0x3e05f983	0.13083462
69	0x3e1537cd	0.14572068
70	0x3da96493	0.08271136
71	0x3e015c2b	0.12632816
72	0x3b6bd766	0.0035986542
73	0x3d5b3017	0.05351266
74	0x3d78bc5b	0.060726505
75	0x3dab6eba	0.08370729
76	0xbb5317ea	-0.0032210299
77	0x3da82fc9	0.08212239
78	0x3d8e4fe0	0.06948829
79	0x3d3db2cb	0.04631309
80	0x3e3972c9	0.18110193
81	0x3e341760	0.17587042
82	0x3d855eb9	0.065122075
83	0x3e049bf7	0.12950121
84	0x3e14a299	0.14515151
85	0x3e2322fa	0.15931311
86	0x3d71b348	0.059008867
87	0x3e379d31	0.17931058
88	0x3e3c1a4a	0.18369403
89	0x3da2f3d7	0.07956665
90	0x3dd97d19	0.106195636
91	0x3dd4b2be	0.10385655
92	0x3e0f4578	0.13991344
93	0x3e44ce2e	0.19219276
94	0xbe2089ad	-0.15677519
95	0x3e0a9513	0.1353343
96	0x3bab7deb	0.0052335165
97	0x3d0b5f28	0.034026295
98	0x3c036509	0.008019694
99	0x3dfb9522	0.12284304
100	0x3d9872c2	0.07443763
101	0x3e0459ad	0.12924834
102	0xbd171b27	-0.03689113
103	0x3e117d7c	0.14208025
104	0x3e50d598	0.2039398
105	0x3d35c99f	0.044381734
106	0x3db22a88	0.086995184
107	0x3e0cab8f	0.1373732
108	0x3d97de8b	0.074154936
109	0x3de7c1c6	0.11316256
110	0x3dc7020a	0.09717186
111	0x3dd7b923	0.10533359
112	0xbe654457	-0.22389351
113	0x3d594a0c	0.053049132
114	0x3d9f1cb0	0.077691436
115	0x3c065f8d	0.008201492
116	0x3e507bfd	0.20359798
117	0x3d8177a9	0.063216515
118	0x3e00b6e6	0.1256977
119	0x3ddbf020	0.107391596
120	0x3dbf494a	0.09340151
121	0x3d7b0c37	0.061290946
122	0x3e608fd8	0.21929872
123	0x3d4ddc88	0.050259143
124	0x3e61d306	0.22053155
125	0x3e3166cd	0.17324372
126	0x3dd3d295	0.103429
127	0x3dd995de	0.10624288
128	0xbd436ee9	-0.047713194
129	0x3dae1df5	0.085018076
130	0x3d5c6f04	0.05381681
131	0xbd33edc6	-0.04392793
132	0x3e0ec07d	0.13940616
133	0x3d3f483b	0.046699744
134	0x3de247a8	0.110488236
135	0xbdc826db	-0.09773036
136	0x3d10d22e	0.035356693
137	0x3de0fc9e	0.10985683
138	0x3e1f420b	0.15552537
139	0xbc05e147	-0.008171386
140	0x3dacb9fd	0.08433912
141	0x3dbbf610	0.09177792
142	0x3db42328	0.08795768
143	0x3deebb78	0.116568506
144	0xbd924d62	-0.07143666
145	0x3d2cefa7	0.042220738
146	0xbd519f91	-0.051177565
147	0x3ca14ec6	0.019690882
148	0x3e3e7eb8	0.18603027
149	0xbce27488	-0.027643457
150	0x3cb750e8	0.022377446
151	0x3d6bf0df	0.05760276
152	0x3cbfac6d	0.023397649
153	0xbcbfb939	-0.02340375
154	0xbd28f751	-0.041251484
155	0x3db333fc	0.087501496
156	0xbc593cb2	-0.0132591
157	0xbc4d3200	-0.012524128
158	0xbd4f91ee	-0.05067628
159	0xbe5a0fd0	-0.21295094
160	0xbd81a8b5	-0.063310064
161	0xbc7eb4bc	-0.01554602
162	0x3d9676f0	0.07346904
163	0x3ccf7c30	0.025327772
164	0xbde9de9e	-0.11419414
165	0x3e0126f5	0.12612517
166	0xbdcedac4	-0.1010032
167	0xbc623557	-0.0138066625
168	0x3d9be152	0.07611336
169	0xbbb94ccb	-0.0056549064
170	0x3c153658	0.009107195
171	0x3cacbe26	0.021086764
172	0x3d4d0c00	0.050060272
173	0x3cb0b8c0	0.02157247
174	0x39883900	0.0002598241
175	0xbd6a1342	-0.057147272
176	0x3d4342f4	0.047671273
177	0xbbf64c86	-0.0075164465
178	0x3cc60009	0.024169939
179	0x3d7aea5c	0.06125866
180	0xbd9d381d	-0.076767184
181	0x3dc498c7	0.095994525
182	0x3dd74c16	0.10512559
183	0x3ccd20d9	0.025040077
184	0xbd9a7b50	-0.07543051
185	0xbd866cac	-0.06563696
186	0x3d9cd737	0.076582365
187	0x3d8ad192	0.067782536
188	0x3d1b999b	0.037988286
189	0x3e02c2bb	0.12769596
190	0x3da4b18e	0.08041678
191	0x3db5e120	0.0888083
192	0x3e00fe42	0.12596992
193	0x3d2e8ada	0.042612888
194	0xbd015e02	-0.031583793
195	0xbd10c238	-0.03534147
196	0x3d43b1ff	0.047777172
197	0x3d86d74d	0.06584034
198	0x3e1ef68f	0.15523742
199	0x3cf56337	0.029954536
200	0x3d8196ec	0.06327614
201	0x3d1ca366	0.038241766
202	0xbd8ac228	-0.067753136
203	0x3e1113b1	0.14167668
204	0x3da7f425	0.08200864
205	0xbc59d421	-0.013295204
206	0x3d7d2fc4	0.06181313
207	0xbd9cd2d5	-0.076574005
208	0xbd84f4f9	-0.06492037
209	0x3dc3dc3d	0.095634915
210	0x3d526692	0.05136735
211	0x3c3889fc	0.011263367
212	0x3d471159	0.04860053
213	0x3c0f0d69	0.008731225
214	0x3d820dea	0.0635031
215	0xbdd12b6e	-0.10213362
216	0xbcc2d344	-0.02378238
217	0x3d7fd7ae	0.062461548
218	0x3d6b861e	0.05750095
219	0xba8049cc	-0.0009787618
220	0x3e28174a	0.16415134
221	0x3ddd8c0d	0.10817728
222	0xbe147d88	-0.14501011
223	0x3dff697e	0.12471293
224	0x3d5c4f46	0.05378654
225	0x3d366cb5	0.044537265
226	0xbdae7def	-0.08520114
227	0xbcd117ce	-0.025524046
228	0xbc40560f	-0.011739268
229	0x3d97c6a8	0.074109375
230	0x3d53b6ef	0.05168813
231	0xbb994887	-0.0046778354
232	0x3d38a30d	0.045077372
233	0x3d5644b6	0.05231162
234	0x3bbf1ab7	0.005832042
235	0x3dedf7c9	0.11619527
236	0x3dc423cc	0.0957714
237	0x3d17d53b	0.037068587
238	0x3d84455f	0.06458544
239	0x3e1c24c6	0.15248403
240	0x3e0d9850	0.13827634
241	0x3d7dfec9	0.06201056
242	0x3c78cecc	0.015186023
243	0xbe0145c8	-0.12624276
244	0x3d1d1001	0.03834534
245	0x3e0e0b6c	0.13871545
246	0x3df67003	0.12033083
247	0x3d6f7c2e	0.058468036
248	0xbcc79785	-0.024364242
249	0x3d9fcfa6	0.07803278
250	0x3db93496	0.09043233
251	0xbd4ee933	-0.050515365
252	0x3dc8705f	0.09787058
253	0x3c635cae	0.013877077
254	0xbc0851cc	-0.008320283
255	0x3b436e56	0.0029820404

fc1.4.bias f4 [256]
0	0x3e0631de	0.1310496
1	0xbdb6df99	-0.089293666
2	0x3e3f0d09	0.18657316
3	0xbd574b12	-0.052561827
4	0x3bee9f9b	0.00728221
5	0x3dab93ae	0.08377777
6	0xbd5394c2	-0.05165554
7	0x3e3e57e3	0.18588214
8	0xbd5d2821	-0.053993348
9	0x3e6879f8	0.22702777
10	0x3d2baad2	0.041910954
11	0x3d9bdacc	0.076100916
12	0x3e4d0961	0.20023109
13	0x3e1225e3	0.14272265
14	0xbc7ec0c0	-0.015548885
15	0x3d27635a	0.040866233
16	0xbda8fcf2	-0.082513705
17	0x3e630b92	0.22172382
18	0x3e0900a4	0.1337915
19	0x3e2191da	0.15778294
20	0xbd07eb8b	-0.033183616
21	0xbd07b65f	-0.033132907
22	0xbd568d0c	-0.052380607
23	0x3e1148c7	0.14187919
24	0x3d4cfcc2	0.050045736
25	0x3d0f9832	0.035057254
26	0x3e58b736	0.2116364
27	0xbe00802e	-0.12548897
28	0x3ca00674	0.019534327
29	0xbd49ad5c	-0.049237594
30	0x3e0f046b	0.13966529
31	0x3e431910	0.1905253
32	0x3e23683c	0.15957731
33	0x3e748c7f	0.2388172
34	0xbd9909c2	-0.07472564
35	0x3e62f2ab	0.22162883
36	0xbcbbff07	-0.022948755
37	0x3ddd94d3	0.108194016
38	0x3e85d1c3	0.26136598
39	0x3e0f4d4b	0.13994329
40	0xbd58e98a	-0.052957095
41	0x3de60a54	0.11232439
42	0x3dc8d374	0.098059565
43	0xbbdaff45	-0.0066832625
44	0x3d622107	0.05520728
45	0x3e77972b	0.2417876
46	0x3e067033	0.13128738
47	0x3d2cc70b	0.04218201
48	0x3e36e66f	0.17861341
49	0x3e017801	0.12643434
50	0x3dd58d75	0.104273714
51	0x3a66d3d6	0.000880537
52	0x3e82d8a1	0.255559
53	0xbdbf4139	-0.09338612
54	0xbd5fc118	-0.054627508
55	0x3e4bf625	0.19918115
56	0x3e5073d6	0.20356688
57	0xbdbf124d	-0.093296625
58	0x3e8b7143	0.2723485
59	0x3e318f45	0.17339809
60	0x3e6484d7	0.223163
61	0x3d3ff62d	0.04686563
62	0xbd0a15d4	-0.033712223
63	0xbd935e7d	-0.071957566
64	0x3e90f5ff	0.2831268
65	0xbd8cbf69	-0.06872446
66	0x3ce599b4	0.028027393
67	0x3e58cdc7	0.21172248
68	0x3e4652db	0.19367544
69	0x3e05a52d	0.13051291
70	0x3d78c6ed	0.060736585
71	0x3e1bb68e	0.15206358
72	0x3de5a772	0.11213578
73	0x3c8b86e5	0.017032096
74	0xbc17aa40	-0.009256899
75	0x3dca3ae9	0.098745175
76	0x3e875018	0.26428294
77	0xbdac1f30	-0.08404386
78	0xbd7d9c97	-0.061916914
79	0xbc8e168c	-0.017344736
80	0xbda44c6a	-0.08022387
81	0x3d554729	0.052069817
82	0xbda04f08	-0.07827574
83	0x3e62476c	0.22097558
84	0x3e7a5d13	0.24449567
85	0xbd9c3969	-0.076281376
86	0xbd157a90	-0.036493838
87	0xbd70bfdc	-0.05877672
88	0x3e91223a	0.28346425
89	0x3e7b2fb0	0.2452991
90	0x3e8b4351	0.27199796
91	0xbc8cef41	-0.017203929
92	0xbd131176	-0.035905324
93	0x3e747e77	0.23876368
94	0xbc91b936	-0.01778851
95	0x3e251296	0.16120371
96	0x3e6f2043	0.2335215
97	0x3df81574	0.12113467
98	0xbcf74112	-0.030182395
99	0x3cf337b7	0.029689653
100	0xbda7fe29	-0.08202774
101	0xbc96bb17	-0.018399758
102	0x3e85e1d9	0.2614887
103	0x3c50ceba	0.0127446
104	0x3e7fc734	0.24978334
105	0x3d7a1e38	0.061063975
106	0x3e14f603	0.14546971
107	0x3e811a76	0.252155
108	0x3e847a47	0.2587454
109	0x3df1469c	0.11781046
110	0x3d97202b	0.073791824
111	0xbd66c78f	-0.056342658
112	0x3de5ec2c	0.11226687
113	0x3c454f27	0.012042797
114	0xbd1f597f	-0.03890371
115	0x3da026eb	0.07819923
116	0xbdb5d1a5	-0.08877877
117	0xbe0056b8	-0.1253308
118	0x3e54401c	0.20727581
119	0x3e879bc0	0.26486015
120	0x3d5b04b2	0.053471275
121	0x3e47611f	0.19470643
122	0xbcbc9736	-0.023021322
123	0x3e326f05	0.17425163
124	0x3de8a75d	0.11360047
125	0x3e3a6c7e	0.18205449
126	0xbd63d401	-0.055622105
127	0x3e344313	0.17603712
128	0xbc60eff9	-0.013729089
129	0x3e67018b	0.22559182
130	0xbd7996be	-0.060934775
131	0x3defc60f	0.117076986
132	0x3e299844	0.16561991
133	0x3e10da3c	0.1414575
134	0x3d93952a	0.07206185
135	0xbce2a479	-0.027666317
136	0x3e142f5b	0.1447119
137	0x3e6393d9	0.22224368
138	0x3e22ccd7	0.15898453
139	0x3e3cf2bd	0.18451972
140	0x3e57ddd2	0.21080711
141	0xb95c1d6d	-0.00020991797
142	0x3d6fa6b1	0.05850858
143	0xbda4b7dc	-0.08042881
144	0x3e21912e	0.15778038
145	0x3e69b76e	0.22823879
146	0xbc8636df	-0.016383586
147	0x3e570a1e	0.20999953
148	0x3e21064e	0.15725061
149	0xbd31b5ad	-0.04338615
150	0x3e32d714	0.17464858
151	0x3e7c110e	0.24615881
152	0x3e100bd7	0.14067017
153	0x3e43fd97	0.19139706
154	0x3e1ebe68	0.15502322
155	0x3df7d7a5	0.12101678
156	0x3e218ba3	0.15775923
157	0xbd29bbb0	-0.04143876
158	0x3dccf8a5	0.10008363
159	0x3cba69ea	0.022755582
160	0x3e67c09c	0.22632068
161	0x3e88ea2c	0.2674116
162	0xbd515faf	-0.05111664
163	0x3e64dcaa	0.22349802
164	0x3e3034c6	0.17207631
165	0xbcba10bc	-0.022713058
166	0x3decf3cd	0.11569939
167	0xbd89d9c2	-0.06730987
168	0x3e160685	0.14650925
169	0xbb83e643	-0.004025252
170	0x3e0e0adf	0.13871334
171	0x3e4c70a4	0.19964844
172	0x3e4c98c7	0.19980155
173	0x3e228ac5	0.15873249
174	0x3e7c604a	0.24646106
175	0x3e2c07f2	0.16799906
176	0x3d1fcbb6	0.039012633
177	0x3e5ea23f	0.2174158
178	0x3e016b37	0.12638555
179	0x3dd12a33	0.10213127
180	0xbdb4328e	-0.08798705
181	0x3d092a46	0.03348758
182	0x3c92deb7	0.017928464
183	0xbcd4d684	-0.025981195
184	0x3e562b67	0.20914994
185	0xbd75650b	-0.059910815
186	0x3e3c019f	0.18359993
187	0x3d2e8262	0.04260481
188	0xbd98684a	-0.074417666
189	0x3e669c82	0.2252064
190	0x3e48a27a	0.1959323
191	0x3e895098	0.268193
192	0x3da7b6a8	0.08189136
193	0x3e51572b	0.20443408
194	0x3e7e4b8f	0.24833511
195	0x3cfa4e73	0.030554986
196	0x3dc0e55d	0.094187476
197	0x3d054d5c	0.03254448
198	0xbd7198ef	-0.05898374
199	0x3c2bfdab	0.010497491
200	0x3e1bb426	0.1520544
201	0xbb3946fe	-0.0028271074
202	0x3e24bb4f	0.16087078
203	0x3e442112	0.1915324
204	0xbdbd4314	-0.0924131
205	0x3e35ffcc	0.1777336
206	0x3e76b8a5	0.24093874
207	0xbd579434	-0.052631572
208	0xbda406ae	-0.080090865
209	0xbda94ca2	-0.0826657
210	0xbd2623b9	-0.04056141
211	0xbe0e9e50	-0.13927579
212	0x3b48bc05	0.0030629646
213	0xbc9ec8a5	-0.019382784
214	0x3e72e9fd	0.23722072
215	0x3e8fcda1	0.2808657
216	0xbd5e2f66	-0.05424442
217	0x3e2c2c5d	0.16813798
218	0x3c0f9685	0.008763914
219	0xbd99870b	-0.074964605
220	0xbc3cec8a	-0.011531005
221	0xbbc1833c	-0.005905537
222	0xbd21a857	-0.039467182
223	0xbd811d67	-0.06304436
224	0x3d703018	0.058639616
225	0x3d1bc038	0.03802511
226	0x3e3703ee	0.17872593
227	0xbd9efa80	-0.07762623
228	0xb951c684	-0.00020005746
229	0xbdc8ad0d	-0.09798632
230	0xbcd76318	-0.026292369
231	0x3e3e5604	0.185875
232	0xbdc671f6	-0.09689705
233	0x3d0e45a8	0.034734398
234	0xbd816f29	-0.0632003
235	0x3e763be0	0.24046278
236	0xbd868c6a	-0.065697506
237	0x3de89dca	0.11358221
238	0x3e744ed1	0.23858191
239	0xbd94311b	-0.072359286
240	0x3e3331ca	0.17499462
241	0x3e356c6f	0.17717145
242	0xbd93097b	-0.07179543
243	0x3dc22219	0.0947916
244	0x3e010f5b	0.12603514
245	0x3b975625	0.0046184235
246	0x3c2d75ba	0.01058715
247	0xbd9b0d5c	-0.075709075
248	0x3e61174d	0.21981545
249	0xbd433da9	-0.047666226
250	0xbd4ed724	-0.050498143
251	0x3e224e6e	0.15850231
252	0x3e56009b	0.20898668
253	0xbdc9d4eb	-0.09855064
254	0xbc4c6468	-0.012475111
255	0x3e664034	0.22485429

fc1.6.weight f4 [1, 256]
0	0xbe077284	-0.13227278
1	0x3e5bac31	0.21452405
2	0xbe3353a6	-0.17512378
3	0x3c865707	0.01639892
4	0x3b3ab6fa	0.002849041
5	0x3d1f87ce	0.038947873
6	0x3c99843b	0.01873981
7	0xbe336615	-0.1751941
8	0xbd4b36cc	-0.049612805
9	0xbe3bd6d6	-0.18343672
10	0x3d75069d	0.05982076
11	0x3bac10d2	0.0052510286
12	0xbe142c7b	-0.14470093
13	0xbe0573d3	-0.13032465
14	0x3e0e3d2c	0.13890523
15	0x3e040b92	0.12895039
16	0x3d2379de	0.039911143
17	0xbe149803	-0.14511113
18	0xbe3438a0	-0.17599726
19	0xbdd3899b	-0.103289805
20	0x3d033d7e	0.032041065
21	0x3d23b6a1	0.03996909
22	0xbb062d60	-0.0020473823
23	0xbddf9cf9	-0.10918612
24	0x3d0e5888	0.0347524
25	0x3cae7575	0.021296242
26	0xbe044c43	-0.12919717
27	0x3e75347b	0.23945801
28	0x3ca7989c	0.020458512
29	0x3c8b7d0c	0.0170274
30	0xbe144cf0	-0.14482474
31	0xbe2cba56	-0.16867957
32	0xbe0bef26	-0.13665447
33	0xbdf24297	-0.11829107
34	0x3d2cec01	0.04221726
35	0xbdf8fa2d	-0.12157092
36	0x3e4983fd	0.19679256
37	0xbe17bfd3	-0.14819269
38	0xbe0bfadb	-0.13669913
39	0xbe25d6de	-0.16195247
40	0x3e3b2504	0.18275839
41	0xbe04e667	-0.12978517
42	0xbe174ebf	-0.14776133
43	0x3e95caec	0.2925638
44	0x3c55835c	0.013031807
45	0xbe052127	-0.13000928
46	0xbe0a9416	-0.13533053
47	0x3e4acc22	0.19804433
48	0xbe3335fe	-0.17501065
49	0xbe079b2d	-0.13242789
50	0xbe2d187d	-0.16903873
51	0x3d7523a7	0.059848454
52	0xbe275a66	-0.16343078
53	0x3e24a99b	0.16080324
54	0x3e15e9e7	0.14640008
55	0xbe1d0ac2	-0.15336135
56	0xbe254817	-0.16140781
57	0x3d0778da	0.033074237
58	0xbe06efcd	-0.13177414
59	0xbdfdff1f	-0.12402176
60	0xbe2948be	-0.16531655
61	0x3be77242	0.007063181
62	0x3e0eb361	0.13935615
63	0x3e0af4de	0.13569972
64	0xbdef0e8d	-0.11672697
65	0x3d4fd573	0.05074067
66	0xbb821db0	-0.003970824
67	0xbe0049b9	-0.12528123
68	0xbdfa4c09	-0.12221534
69	0xbe11165f	-0.1416869
70	0x3b0cc789	0.0021481237
71	0xbe2f58fc	-0.17123789
72	0xbdf71e21	-0.120662935
73	0x3d41c3b7	0.04730579
74	0x3d0ca9d8	0.034341663
75	0xbe362fda	-0.17791691
76	0xbe111678	-0.14168727
77	0x3cdb8620	0.026797354
78	0x3ddbd0f9	0.10733218
79	0x3b110340	0.0022127181
80	0xbc7a49b8	-0.015276365
81	0x3ce834c6	0.028345477
82	0x3d54b71e	0.051932447
83	0xbdd6d6b6	-0.104901716
84	0xbe0d64c8	-0.13807976
85	0x3ca528e2	0.020161096
86	0xbb216620	-0.0024627522
87	0x3a5e28a8	0.0008474686
88	0xbdf50b4f	-0.119650476
89	0xbdf491ee	-0.119418964
90	0xbe264aa2	-0.16239408
91	0x3d4aded0	0.049528897
92	0x3bd3977c	0.0064572673
93	0xbe0ec4d5	-0.13942273
94	0x3d36aa4a	0.044595994
95	0xbe2f967a	-0.17147246
96	0xbe2d53ed	-0.16926546
97	0xbdeb31a8	-0.114840806
98	0x3d420e98	0.0473772
99	0x3e19dc58	0.1502546
100	0x3d7622be	0.060091726
101	0x3cf234f9	0.029566275
102	0xbe0240ce	-0.12720034
103	0x3cc2d386	0.023782503
104	0xbe112d61	-0.14177467
105	0x3cbd0189	0.023072021
106	0xbde6308e	-0.1123973
107	0xbe08c591	-0.13356616
108	0xbe27d07a	-0.16388121
109	0xbe2039d7	-0.15647064
110	0xbc9e4cd0	-0.019323736
111	0x3de17ea4	0.11010483
112	0xbe08149f	-0.13289116
113	0xbe0510f9	-0.12994756
114	0xbd2a6e0c	-0.041608855
115	0x3d3c3b5a	0.04595504
116	0x3ca9285c	0.020649128
117	0x3e88373c	0.2660464
118	0xbe0c3934	-0.13693696
119	0xbe0e0af2	-0.13871363
120	0x3d1016ae	0.03517788
121	0xbe26c301	-0.16285326
122	0x3dc3a2f6	0.09552567
123	0xbe23479f	-0.1594529
124	0xbdf5f358	-0.12009305
125	0xbe148a83	-0.14505963
126	0x3d5fdc73	0.054653596
127	0xbdf412f2	-0.11917676
128	0x3e03ff69	0.128904
129	0xbe1c2653	-0.15248995
130	0x3e1b998c	0.15195292
131	0xbdf6bbdb	-0.12047549
132	0xbe008511	-0.12550761
133	0xbe0fa1d2	-0.14026573
134	0x3ca5236e	0.020158496
135	0x3e41a2b1	0.18909718
136	0xbe103ae9	-0.14084972
137	0xbde2a38f	-0.110663526
138	0xbe1c5c11	-0.15269496
139	0xbe1c82a1	-0.15284206
140	0xbe19e615	-0.15029176
141	0x3c69d61e	0.014272241
142	0x3d437e75	0.04772802
143	0x3e422b3e	0.18961808
144	0xbde06bd5	-0.10958067
145	0xbe0ff195	-0.14057
146	0x3e187c37	0.14891134
147	0xbe13ff5f	-0.14452885
148	0xbe1e33a7	-0.15449391
149	0x3c56c31e	0.013108043
150	0xbe288446	-0.16456708
151	0xbe03d445	-0.12873943
152	0xbe100e96	-0.14068064
153	0xbe29643d	-0.16542144
154	0xbdf2a491	-0.11847795
155	0xbe038561	-0.12843849
156	0xbe144284	-0.14478499
157	0x39a0df00	0.00030683726
158	0xbe0fdccc	-0.14049071
159	0xbe4a387e	-0.19748113
160	0xbe315e5d	-0.17321153
161	0xbe114b5d	-0.14188905
162	0x3d014d09	0.031567607
163	0xbe0a5242	-0.13507941
164	0xbdfea436	-0.124336645
165	0x3d64e21e	0.055879705
166	0xbe25f4b8	-0.16206634
167	0x3dcc2b79	0.09969229
168	0xbe28a67b	-0.16469757
169	0x3e6e124a	0.23249164
170	0xbe025093	-0.12726049
171	0xbe27a379	-0.16370954
172	0xbe09c042	-0.13452247
173	0xbe1a9136	-0.15094456
174	0xbe0454c5	-0.12922962
175	0xbe35abf8	-0.17741382
176	0xbcb66fa8	-0.022270039
177	0xbdf329df	-0.11873221
178	0xbe21001a	-0.15722695
179	0xbe334dfe	-0.1751022
180	0x3ce1798a	0.027523775
181	0xbd63f030	-0.055648983
182	0x3c24bf13	0.010055321
183	0x3d482dbc	0.04887174
184	0xbe241634	-0.16024095
185	0x3c69da9d	0.014273313
186	0xbe1f1eda	-0.15539113
187	0x3d104882	0.0352254
188	0x3d53619a	0.051606752
189	0xbe0f8554	-0.14015704
190	0xbe2c5158	-0.16827905
191	0xbe2461ee	-0.16052982
192	0x3d2ecc10	0.042675078
193	0xbe351fba	-0.17687884
194	0xbe2b000b	-0.16699235
195	0x3c9ed2d3	0.019387638
196	0xbe23a790	-0.15981889
197	0x3c124779	0.008928173
198	0x3c57cce3	0.013171407
199	0x3c3eae6e	0.011638267
200	0xbe2dae0e	-0.16960928
201	0x3c25ed4e	0.010127379
202	0xbe2ce493	-0.16884069
203	0xbe23f843	-0.16012673
204	0x3ec305d6	0.3809039
205	0xbde5eea6	-0.11227159
206	0xbe0e6daf	-0.13909028
207	0x3d3f7cd6	0.046749912
208	0x3e2bc151	0.16772963
209	0xbc0c82d0	-0.00857611
210	0xbd701a92	-0.05861909
211	0x3ea84176	0.32862443
212	0x3e1e652b	0.1546828
213	0x3d365e25	0.044523377
214	0xbde842c5	-0.1134086
215	0xbde26c2b	-0.11055788
216	0x3cb199cc	0.021679781
217	0xbe17df71	-0.1483133
218	0x3ea556b5	0.32292715
219	0x3c05b928	0.0081618205
220	0x3a5c2902	0.00083984446
221	0x3ceadcf8	0.02866982
222	0xbcae6ee4	-0.021293111
223	0x3e0bbaa7	0.13645421
224	0x3d0dca6d	0.034616876
225	0x3e5cbc49	0.215562
226	0xbe156eb9	-0.14593019
227	0x3d25393a	0.04033778
228	0x3c537718	0.012906812
229	0x3e012c0f	0.12614463
230	0xbe125b53	-0.1429265
231	0xbe27b866	-0.16378936
232	0x3dcfadde	0.101405844
233	0xbcdbad9f	-0.026816187
234	0x3e8c75b2	0.27433544
235	0xbe1c6437	-0.15272604
236	0x3d49dd9a	0.0492836
237	0xbddcbebd	-0.10778568
238	0xbe1f2aa3	-0.15543608
239	0x3cd2199b	0.025646975
240	0xbded20a8	-0.11578494
241	0xbe218e18	-0.1577686
242	0x3c7629b7	0.015024594
243	0xbe3a1ca6	-0.18174991
244	0xbdeaf675	-0.11472789
245	0x3dd63595	0.10459439
246	0xbccdbd40	-0.025114655
247	0x3c7d8129	0.015472689
248	0xbe009a30	-0.12558818
249	0x3d0cd311	0.034380976
250	0x3d11f89e	0.03563749
251	0xbe26cd64	-0.16289288
252	0xbe26a383	-0.16273312
253	0x3e81253c	0.2522372
254	0x3d4d392d	0.050103355
255	0xbe19d4ea	-0.15022627
