models/PPOContinuous_actor.pth (torch, 172384 bytes, 8 tensors)

fc1.0.weight f4 [64, 3]
00000000: 2439 963e f549 ce3d f390 09bf 652e dc3e
00000010: 6fc5 383e 3359 86be d418 13be 72cd c9be
00000020: f0fa 263e 0050 ffbb 80ba 183e 0062 d73c
00000030: 87b0 0a3e 96e6 a63e 568d f63e a401 883e
00000040: 3d44 babe fc24 8d3e 9361 133f 1f46 a5be
00000050: 98f7 09bf 078a 043f 2927 0ebd 7ff6 bcbe
00000060: 4f12 b63e be8d b03e 7598 b7be a234 d9be
00000070: e825 3bbc ca7d fabd 4090 1a3e b07b 1fbe
00000080: 8dc4 4c3e 739b 0d3f 8adf 2d3e c3d2 f8be
00000090: bb56 d7be 5315 b7bd 60a9 14bf b501 b0bd
000000a0: 071c 42be 7d06 b03e 6825 9fbe cd63 7c3e
000000b0: 88cf 16bf f39c 06bf 2ee8 b73e 72c1 3f3e
000000c0: 3df0 c3be ace9 f73e 942e 103f 84de d73e
000000d0: 9368 843c a26c dabe 9f40 6dbe c02a 2b3d
000000e0: 950b 94be 9976 9abe 1bbe 0a3f dce5 00bf
000000f0: c916 edbe 7e5c 8a3e d154 b13e be01 e1be
00000100: f52b 123e d568 133f da43 08bf a31c d63d
00000110: 338e f0be 2ec0 a0be 3a6f 983e 106b 2c3e
00000120: c284 d43e 3758 ecbe 7f64 013f afff e7be
00000130: ab6c a83e 8040 103e d8b6 8d3d 42ac d3be
00000140: b856 db3e 335f a23a acef e1be 4941 4bbe
00000150: d3d9 8f3c 5c82 883c e082 293e 6c34 afbe
00000160: 3378 d43e cde5 3f3e 2be1 0c3e 076f eb3d
00000170: 7d3a 393e 9ddf e9be 38d7 88be 3e45 a93e
00000180: 848c c8bd dbd0 10be 809e f63e 8d3e 4dbe
00000190: eba5 3bbe 1dde 93be 2a9b bcbe c994 9ebe
000001a0: 7a43 7f3d c147 ba3e a398 da3e b045 023e
000001b0: 6d74 93be ed1e c2be 6d57 783e fcd3 00be
000001c0: 6eea 6c3e df28 c8be eb04 923e ba3b 2abd
000001d0: 1c75 81be db04 5cbd 7749 fabe ee0b 8c3e
000001e0: 7632 6e3d 7723 0cbf 5f5e edbe 3fd2 383d
000001f0: 7a8f 693e 70b9 8a3e 0578 873d d13c 9fbe
00000200: e2d4 693e 6bd2 ac3e a20a 7a3d 6631 8bbe
00000210: e30b 0a3e 2590 a3be e75b ccbe f3fc b8be
00000220: 8b95 593e 3e14 54be 472e dc3e a51f 9c3e
00000230: 2ed3 d03e 585a 5a3e 699b 023f 466c b93e
00000240: 7f54 86be 9154 e2be 40db 2c3d 94f2 b23e
00000250: fa83 873e a1dc c5be 42b7 b6be f0d8 6cbd
00000260: 01cb 2ebe 8207 613e 28d7 56be 6bcb 043f
00000270: 4f32 033f c671 28ba c6c7 cabe 0284 78be
00000280: f542 1dbd ee46 c2be 5a62 003e fc47 913e
00000290: 5b6d c5be d260 1e3e 1ac4 883e 582a e83e
000002a0: 78a1 efbe 1c06 bd3e 115a 2cbd d028 4fbb
000002b0: 265c 123f b3be 773e de64 e6bd b8e8 2dbe
000002c0: 958a 05bf 371d a3be 82ee da3e de0c 62be
000002d0: 6798 973e b957 aebe c1d1 77bd 0bc1 ad3e
000002e0: 0e56 c03e b0db 6dbd 7093 7f3e 4aed 13bf
000002f0: 7b74 a1be 6010 86be 28e1 98be 5065 92be
0.2934047 0.100727 -0.537368 0.43004146 0.18044065 -0.2623993 -0.1436494 -0.39414555
0.16306663 -0.007791519 0.14914894 0.026291847 0.13543902 0.32597798 0.48154706 0.26563752
-0.36380187 0.2756728 0.5757076 -0.3228006 -0.53893423 0.51773113 -0.034705315 -0.36906812
0.35560843 0.3448314 -0.35858503 -0.42422968 -0.011422612 -0.122310236 0.1509409 -0.15574527
0.19996853 0.5531532 0.16979805 -0.48598298 -0.42058358 -0.08939614 -0.58070946 -0.085940756
-0.18956004 0.3437995 -0.31083226 0.24647446 -0.5891042 -0.52583236 0.35919327 0.18726137
-0.38269225 0.48420465 0.5632107 0.42161953 0.016163146 -0.42661005 -0.23169182 0.041788816
-0.28915086 -0.30168608 0.5419633 -0.5035074 -0.46306446 0.2702369 0.34635022 -0.43946642
0.14274581 0.57581836 -0.53228533 0.10454681 -0.4698349 -0.3139662 0.2977236 0.16837716
0.41507536 -0.46161053 0.5054397 -0.4531226 0.32895407 0.14087105 0.0691964 -0.4134236
0.428396 0.0012387991 -0.44128168 -0.19849123 0.017559921 0.016663723 0.16553831 -0.34219682
0.41497955 0.18740006 0.1375777 0.11495786 0.18088718 -0.45678416 -0.267267 0.3306064
-0.09792426 -0.14142172 0.481678 -0.20043392 -0.18325011 -0.28880396 -0.3683713 -0.3097289
0.06232021 0.3638287 0.42694578 0.12721896 -0.28799763 -0.3791422 0.242521 -0.12580866
0.23136303 -0.39093682 0.28519377 -0.041560866 -0.2528466 -0.053715568 -0.48884174 0.27352852
0.058153592 -0.54741615 -0.46361062 0.04512238 0.22808638 0.27094603 0.06614689 -0.31101087
0.22835115 0.33754286 0.061045296 -0.27186126 0.13481097 -0.3194591 -0.39913866 -0.36130485
0.21248452 -0.20710847 0.43004057 0.30492893 0.40786117 0.21323526 0.5101839 0.3621542
-0.2623634 -0.44205144 0.04220128 0.34950697 0.26467878 -0.3864489 -0.3568669 -0.057824075
-0.17069627 0.2197552 -0.20980513 0.5187289 0.5124864 -0.0006425645 -0.3960554 -0.24269107
-0.038393933 -0.3794474 0.12537518 0.28375232 -0.38559994 0.15466622 0.26712114 0.45344806
-0.46802878 0.36918724 -0.04207808 -0.003161002 0.5717186 0.2419384 -0.11249708 -0.16983306
-0.52164584 -0.31858227 0.42760092 -0.22075221 0.2960846 -0.34051302 -0.06050277 0.33936343
0.37565655 -0.05807084 0.24958587 -0.5778395 -0.3153418 -0.26184368 -0.2985928 -0.2859292

fc1.0.bias f4 [64]
00000000: 236d 96bc 85f1 2f3e 95d1 48be 40fa f7be
00000010: a3fe bf3e 8492 d63e d816 cbbe bf00 cc3e
00000020: a54e b0be 4513 ecbe 1b1b 863e c643 9cbe
00000030: e237 0b3e e073 11bd 050b 05bf f62a 8e3d
00000040: 7fbe 72be dcb3 0fbe 9bc7 11bd 0d27 8d3e
00000050: cd26 cebe 9814 cfbe 3271 64be 2726 f43d
00000060: 1b5a 62be e2ac 433d 4367 0d3f a57c ee3c
00000070: dd77 d63c a659 8abe eb75 b83e 37f0 813e
00000080: 2c94 10be ca47 123f 0a81 f63e 658e b9be
00000090: 61de 0a3f b630 043e a9bd d9be 3168 30be
000000a0: 43bc 003f 01ef 0c3e f0e8 e5be 510a 0e3f
000000b0: 69c1 773d c98d 883e 45a1 cbbe 5ab7 003f
000000c0: 61a4 e7be 1301 d4be 6a75 133f 6446 65bd
000000d0: 5be6 e7be 28a5 08bf 1bf9 c53e 7b2d 01bf
000000e0: 29a8 30bc ec1b 2fbe 008f 523e d48b b3be
000000f0: ffe5 103f 7078 adbe 4cae 6e3d 29a2 9c3e
-0.018362587 0.17181976 -0.19611199 -0.48433113 0.3749896 0.41908658 -0.39665866 0.3984432
-0.34435 -0.4610845 0.26192555 -0.30520457 0.13595536 -0.035510898 -0.5196994 0.06941788
-0.23705481 -0.14033455 -0.03559075 0.27568856 -0.40263978 -0.404454 -0.22308806 0.119213395
-0.22104685 0.047772296 0.5523569 0.02911217 0.026180202 -0.2702152 0.36027464 0.25378582
-0.14119023 0.5714079 0.48145324 -0.3624145 0.54245573 0.12909207 -0.42527512 -0.17227246
0.50287265 0.13763048 -0.4490428 0.5548449 0.060487185 0.26670673 -0.39771476 0.5027977
-0.452426 -0.4140707 0.57601035 -0.055975333 -0.45292935 -0.5337701 0.38666615 -0.5046002
-0.01078228 -0.17100495 0.20562363 -0.35067618 0.56600946 -0.3388095 0.05827169 0.30592468

fc1.2.weight f4 [128, 64]
00000000: e8cd 71bb ebe7 debd 4096 a9bd 34bf a73d
00000010: 9c8d 68bd 3b22 a3bd 6ad9 ddbd 0f03 9c3d
00000020: 5baf 65bc fca1 573b 20f6 e9bb 5e99 a6bd
00000030: bb07 f1bd 081f cb3c 54ba ce3d 87e3 923d
00000040: b06d 833c c63a da3d b75d b9bc e020 c33d
00000050: dca8 d0bd 308c 383c db4e f03d 79b1 a1bd
00000060: acc1 b23d 9353 3e3d 0fd5 f1bd c06d e43d
00000070: c451 f6bd fe95 00be a2e7 e63c fb37 afbd
00000080: 54f7 323d e187 203d 6720 9b3d 5edb fc3d
00000090: d607 c4bd d27f 013c 979f 08be d4ef 4dbd
000000a0: 6e71 b33a 240f ae3d c698 9cbd bf1a d0bc
000000b0: 3b57 2dbd 6d44 74bd 2494 21bd 4bd7 d5bd
000000c0: ac94 993d b51b 0abd 1f62 4abc 9446 b33d
000000d0: 9955 b6bd 3a63 e23d f7bb d6bd f888 6c3d
000000e0: 8f10 273c e0ab 273d c715 26bd 7777 2abd
000000f0: eba2 a9bd 42d6 843c 40c5 b8bc 9961 a43d
00000100: ddea f2bb 4af9 7cbd 79fd a1bd 3620 bebd
00000110: b21c 59bc 1bf6 dabc d789 8cbd 3f40 f6bd
00000120: f299 28bd 9760 1fbc 6879 8bbd 704e 1cbd
00000130: e6b5 2bbd 9a5f b63d 564c fcbd 113b d03d
00000140: ea06 abbd 97ef a93d b0d0 623d 5bf0 30bc
00000150: aeae 903d d041 27bd c10c c83d dd04 67bd
00000160: 5979 bbbc ad9d c3bd 5e5d ab3d 293a fa3b
00000170: bdba 87b9 7be0 d8bc 3096 353c 6fce 63bc
00000180: e603 7cbd 74ac a0bd 75b3 13bc 74ee f63c
00000190: 36c4 e33d 6151 ccbd 18f1 a33d 9265 a03d
000001a0: 22fa 2c3c 910c d7bd 7f5f d4bd bd60 f13d
000001b0: 845d 1bbd e31a 023d 6dc3 603d de3d af3d
000001c0: d6ed aebd 10f9 d43c a8f7 45bc 7d78 c8bc
000001d0: c5ec eebc 9ad8 1ebd 3567 75bd 3df0 c5bd
000001e0: 52b2 823d 74c3 cebd 8e2a a13d e4d0 a53c
000001f0: f53f c9bd 75d5 6fbd 7ae0 ae3c b380 f13d
00000200: c981 65bd 3cac 253d 3067 40bd dcdc bd3d
00000210: 3ba7 edbd 0614 f9bd d1d5 42bd 6f5d fdbd
00000220: 8b92 9ebd 2ee0 55bd 0bde ca3d 6ce6 bc3d
00000230: 6148 b4bd 5d41 7abc d692 6e3d de91 2abb
00000240: 1848 d53c 4fb5 80b9 789a 623d 5416 113c
00000250: 983b 8c3d 68fd 5f3d 5108 febd a231 e2bd
00000260: 1c52 b93d a460 f7bd 8e13 d43b 40df b33d
00000270: 201d 2f3d 7cdf bf3d e8d6 35bc 703e d4bd
00000280: 2aa6 6bbd 3aea 12bd 4068 20bd 5c8c 89bd
00000290: c783 debd 614d d0bd d89f a73b 00ae 9d3c
000002a0: 48ab a43d 3cfb 933d 78dc 893d 271c cebd
000002b0: 045e c03d 6aaa c13d 3829 e73d 3317 f3bd
000002c0: 5fea 95bd c057 b2bd f829 f03d 8ff3 31bd
000002d0: 27cb e3bd 3716 5d3d f676 fcbd 8678 cf3d
000002e0: 43ea 80bd 0069 86ba 54d9 b13d 70d1 fb3d
000002f0: 96c6 253d 7060 f5bd 193a cd3d ecdc 1b3d
00000300: 465f 603d c80d a63d e9f1 ed3c f898 e2bc
00000310: 160b ca3d b26f dcbd b0cf 083e d315 3d3d
00000320: db01 913d ae72 fd3a 4eda 8e3d e072 773d
00000330: 919f ca3d df52 d0bd d1da e83d 9525 1b3d
00000340: b97c b63d 677e 393d fa47 e43d d9e0 1a3e
00000350: 339e 06bc 8e97 08be 9170 2e3d 78e5 5d3d
00000360: 5057 e03c 7dac 163c 53c4 f43c 5996 c2bd
00000370: 2ad6 6cbd d537 7f3d 2e59 ca3b 3222 043e
00000380: 96d1 29bc fe32 a1bd 4af8 a93c 526b 503d
00000390: d046 c8bc 364f a53d 8695 19bc f847 31bc
000003a0: 834a 973d 00d7 443d ace2 4dbb f62e 0f3e
000003b0: 691d eaba addc 20bd ee49 8abc 9823 7cbd
000003c0: 4996 33bd 2d57 4c3d d5ac 053e f8a8 cb3d
000003d0: c146 b53d 1a6e d83c 9f1e cdbc 0209 20bd
000003e0: 761f 9ebb 6ea3 9e3d 3a4a da3d 4a63 0e3e
000003f0: 9e33 163e a4a7 02be 08bc 7c3d be2d 093e
-0.0036896411 -0.108840786 -0.08280611 0.08190766 -0.056775674 -0.07965513 -0.10832484 0.07617771
-0.014018859 0.0032902947 -0.007139936 -0.08134721 -0.117690526 0.02479507 0.10094133 0.07172304
0.016043514 0.106557414 -0.022627695 0.09527755 -0.10188457 0.011263892 0.117337905 -0.07895178
0.08728346 0.04646642 -0.11808216 0.11153746 -0.12027314 -0.12557217 0.028186623 -0.08555599
0.0436929 0.039192084 0.0757454 0.123465285 -0.09571807 0.00790401 -0.13342129 -0.050277546
0.0013690421 0.084989816 -0.07646327 -0.025403379 -0.042319518 -0.05963557 -0.03944792 -0.104414545
0.0749906 -0.03371783 -0.012352495 0.08753696 -0.08903045 0.11054082 -0.1048507 0.05774781
0.010196819 0.040935397 -0.040548112 -0.041617837 -0.08283027 0.016215447 -0.022554994 0.08026428
-0.007413252 -0.061761178 -0.07909674 -0.092834875 -0.01325147 -0.02672868 -0.06862228 -0.12023973
-0.04116244 -0.009727619 -0.06810266 -0.03816074 -0.04192152 0.08904953 -0.123192474 0.10167516
-0.08350928 0.08297651 0.0553748 -0.010799493 0.070645675 -0.040834248 0.097680576 -0.056401122
-0.022885012 -0.09551559 0.08367418 0.0076363278 -0.00025888337 -0.026474228 0.011083171 -0.013904198
-0.061527155 -0.07845393 -0.009014954 0.030143 0.11121409 -0.09976459 0.08004969 0.07831873
0.010557683 -0.10500444 -0.10369777 0.117860295 -0.03793098 0.031763922 0.054873873 0.08556722
-0.08541457 0.025997669 -0.012082972 -0.024471516 -0.029165635 -0.038780786 -0.05991288 -0.096649624
0.06381668 -0.100958735 0.07869445 0.020241208 -0.09826652 -0.058553178 0.021347273 0.117921256
-0.056031976 0.04044746 -0.046973407 0.09270641 -0.11604162 -0.12162022 -0.047567192 -0.12371337
-0.077427946 -0.052215748 0.099056326 0.09223637 -0.08802868 -0.015274373 0.058245502 -0.0026026885
0.026035354 -0.00024549148 0.055323094 0.008855421 0.06847304 0.054685026 -0.1240393 -0.11044623
0.09048864 -0.120789796 0.0064720577 0.08782816 0.042752385 0.09368798 -0.011098601 -0.103634715
-0.057531513 -0.035867907 -0.03916192 -0.067162246 -0.10864978 -0.10171009 0.0051154904 0.019248009
0.08040482 0.072256535 0.06731504 -0.100639634 0.09392932 0.09456332 0.11287159 -0.11869659
-0.07320093 -0.08708143 0.11726755 -0.043445166 -0.111227326 0.053976264 -0.123273775 0.1013041
-0.06294682 -0.0010254681 0.0868403 0.122958064 0.04047259 -0.119812846 0.10020847 0.038052484
0.05477836 0.08108097 0.029046016 -0.027660832 0.09865396 -0.10763492 0.13360476 0.04616339
0.07080432 0.0019336545 0.06975232 0.060412288 0.09893716 -0.101720564 0.11369861 0.037877638
0.08910508 0.045286562 0.11146541 0.15124835 -0.008216429 -0.13339064 0.04258782 0.054173917
0.027385384 0.009196398 0.029878771 -0.09501333 -0.05782143 0.062309105 0.006175182 0.1290367
-0.010364911 -0.07871054 0.020748276 0.0508836 -0.024447829 0.08071749 -0.009374028 -0.010820381
0.07387259 0.048056602 -0.0031415625 0.13982758 -0.0017861548 -0.039272953 -0.016880956 -0.061557382
-0.043844495 0.049887825 0.13054211 0.099443376 0.08851386 0.026419688 -0.025039015 -0.03907109
-0.004825528 0.077460155 0.10658689 0.13905063 0.14668128 -0.12759262 0.061702758 0.13396356

fc1.2.bias f4 [128]
00000000: ad85 ddbd b683 d4bc cea7 a83d 0202 feba
00000010: 0c08 ddbd 7963 133a c5c9 9c3b c295 97bd
00000020: 176d 253d a062 803d 7d0b f03d 53d2 723d
00000030: 3864 093d a9e3 2f3d 2827 1cbb 2e95 8a3d
00000040: b34e 8cbc 9488 863d ec01 023e c813 aebc
00000050: 44a4 af3c a327 f03c 830c ff3d 00fa ecbd
00000060: 22ae e73d 44da 403d 1e95 133e c093 843d
00000070: 77a6 b53d cd87 653d bd4c 0d3e 2059 eb3d
00000080: d14f b8bd 0eff a1bd fdb8 a9b8 e89b 843d
00000090: b49d 0d3d 2934 71bd ab51 853d a5a6 3d3c
000000a0: 5b46 adbd fb99 4e3d aceb 12bc cadd 923d
000000b0: 65d4 fc3d d5ae d3bb c256 b93d 9395 d0bd
000000c0: b6ae c0bc ff8a babd 4cbd 2b3d 0ff7 cf3d
000000d0: 4a96 a5bc f19f d73d 8c5a f4bd 470b fabc
000000e0: 41af 91bc 9f84 9fbd 802d c43c d2fb b23d
000000f0: 8cde b33d f641 e03c 8edd aa3c 26b1 c73d
00000100: 503a d9bd 2a72 1cbc d023 3e3d d042 9abb
00000110: b436 e93d 5abe 8bbd f6c5 b13d f4bf 37bd
00000120: 0440 b3bd 2ec1 4a3d 8287 993c 97fa d93c
00000130: dd16 dabd 0d49 b5bd 798a af3d 3eae f9bc
00000140: 0a95 a53d ff61 8a3b a24d fd3d 34c5 18bd
00000150: 2678 a5bd 1ed5 55bd b56e 27bd b4a7 a1bd
00000160: 4206 9bbd 4804 da3d 4f24 82bc 45a2 b7bc
00000170: ffd9 803d 593c 4cbc d880 db3d 3936 44bc
00000180: ac07 91bd d3c5 bc3d ac2d 9fbd 0d49 073e
00000190: e904 d3bd 0dd8 e93d ad4e 74bd 71dc e4bb
000001a0: b7b8 8d3d 2714 e43d 0522 b5bd a03f d2bd
000001b0: 966e 54bd 10bd d83d be1c 42bd bcdd d8bb
000001c0: 24e0 023e 1a93 d93c 7281 b03d 06a8 c7bd
000001d0: 3d25 2bbd c092 6dbd 1af2 9f3d a421 1abd
000001e0: f378 d2bd 9dd0 8ebd ef2f 2c3d f720 11bd
000001f0: c733 793d eb64 b43c 6f91 fabc 0923 05bd
-0.10816512 -0.02594171 0.08235131 -0.001937926 -0.107925504 0.00056224276 0.004784795 -0.07401611
0.04038724 0.06268811 0.11720941 0.059282612 0.03354284 0.042941723 -0.002382705 0.06766735
-0.01712737 0.06569019 0.12696046 -0.021249667 0.021440633 0.029315775 0.12453558 -0.11571121
0.1131251 0.047083154 0.14412352 0.064734936 0.08869641 0.056037713 0.13798805 0.114916086
-0.08999599 -0.07909976 -8.093005e-05 0.06475049 0.034574226 -0.058887634 0.065097176 0.011575376
-0.08460685 0.050439816 -0.008967321 0.07171209 0.123451985 -0.0064600506 0.09049751 -0.10184779
-0.023520809 -0.09108543 0.041928574 0.101545446 -0.020213265 0.10528553 -0.11931333 -0.030522956
-0.017783763 -0.07788967 0.023947477 0.08739437 0.08782682 0.027375203 0.020857599 0.09750585
-0.10606825 -0.009548703 0.046420872 -0.0047076717 0.11387387 -0.06823416 0.08680336 -0.044860795
-0.087524444 0.049500637 0.018741373 0.026608748 -0.10648892 -0.08851824 0.085713334 -0.030478593
0.080850676 0.004223108 0.12368323 -0.037297443 -0.08079557 -0.052205198 -0.040877063 -0.07893315
-0.07569553 0.10645348 -0.015886454 -0.022416243 0.062915795 -0.01246556 0.10717934 -0.011975818
-0.070815414 0.092174195 -0.07772383 0.1321146 -0.10303671 0.114181615 -0.059645344 -0.0069842865
0.06919997 0.11136656 -0.08844379 -0.10266042 -0.051863275 0.10582936 -0.047390692 -0.0066182297
0.12780815 0.026559401 0.0861844 -0.09748845 -0.04178356 -0.05800128 0.07809849 -0.03762974
-0.102769755 -0.069733836 0.0420379 -0.03543183 0.060840394 0.022020778 -0.030586926 -0.032504115

fc1.4.weight f4 [256, 128]
00000000: 1a4a aebd 646f f53c 6980 9b3d 4726 943d
00000010: 8b86 f63c 9d6a 623d 963e 873c 9e3e 333d
00000020: 10d2 23bd 27fc 44bd 7b44 003d 90a2 f3bb
00000030: 0b3c 54bc 9a3f 673d 0454 44bd 7bba 803d
00000040: 2d97 8c3d cb79 69bd 0b48 cebc 75b5 97bd
00000050: b3c5 84bd 769b 88bc 3779 74bd 43f3 b03d
00000060: 4ea6 d83c 52a7 93bd 450c 9a3d 4505 633d
00000070: 8ebc 6abd d194 b5bc bde5 3d3d e875 323d
00000080: 4cbb 803c a2a9 6fbd d733 793d 578d afbd
00000090: 0000 c036 1211 28bd ef27 8bbc f520 863d
000000a0: 6ffb 7abd 52d3 0ebd 6e54 10bd 538e a9bd
000000b0: 071c 0c3d 9205 92bd e102 f73b 19c1 f4bc
000000c0: 3533 6cbd bc70 0bbd 298a 82bd d093 8dbd
000000d0: e0e5 a0bc c0e3 883c eb35 a03d 7e7e 0abd
000000e0: 5ae2 703d acb3 29bd e2d9 8f3d e54a 023d
000000f0: 0609 aa3d 9461 0b3d fc6c 1b3d 5315 2a3d
00000100: ea28 8d3d 6ac7 79bd d7e1 94bc 5cf1 1f3d
00000110: ce05 803d 1915 18bd 6762 abbd 7236 343d
00000120: 26ab f13c 3787 9ebd c85b 8fbd 845d 9bbc
00000130: 12a9 d8bb 2ac7 dabc f545 d3bc 23ab 7e3c
00000140: 4d42 2dbd b427 1abc 044d 7ebb 3812 a23d
00000150: 915d fc3c d269 debc cb69 093d 0bbe 4dbc
00000160: 31b2 1c3d 8c5e 6b3d cdcb c8bc 79d2 87bc
00000170: be3d 743d 9a60 043d 0e33 babc 2506 593c
00000180: b1d9 983d cff0 afbd e169 a4bd a662 c8bc
00000190: 4ffd 413b 91f7 cc3c 8e28 103d b827 613d
000001a0: 4654 a83d 1c0e 64bd a0a7 babb a981 9f3d
000001b0: 51e0 8f3d e408 ad3d 5b3c 52bd ba9a 8d3d
000001c0: 2312 283d 9286 59bd bd7b 67bc 7a14 8abd
000001d0: 5057 273d 480a 913d 8be3 063d cbaf b0bc
000001e0: 0e2f 5a3a d1cf 9b3d 9771 573d 1bc9 16bd
000001f0: ccd9 aebd 6e03 df3c d9ae 673d f2a8 9dbd
00000200: 377f 883d 1e31 3abd 82b8 8ebc a3e7 6b3d
00000210: 9250 d13d 9fca 02bd e246 75bc d54e 65bd
00000220: 76f2 09bd 8e65 343d de95 aa3d 239c 483c
00000230: 0f43 533d 42ea 0f3d 1e8f a03d 5f30 8c3d
00000240: 3b8d 8fbd 06dc 99bd a0cc 8a3d bfbe a1bd
00000250: 7475 d13d 2327 943d 3eab 553d 4329 82bd
00000260: 532b f83d 7a11 743d 2143 7b3d 3874 3f3d
00000270: cda1 863d 6dde 31bd 462a a4bd ce28 9a3d
00000280: 0d1f c83d 9259 233d a241 64bd 0cd8 903c
00000290: 1be8 8bbd 4aba a93d 0a8d 07bc 4571 9bba
000002a0: eac2 31bd 6261 9ebd 5d94 a23c ef4b 0b3d
000002b0: a56b 5fbd 2dde ed3c f345 e73c 2998 903d
000002c0: cc36 78bc e589 db3d 8fc1 fb3b 7f73 88bd
000002d0: 2e2b 9c3d 549e bc3d 0c54 a9bd 07e7 b63c
000002e0: 1432 673d 3cc5 2cbd 8621 23bb 3f4d d83d
000002f0: e8dd 9bbd fe8c 513d 413f 893d 202b b4bd
00000300: 4500 b63d bc19 95bd 1631 ab3d 1ab9 44bb
00000310: fd46 213d 55b8 db3d 36f8 d03b eb7f 11bd
00000320: 9a81 7a3d ce03 1ebd acdc 98bd fcaf 22bd
00000330: 9182 b8bc 66d9 1e3d 6d75 88bd 89d1 a2bd
00000340: 888e da3d d775 99bc ba68 643d e298 8dba
00000350: bddd a03d 24aa 013c 2496 1b3c 7ca2 85bd
00000360: 805a dd3c 3ddf 63bd 5ea8 3d3d a853 983d
00000370: b0e4 443c b62d cfbc f0e4 0c3d 74c2 c93d
00000380: e8e8 b2bd 4e8b 383c c3b8 9e3c bf9b 233d
00000390: e2d8 2fbd 904a 94bb 06e6 4c3d ce16 5a3d
000003a0: c419 83bc d982 46bd 235d dcbc 8caa 1e3d
000003b0: b1e3 30bd 8877 e4bc 7676 9a3d 9a15 82bd
000003c0: 7a2f 7b3c 8dc8 ee3d b9ec 0f3d a2ce 1e3c
000003d0: 854f 043d c14d bb3c 068b 01bd 3126 ad3d
000003e0: 35bc ae3d 8674 123d c05c 75bc ac1b 963d
000003f0: cb3c 3e3c 8f02 ebbc ec73 01bb a915 1abc
-0.085102275 0.029960342 0.07592852 0.07233863 0.030093452 0.055277456 0.016509335 0.04376089
-0.039995253 -0.048092034 0.031315308 -0.0074351504 -0.0129537685 0.05645714 -0.047931686 0.06285568
0.06864772 -0.057000916 -0.025180837 -0.07407657 -0.06483021 -0.016675692 -0.059685912 0.086401485
0.026446488 -0.07209648 0.075218715 0.055424947 -0.057308726 -0.022165688 0.046361674 0.043569475
0.01571431 -0.058511384 0.060840454 -0.0857188 5.722046e-06 -0.041031905 -0.016986815 0.06549255
-0.061274942 -0.0348695 -0.03523677 -0.08279099 0.034206416 -0.07129969 0.007538185 -0.029877232
-0.057666022 -0.03404306 -0.06374008 -0.069129586 -0.019640863 0.016710162 0.07822784 -0.03381204
0.058809616 -0.041431114 0.0702398 0.031809706 0.08302502 0.034028605 0.037945732 0.041524243
0.06892569 -0.06098119 -0.018174095 0.039048538 0.06251107 -0.037129495 -0.08368378 0.043997236
0.029500555 -0.07740634 -0.06999928 -0.01896549 -0.0066119516 -0.026706297 -0.025790194 0.015543732
-0.042299557 -0.00940888 -0.003880323 0.07913631 0.030806335 -0.027150068 0.033548158 -0.012557517
0.038255874 0.057463214 -0.024511242 -0.016579853 0.059629194 0.03231869 -0.022729423 0.013246094
0.07463396 -0.085908525 -0.08028007 -0.024461102 0.0029600447 0.025020393 0.035194926 0.05496952
0.08219199 -0.05567752 -0.005696252 0.077884026 0.07025207 0.084489614 -0.05132709 0.069142774
0.04103292 -0.053106852 -0.014128623 -0.06742187 0.040854752 0.07082039 0.032931846 -0.0215682
0.0008323052 0.07607997 0.052598562 -0.036812883 -0.08537635 0.027223315 0.056563232 -0.076982394
0.06664889 -0.045456998 -0.017421965 0.057593953 0.10220446 -0.031931516 -0.014970513 -0.055983383
-0.033678494 0.044042163 0.08329366 0.012244257 0.051577624 0.035135515 0.078397974 0.068451636
-0.070093594 -0.07512669 0.0677731 -0.0789771 0.102274805 0.07234027 0.052165262 -0.06355526
0.121176384 0.05958698 0.061343316 0.046741694 0.0657383 -0.043425012 -0.080158755 0.07527314
0.097715475 0.039880343 -0.055726655 0.017681144 -0.0683138 0.08287485 -0.008273372 -0.0011859318
-0.043398775 -0.07733418 0.019846136 0.034007963 -0.054546017 0.029036606 0.028231597 0.07060272
-0.015149783 0.10719661 0.007682986 -0.06662654 0.07625423 0.09209886 -0.08267984 0.02232696
0.056444243 -0.042180285 -0.0024891808 0.105616085 -0.07610685 0.05115985 0.06701518 -0.08797288
0.0888677 -0.07280299 0.08358972 -0.0030017556 0.03937434 0.10728518 0.0063772453 -0.035522383
0.061158754 -0.038577847 -0.07463965 -0.039718613 -0.022523196 0.038781546 -0.06663022 -0.07950122
0.10671717 -0.018732948 0.055763938 -0.0010803009 0.07854793 0.0079141 0.0094962455 -0.06525132
0.027020693 -0.05563282 0.046303146 0.07437831 0.012017414 -0.025290351 0.03439802 0.09851542
-0.087358296 0.011263682 0.01937521 0.039943453 -0.042931445 -0.00452549 0.050024055 0.053244404
-0.016003497 -0.04846463 -0.02689988 0.038736865 -0.043185893 -0.027889028 0.07542126 -0.063517764
0.0153311435 0.11659346 0.035137866 0.00969282 0.0323024 0.022864224 -0.031626724 0.0845455
0.085319914 0.035755657 -0.014975727 0.07329497 0.011611174 -0.028687743 -0.0019752933 -0.009404578

fc1.4.bias f4 [256]
00000000: 3c4f 44bd 9e79 833c d9ca b1bb 1060 963d
00000010: d411 9bba 2773 a53d a0ac a03d d59f 9a3d
00000020: 1851 85bd 8171 72bc 7e65 b23d e993 bd3d
00000030: 7424 85bc f515 50bd 56ac dfbc b0e4 aabd
00000040: 93ab ddbc 5903 0ebd f3bd 583d d571 c63d
00000050: 3054 d03d 33cd 893d 2a26 e0bc 897f 72bd
00000060: 6dde 93bd 2cef e53c b73f 323d 8309 493d
00000070: 7661 0abc 095c 9b3d 517b b53d 6e31 bebc
00000080: 48cc aabc 3e92 d03d b928 8b3d 7f5a a63c
00000090: b89d bfbc 1846 89bd f201 0fbd eb1c 2e3d
000000a0: 2eeb 373d 2830 d4bc 8465 863d 6c76 b93c
000000b0: e4f3 92bc 1de6 a2bd d6e1 ba3d e6e6 6ebd
000000c0: 2eda 7f38 b287 83bd 43d7 8f3d ab5a 783d
000000d0: 9414 7fbd 3c44 c0bd 9ea5 5fbc f2e4 da3c
000000e0: 9473 ad3d 2edd b93c 2e68 8bbd 9a7b a5bd
000000f0: c94d 97bd 3b27 c83c a98f 8dbd 827d 62bd
00000100: 0d71 0a3d e17a 8ebd 3039 ea3c 9741 073d
00000110: aae0 ebbc ae65 8dbd 10d9 b43d 5f32 8cbd
00000120: 5580 54bd 8ea7 543c 8220 b73d 3e7f 0abd
00000130: e168 5abd a2e9 043d 1252 523d 247f d83b
00000140: 6304 c3bd d8e6 00bd ccbf 9a3d 5d6e 1dbc
00000150: 3f85 8fbd 5506 ab3d 79bf 58bc 4e9d 6ebd
00000160: 5add 10bd e3de a63c ade3 5ebd b63f 013d
00000170: e828 19bd a9b7 a33d 2681 233d 795e e83c
00000180: 3d49 793d 56ae 7e3d 9ad8 723d 90ac c43d
00000190: ed6b 92bc 6fb4 813d eea6 833d c8da f53c
000001a0: 4700 f53c 257c 2c3d 4e1d 233d 26bf c6bc
000001b0: 9230 bc3c 0b69 223d f2b8 b73d eba1 a13d
000001c0: 0978 533d 196e 923c 7bd4 9d3d 68bf d63d
000001d0: 661a 32bd 8ed0 073d 4576 c9bb 3da3 1ebd
000001e0: 66e1 9abd 59ff 613b 3c6a 92bd e9db 743d
000001f0: 518d 433d 2e00 153b e7cb f83c 1234 613d
00000200: 37c6 a13d 30be e33c 2a1f d03c 9e22 a03b
00000210: 228d 29bd 5542 bdbd 1fe0 a8bd d0f4 b1bd
00000220: 1ec9 cbbc c7e9 5f3d ce40 7cbd e560 3f3d
00000230: af4c 29bd a39b a83c d958 47bd 3b31 093d
00000240: 32ab 803c ecd4 b33c 540a 79bd b2a3 46bd
00000250: 5c58 813d 7101 b73c 17e9 5c3c 4713 df3c
00000260: d10f 94bd 56a0 26bd 9256 a5bb 8a49 60bb
00000270: d549 97bd 7020 08bd 012e 9d3d 1035 733d
00000280: 7a60 e13d c3f3 1a3d dd7f 973a f4e4 803d
00000290: 8bc3 563c 9514 6d3d 0651 ae3d 9192 55bd
000002a0: 38db f5bc 3dc9 4a3d 6fba 943d a625 24bd
000002b0: 12ec 3fbc 6e55 dbbc 0704 38bd 33e5 57bb
000002c0: 7cc1 56bb 3791 153d 5f93 793d 6ce5 513a
000002d0: ba58 99bc 451c b83d a169 f3bc 2d96 97bd
000002e0: c3ce eabc 9254 8ebd 8fb4 333d 7f42 8a3d
000002f0: 244e ba3d 42e7 cdbc c651 aa3c ba2a 71bc
00000300: ede9 323d 0d79 c93d 7095 6bbc cf4b ab3b
00000310: 248b 9f3c 579d b3bd c518 11bd bfe3 5f3d
00000320: 6d29 52bd d16d 02bc daec ba3d eaeb 863d
00000330: ac2c 6dbd 32e2 053d f165 9f3d 74b0 51bd
00000340: c813 3d3b 7810 b23d 2840 13bd f62e b0bd
00000350: bcff 58bd d5a1 443b 8319 6dbd e65a 183d
00000360: 22ab 8a3d 5db7 973c 64cc 46bd ebe3 73bd
00000370: 6fc1 83bc bc1b f0bb 01df 433c 7bb1 8e3d
00000380: 5134 b5bc 1317 14bb d191 b43d 26a5 483d
00000390: 69bc 99bd 89da 4bbd 0677 5dbc a277 ab3d
000003a0: aac5 3dbd e34f 6bbd 8e5c 5abd d69f 263d
000003b0: ce26 9dbd 604b 493d ea3c 8dbd dcf1 7fbd
000003c0: 4e00 623d de46 443d 6d19 44bd f13f 103c
000003d0: ba37 213d e085 733d 17eb 4ebd 0024 ec3c
000003e0: c5a5 91bc 1f28 a4bc c168 733d cf7d 8a3d
000003f0: 9971 3bbd 6ba9 26bd 19a9 293d 1bb7 583d
-0.047927126 0.016049203 -0.0054257927 0.07342541 -0.0011830875 0.08078604 0.078454256 0.07550017
-0.06509608 -0.014797569 0.08710764 0.09256727 -0.016252734 -0.05080219 -0.027303856 -0.083444
-0.027059352 -0.03467116 0.052915525 0.096896805 0.101723075 0.06728592 -0.027361948 -0.05920366
-0.07220159 0.028068148 0.043517794 0.049081337 -0.008446088 0.07585914 0.08861411 -0.02321693
-0.020849362 0.101841435 0.067948766 0.020306824 -0.023390636 -0.067028224 -0.034913965 0.042508047
0.04490202 -0.025901869 0.06562331 0.022639476 -0.017938562 -0.07954047 0.09125106 -0.05832567
6.0999933e-05 -0.06422366 0.0702348 0.060633343 -0.062275484 -0.09388015 -0.013650326 0.026720498
0.084693104 0.022688475 -0.0680698 -0.08080216 -0.07387883 0.024432769 -0.069121666 -0.055295475
0.03379922 -0.06957031 0.028591722 0.033021536 -0.028793652 -0.069041595 0.08830464 -0.06845545
-0.0518802 0.012979401 0.08941747 -0.033812754 -0.053322677 0.032449372 0.0513478 0.006606953
-0.09522321 -0.03147015 0.075561136 -0.009608832 -0.070078366 0.08350817 -0.013229244 -0.058255486
-0.035367347 0.020369953 -0.054416347 0.0315549 -0.037392527 0.07994015 0.039918087 0.02836536
0.06086086 0.06217798 0.0592886 0.09603226 -0.017873729 0.06333243 0.06428324 0.03001155
0.029907359 0.04211058 0.03982287 -0.024261069 0.022972379 0.039650958 0.089708224 0.078922115
0.051628146 0.017874764 0.07706543 0.104857266 -0.043482207 0.033157878 -0.006148132 -0.038729895
-0.075625226 0.0034484474 -0.07149169 0.059780035 0.04774219 0.0022735703 0.030370666 0.0549813
0.078991346 0.02780065 0.025405485 0.004886939 -0.04139436 -0.092411675 -0.08245873 -0.086892724
-0.024876174 0.054666307 -0.06158524 0.046723265 -0.041332897 0.020582026 -0.048668716 0.033494215
0.015706632 0.021952115 -0.060800865 -0.048495956 0.06315681 0.022339555 0.013483307 0.027230872
-0.07229579 -0.040680252 -0.0050457204 -0.003422352 -0.07387129 -0.03323406 0.0767479 0.059376776
0.110047296 0.037830126 0.0011558492 0.06293669 0.0131081445 0.057880957 0.08511548 -0.05214173
-0.030011758 0.049508322 0.07262122 -0.040074967 -0.011713998 -0.026774134 -0.044925716 -0.003294301
-0.0032769134 0.03651544 0.06093156 0.0008006904 -0.018719066 0.08989767 -0.029713454 -0.07401691
-0.028663045 -0.06949724 0.043873366 0.067509644 0.090969354 -0.025134686 0.020790946 -0.014719659
0.04368012 0.09837542 -0.01437889 0.005227543 0.019475527 -0.087702446 -0.035424013 0.054660555
-0.051309038 -0.007960753 0.09127207 0.06587966 -0.05790393 0.03268642 0.07783116 -0.05119367
0.0028850902 0.086945474 -0.035949856 -0.08602707 -0.052978262 0.0030003686 -0.057885658 0.037196063
0.06770922 0.018520052 -0.048534766 -0.05954353 -0.016083447 -0.007327525 0.011955024 0.069674455
-0.022119673 -0.002259676 0.08816875 0.048985623 -0.075066395 -0.04976896 -0.013517147 0.083724275
-0.046331085 -0.057449233 -0.053310923 0.040679775 -0.07673417 0.04914415 -0.06896384 -0.062486514
0.05517607 0.047919147 -0.04787581 0.008804307 0.039359786 0.059453845 -0.050517168 0.02882576
-0.01777924 -0.020038662 0.059426073 0.06762277 -0.045762632 -0.040688913 0.04142103 0.052908998

fc_mu.weight f4 [1, 256]
00000000: dd19 2d3d 3f58 183d 7358 5c3d d738 a8ba
00000010: 22c8 18bd cd68 7fbd 07c4 943d 7118 19bd
00000020: 3470 773d dfcb adbd 3d9e 923d fa78 d63c
00000030: 3d0d 683d 621e a23d eb40 b73d 246d 833b
00000040: b2f0 293d 7e6a 42bd 9085 7cbd 7c4c 393d
00000050: b066 9a3d 0966 c13d 0ce8 a8bc f1f7 22bd
00000060: 5ec2 8abd 2844 6d3c 40e6 9a3d bc70 9b3d
00000070: cef9 bd3d 1917 26bc a243 383d d749 28bd
00000080: b438 4ebd a007 a23d fcdc 34bd dc52 4a3b
00000090: 6a76 083d 92bd 533d 8a4d 873c 69d2 643d
000000a0: 0987 af3d 756c a0bd 2e12 d2bc d199 40bd
000000b0: 2e85 9a3c 14d6 7ebc 36af bc3d 63d7 9d3d
000000c0: 1918 8b3d 0502 3bbc 4651 283d b92e a4bd
000000d0: 6fed 3c3c 37a7 2ebd 23ac 903d 503d 133d
000000e0: 22fb 773d bf37 203d 6b03 e43c 62da 0b3c
000000f0: ee66 72bd b1f8 663d ba59 c53c 138b 2dbd
00000100: 5654 ac3d 7bf5 e33a a679 a03d 0b21 90bd
00000110: 13c9 60bd b530 413d 8945 b13d 288f c7bc
00000120: 189e 663c d9cc bf3c f1d8 263d dfb6 1bbd
00000130: 5428 66bd 917e 683d eb48 92bd 99b5 49bd
00000140: 0ebf 48bd 9292 ca3d 222e 4bbd 4fe8 663d
00000150: 5823 dfbc 41ba b43d 531c 8dbd 4685 b23d
00000160: 3269 70bb 0fd9 c7bc 3f21 34bd 2cf4 1bbd
00000170: f935 8f3d 8a61 923c a313 d03c c85f 82bc
00000180: 44ff a6bd bd0a 12bd 942f 2ebc 82e9 263d
00000190: 3437 3d3c a75e 9bbd 9818 5ebc 1660 94bd
000001a0: 5a74 20bd 63a5 873d 501a 4c3d ecd4 bebc
000001b0: b056 0ebd 498c 12bd 287e 99bc dc8f 333d
000001c0: f8ce a43d 85c6 5d3d c855 b73d 5831 5e3d
000001d0: 2bdd 23bd 1ab6 aa3d f7d7 b63d 63e6 303d
000001e0: 806e 783a fa92 ed3c 88e4 90bc 5626 8d3d
000001f0: 4a53 663d 5409 8b3d 1f3f 8abc 42a4 9b3d
00000200: 5aa6 a23d a87d 53bd 1041 1d3d daba 723d
00000210: a5a1 87bd 0edc 983c ffa8 3f3d ade6 ff3c
00000220: 4df3 2ebd 3645 6e3b 6e67 573d 00d7 ad3d
00000230: 0444 6dbb 8b1d c2bc ddc4 8e3d 859a b23b
00000240: dfca bf3d 5c92 58bd 331f 10bd 1d87 4fbd
00000250: 4e57 7e3d f6bd 53bd 3c06 c83d 1828 1cbd
00000260: cccb 283b 4850 2fbc 0cbb 92bd 306d 933d
00000270: c189 1abd 15f5 7dbd 5d9b f2bc f1da 5a3d
00000280: a22b 433d 04da 42bd 46e4 6dbd 09cc 603d
00000290: 71e9 383d 631e fbbc 3c1f 0f3d 7d82 f53c
000002a0: f235 02bd 6822 bdb9 0fce 6c3d 2258 ad3d
000002b0: 14d3 d93c d823 6abd d6db f9bc c746 11bd
000002c0: 678c 083c 0eb3 c93b 5813 27bd 5f35 423d
000002d0: 6ea6 f4bc 4fc1 3e3d 1f8e 9a3d 5c43 9dba
000002e0: f91c 48bd 78aa 663d c08c 52bd 353d 123d
000002f0: c11b 763d 1ba5 e93c c480 b23a e78e 9d3c
00000300: 32ec 253d 1218 b53d 0524 dfbc 3dd5 ccbc
00000310: b769 e83c 66af c53a 6979 893d de09 a8bd
00000320: 2df2 6b3d 112f adb9 6039 903d 27f2 26bd
00000330: 1176 523d 7eeb a6bc 1796 4cbd 36bd 41bd
00000340: 756e 71bd 9084 34bd 9925 833d 90a5 8f3b
00000350: 64af 103d faef 673c 38c2 a8bc 258d 38bd
00000360: c690 bfbc 97bf 453d c41c 4ebd aa64 24bd
00000370: 681a ffbc 6001 763d e379 8fbb ed29 4bbc
00000380: 3dfa 0bbd 6223 ffbc b516 1c3d bb1b 53bd
00000390: f56d 52bd 0318 5cbd d108 a13d 137c 79bd
000003a0: b61a 18bc b7c3 9e3a d8e1 2bbc 7521 903d
000003b0: f20f e53c 5dd5 a53d 1875 64bd 091a 38bd
000003c0: 9a95 343c f4c3 2b3d 76a8 203d 2925 423d
000003d0: 0f8f 143d 0c2b 6d3d 87b6 0ebd 400f 9bbb
000003e0: c5c4 9fbd fddf e6ba 3847 893d 5e04 dabc
000003f0: ef16 2b3d 0005 ccb9 8606 31bd 1cd1 c73d
0.042260993 0.037193533 0.05379529 -0.0012834322 -0.037300237 -0.062355805 0.07263952 -0.037376825
0.06040974 -0.08486151 0.07159088 0.026180733 0.05665325 0.07915951 0.08947929 0.0040108133
0.04148931 -0.04746484 -0.061650813 0.045238957 0.07539117 0.0944329 -0.020618461 -0.039787237
-0.06775354 0.014481582 0.07563448 0.07589862 0.09276162 -0.010137343 0.044986375 -0.041086044
-0.050347045 0.079116106 -0.04415606 0.0030872142 0.033316053 0.05169446 0.016516466 0.055864725
0.08570678 -0.078331865 -0.025643434 -0.04702169 0.018862333 -0.01555397 0.09213106 0.077070974
0.06791706 -0.011414056 0.041093133 -0.08016724 0.011531218 -0.042639937 0.070640825 0.035947144
0.060542233 0.039115664 0.027833661 0.008535953 -0.059180193 0.056389514 0.024090637 -0.04236896
0.08414523 0.0017391884 0.078357026 -0.070375524 -0.05487926 0.04716559 0.08655841 -0.024360254
0.014075778 0.023413109 0.040734235 -0.038016196 -0.056190804 0.056761328 -0.07142814 -0.04924545
-0.04901033 0.09891237 -0.049604543 0.05637389 -0.027238533 0.088245876 -0.06890168 0.08716826
-0.0036683795 -0.024395494 -0.04397702 -0.038074657 0.06992716 0.017868776 0.025399989 -0.015914813
-0.08154157 -0.035654772 -0.010631461 0.040750034 0.011548806 -0.07586413 -0.013555668 -0.072448894
-0.03917346 0.06623342 0.04982978 -0.023294888 -0.03475064 -0.035778318 -0.018736914 0.043838367
0.08047289 0.0541444 0.08951908 0.054246277 -0.040005844 0.08335514 0.08927911 0.043188464
0.0009476915 0.029000748 -0.017687097 0.068920776 0.056231774 0.067888886 -0.016875802 0.07599689
0.07941885 -0.051633507 0.038392127 0.059260227 -0.06622628 0.018659618 0.046792027 0.031237924
-0.0427125 0.003635717 0.052588873 0.084882736 -0.003620387 -0.023695728 0.069711424 0.005450549
0.093648665 -0.052873954 -0.035186004 -0.050665963 0.06209498 -0.051694833 0.09766814 -0.038124174
0.0025756238 -0.010700293 -0.071645826 0.0719856 -0.03772903 -0.062001307 -0.029615099 0.053431455
0.047649033 -0.047571197 -0.058079027 0.054882083 0.045144502 -0.030654138 0.034941897 0.029969448
-0.031789728 -0.00036074524 0.0578137 0.084640756 0.026589908 -0.05716309 -0.030500334 -0.03546789
0.008334256 0.006155378 -0.040789932 0.04741418 -0.029864516 0.046571072 0.07546639 -0.0011998224
-0.048855755 0.056314915 -0.05140376 0.035702903 0.060085062 0.028521111 0.0013618697 0.01923318
0.040508457 0.08842482 -0.027238855 -0.025004024 0.028370721 0.001508218 0.0671261 -0.08205007
0.057604004 -0.000330322 0.070421934 -0.04075828 0.05138213 -0.020375963 -0.049947824 -0.047299586
-0.05894323 -0.044071734 0.064036556 0.0043837503 0.035323516 0.014156336 -0.020600423 -0.04505648
-0.023384463 0.048278417 -0.0503204 -0.040135063 -0.031140521 0.060059905 -0.0043785437 -0.012400133
-0.034174193 -0.031144802 0.038107593 -0.051540118 -0.051374394 -0.053733837 0.0786301 -0.060909342
-0.009283712 0.0012112771 -0.010490857 0.070376314 0.027961705 0.080973364 -0.05577573 -0.044946704
0.011021996 0.041934922 0.039223157 0.04739872 0.036269244 0.05790238 -0.03484204 -0.0047320426
-0.07801203 -0.0017614361 0.06703037 -0.02661341 0.041769918 -0.00038913637 -0.04321911 0.09756681

fc_std.weight f4 [1, 256]
00000000: 6690 3cbd aae7 adbc 44b9 e63b 71c6 c03c
00000010: fd5e 443d cebc 38bc 3138 fcbc a17f 16bd
00000020: 78ad 0c3d a1f1 093c 7676 793a 24d5 4e3d
00000030: dd4a 483d a79f d03b f9bb a0bb 35fd 163c
00000040: 1ceb 9dbd 63ab 1bbd d0d8 54bd 849f d9bc
00000050: 0db6 d5bc 2bbf 013d e809 913a 513a 62bd
00000060: 3ed7 11bd 2090 14bc b35e 54bd c8a5 69bd
00000070: cd28 3d3d 6675 aebc 6649 5ebd 5565 523c
00000080: eb34 083c ef9d 00bc 27e2 55bc 5a6d 903c
00000090: 5665 9ebd 630b 623d 4968 a23b b1b0 443c
000000a0: ef90 413d b31a 9bbc 93ac 3fbd 9e48 6c3d
000000b0: 5331 fabc bcba 163d 7648 d2bc 97db 1abb
000000c0: 183e 83bc ab70 84bd 8c45 153d be11 593d
000000d0: 7a75 1b3d 3c2b 10ba a595 b7bc f70f 5fbd
000000e0: f5cd 40bd 605c 593c aa26 bd3c 0b06 cabc
000000f0: 189f 26bc 1d98 143d 37c6 66bd e4a2 0f3c
00000100: 1566 243c 101d 123c a333 313d 47f3 123d
00000110: 71a4 643d 31fd 79bd 1ef0 11bc a4b2 57bd
00000120: 24c4 4b3d f928 423d 8462 8ebd 07c1 3a3d
00000130: 9201 493d 7ec7 1cbd adbb 7e3d 3b7d 6a3c
00000140: f2fd 01bd 8a48 e63c ed4a 58bc 7856 cc3b
00000150: dec0 8b3c e22d eabc 8dce 833d e839 473d
00000160: 7346 dabc c1d3 883c 0e3e 00bd 1f58 4ebc
00000170: 3e40 d03c 107a 1d3d 578b e43c fbca ebbb
00000180: ee60 8d3c fd0e 6d3d e8b5 803d 840f 133c
00000190: 719c 3d3d 630a 81bc 0ada 52bd c1e3 153c
000001a0: 9668 063d 25af 11bd 909a c23b 573a 4a3d
000001b0: e745 4cbd 3ddf 163d 2a96 7c3d 9626 5e3d
000001c0: c61a 93bd 221f 88bd fffd 57bd b66f 5bbd
000001d0: e36b 45bd 5c95 ebbc 5cfa 803b 8160 1b3d
000001e0: f01d d73c 3ce8 58bd f77a 183d 1a9f 1bbd
000001f0: 99c1 acbc 48a6 70bc c231 833d f967 443d
00000200: a3ee 1c3d a626 c3bc fc53 15bd 167d 38bd
00000210: 20fd 823d b82d 013d 80b7 ee38 e0fd 42bd
00000220: 476c 99bd f82c ef3c f048 79bd 6a28 9fbc
00000230: 7222 0fbc fb51 953c 972a 233b 8d03 5a3d
00000240: 5fe7 3e3b daf0 0f3d 411d 78bd 5608 e63c
00000250: d3f5 4cbd 9794 1d3c 7460 bfbb fe67 273d
00000260: 892a 523d e55c 3ebd adf1 693d 1e15 35bd
00000270: 493a 2dbd fe89 f63c 9025 68bc 536e 19bc
00000280: 123e 96bc 4e17 a5bc 80bf b8bc 3a4c bcbc
00000290: dcdb 303c fe93 0c3d b459 213d b868 8abd
000002a0: f9ed 13bc 824f 93bd 5cfd edbc ec56 553c
000002b0: 8cc9 7fbd f7d7 5bbd 83f8 2ebd 58af d539
000002c0: 2f88 09bd 768b 72bd a877 14bd 90ef 883c
000002d0: 4e8e 76bd 5898 143d c72e 13bd eada c3bb
000002e0: 6831 54bd 312f 2b3d 33a3 683d 5aa3 1e3d
000002f0: 38f5 a2bc dccf 473d 7c2c 5f3d e783 343b
00000300: b649 ccbc 3212 d23b 3878 893d 6746 723c
00000310: d4c4 c23c ee44 6f3d 3d42 893b 118c 9dbc
00000320: 8f1d 703b 5158 7c3d b069 f83c 9166 e0bc
00000330: 307e 21bd 0242 dd3c aeed 343d b729 a1bd
00000340: 940b 203d b413 713d 6790 6cbd 2c10 5c3d
00000350: e07a b0bc 4da4 2bbd ddad 82bd b7d2 8bbd
00000360: f5a7 0ebd 6d51 1d3d 3197 783d 8ab2 82bc
00000370: aff2 1a3d 0c37 05bc 7ef9 71bd a9c8 74bd
00000380: f585 143c fd64 9bbd 1e50 19bd 701f 34bc
00000390: 6acb 433d f6ad 593d ad47 0ebd a38f 6c3d
000003a0: 9d19 6b3d 85e2 b63c 07cb 22bb 22f4 8ebc
000003b0: 1a0f 3e3d 721d 9cbc 90b6 96bb a712 9dbc
000003c0: d2c1 e8bc c054 9a3c 59e9 703d be51 83bd
000003d0: 902f 0b3d e980 05bd 16bf 4c3d 8e70 723d
000003e0: 78be 6bbd d9f2 613b 332c 36bc aa7b 67bd
000003f0: f654 88bd 9c1c 09bd 2037 6b3c 0024 77bc
-0.046036147 -0.02122863 0.0070411284 0.023532124 0.04794215 -0.011275483 -0.030788513 -0.03674281
0.03434512 0.008419425 0.0009516248 0.050496235 0.04889952 0.0063666883 -0.0049052206 0.009215643
-0.07710859 -0.038005244 -0.05196458 -0.02656532 -0.026087785 0.031676453 0.0011065574 -0.055231396
-0.03560566 -0.009067565 -0.051848125 -0.057042867 0.04618149 -0.021296214 -0.054269217 0.012841542
0.008313398 -0.007850154 -0.013054407 0.017630268 -0.07734172 0.05518664 0.0049562794 0.012005017
0.04725736 -0.01893363 -0.04679544 0.05768644 -0.030541098 0.036799178 -0.025669318 -0.002362942
-0.01602082 -0.06466802 0.03644328 0.052995436 0.03795383 -0.00054996065 -0.022410223 -0.054458585
-0.047071416 0.013266653 0.023089726 -0.024661085 -0.010169767 0.03627788 -0.056341376 0.0087668635
0.010034104 0.008918062 0.043262135 0.03587654 0.055820886 -0.061032478 -0.008907346 -0.0526606
0.0497476 0.047402356 -0.06952384 0.04559424 0.049073763 -0.038276188 0.0621907 0.014312084
-0.03173632 0.028110761 -0.013201457 0.006235894 0.01705974 -0.028586332 0.06435881 0.048639208
-0.02664492 0.016702535 -0.03130918 -0.012594252 0.025421258 0.038446486 0.027898474 -0.007195828
0.017258134 0.057875622 0.06284696 0.008975867 0.046291772 -0.015752023 -0.05147747 0.009148539
0.032814585 -0.03556742 0.0059388354 0.049372043 -0.04987135 0.03683399 0.061666645 0.054236017
-0.07182841 -0.06646563 -0.052732464 -0.053573333 -0.048198592 -0.028757744 0.003936095 0.03793383
0.026259392 -0.05295585 0.037226643 -0.037993528 -0.021088408 -0.014688082 0.06405975 0.04795072
0.03831352 -0.02382214 -0.036457047 -0.045041166 0.06395936 0.03153774 0.00011382904 -0.047605395
-0.074913554 0.029196247 -0.060860574 -0.01942845 -0.00873624 0.018227568 0.0024897212 0.053226043
0.0029129607 0.035141803 -0.060574774 0.028080147 -0.050039124 0.009617946 -0.0058403555 0.04087066
0.051310096 -0.04647531 0.057115246 -0.044209592 -0.042291913 0.030095097 -0.014169112 -0.009364682
-0.018340144 -0.020152714 -0.022552252 -0.022985566 0.010794606 0.034320824 0.03939219 -0.06758255
-0.009028905 -0.07192899 -0.029051475 0.013021212 -0.06244807 -0.053672757 -0.042717468 0.00040757167
-0.03357714 -0.05921503 -0.036246926 0.016715795 -0.060194306 0.0362781 -0.035933282 -0.0059770243
-0.05180493 0.041793052 0.056796264 0.038730003 -0.01989232 0.048782215 0.054485783 0.002754444
-0.024937492 0.0064108605 0.06712383 0.014787293 0.023775496 0.058415346 0.0041888044 -0.019231828
0.0036638712 0.061607663 0.030323833 -0.027392657 -0.039426982 0.027009014 0.04417198 -0.078692846
0.03907354 0.05885668 -0.0577549 0.05372636 -0.021542966 -0.041904736 -0.06380818 -0.068273
-0.034828145 0.03840773 0.060691062 -0.015954275 0.037829097 -0.0081308 -0.059075825 -0.059761677
0.009065141 -0.07587621 -0.03742992 -0.010993823 0.047801413 0.053144418 -0.034736324 0.05775417
0.057397474 0.02232481 -0.0024840252 -0.017450396 0.04640112 -0.01905701 -0.0045994 -0.019173933
-0.028412733 0.01883924 0.058816288 -0.064120755 0.033980906 -0.03259364 0.04998692 0.05918937
-0.057554692 0.0034477024 -0.011118936 -0.05651442 -0.0665683 -0.03347455 0.014356405 -0.015084267
